trained_models/z_b_policy.pth (torch, 91257 bytes, 6 tensors)

net.0.weight f4 [128, 21]
000000 44 18 25 3e 34 dc eb bd 91 31 48 3d 66 1c 41 3e
       0.16122538 -0.1151661 0.048875395 0.1885849
000010 a2 7e e0 bd 34 24 9c bc bb e1 ed 3d e5 d1 43 bc
       -0.10961653 -0.019060232 0.1161532 -0.011951898
000020 f8 4c b0 3d 63 1a d7 3c fa 65 d6 bc 43 66 f6 bd
       0.086084306 0.0262577 -0.026171673 -0.120312236
000030 9c 5d 0a be 57 74 01 be ed 99 89 bd 48 8c c6 3d
       -0.13512272 -0.12642036 -0.06718812 0.09694725
000040 da d2 08 be 89 f5 cb 3d f5 b3 a4 3d 93 7a 3c bd
       -0.13361683 0.099589415 0.080421366 -0.046015333
000050 b7 8f b8 bc e9 e8 60 3e fc 5d d1 3c b7 03 8a 3c
       -0.022529466 0.21963848 0.02555751 0.016847475
000060 fe 04 b4 3a 7b d1 b9 bc 80 02 a8 bd a5 97 b1 3c
       0.0013734398 -0.022682896 -0.08203602 0.021678755
000070 00 a2 22 bd 8a 1d d4 3d 5b b7 2d 3e 63 4f b5 3c
       -0.039705276 0.10357197 0.16964476 0.022132581
000080 76 84 37 3d 12 a7 93 3d a4 69 84 bd 16 4a 8a bd
       0.04480406 0.072096005 -0.06465462 -0.06752412
000090 4d df ae bd 8e 8f 2d 3e 45 62 24 be 34 73 16 be
       -0.08538685 0.16949293 -0.16053112 -0.14692384
0000a0 35 55 c4 3c 80 ff 33 3e e9 90 d0 3d 88 36 f3 3d
       0.023966411 0.17577934 0.101838894 0.118756354
0000b0 89 9a ef bd 8c 9c b7 bd 9e 54 01 bd 3e 0c 2f be
       -0.11699397 -0.08965406 -0.031574838 -0.17094514
0000c0 a2 a7 1e be 72 9e ba bd 44 3b 1d 3c 3b ce 06 3e
       -0.15493634 -0.09112252 0.00959665 0.13164608
0000d0 e7 f1 1a be a2 66 84 bd 66 63 bd 3d 6f 22 27 3d
       -0.15131341 -0.06464888 0.09247474 0.040804323
0000e0 1e 43 eb 3d 73 df 3c 3e 7b ee 42 bd 55 91 7c bd
       0.11487411 0.18444614 -0.047590714 -0.061662037
0000f0 ba 59 f1 3d 45 50 f8 3d dc 37 7b 3d b3 f2 19 3e
       0.11784692 0.12124685 0.06133257 0.15033989
000100 16 80 77 3d c6 c2 0a be d8 77 b7 bd a5 3c bb 3d
       0.060424887 -0.13550863 -0.08958405 0.091424264
000110 1a 6b 87 3d 93 e2 39 bb 1c 8a bc ba 3f 20 0c be
       0.06612225 -0.0028363809 -0.0014384422 -0.13684176
000120 3f 78 15 be c7 9d 41 3e 2a da f0 3c 7a dc ce bc
       -0.14596651 0.18907844 0.029400904 -0.025251616
000130 8b b7 2e be 14 de ac bd e5 16 3d b9 bc 8d a6 bd
       -0.17062204 -0.084407955 -0.00018032973 -0.081325024
000140 15 bf 2d 3a b4 25 94 3d 0b 22 30 be a2 38 79 3e
       0.00066279 0.07233754 -0.17200486 0.2433801
000150 b2 36 90 bd 79 23 91 3d 93 55 71 3e 08 76 93 3d
       -0.07041682 0.07086844 0.235678 0.07200247
000160 26 51 de 3d 03 b4 9f bd b7 db 9f bd 20 ec ee 3d
       0.108553216 -0.077980064 -0.07805579 0.11666131
000170 51 6d 96 3a 5d 91 77 3d 5a 0c d4 bd 51 89 69 3d
       0.0011476671 0.060441364 -0.103539184 0.05701572
000180 a6 47 89 bd cb b9 13 3d 58 3c c8 bc b7 f1 ad 3c
       -0.06703119 0.036065858 -0.024442837 0.021233423
000190 f0 e7 d2 bd 24 0f 35 bd f0 18 19 3e 6e 44 21 3e
       -0.10298145 -0.044203892 0.14950919 0.1574876
0001a0 29 3f 0f bd 2f ec 2a 3c 64 c3 fb bc 08 b7 a4 bd
       -0.034972344 0.010432287 -0.030732818 -0.08042723
0001b0 b8 33 b4 bd 96 ef 17 be 73 42 8f bd e1 04 be bd
       -0.08798927 -0.14837489 -0.06995096 -0.09278274
0001c0 ad 14 6f be a1 ca 52 bc 8f e4 da 3d 98 c5 ea 3c
       -0.23347731 -0.012865693 0.10688125 0.028658673
0001d0 2f 99 04 3e 82 a4 64 bd c9 db 67 3e 75 fe 58 bd
       0.1294906 -0.05582095 0.22642435 -0.052977044
0001e0 99 9e f7 3d b6 03 9e bd 8d 67 57 bd 1d d3 51 3d
       0.12090797 -0.077155516 -0.052588988 0.051226724
0001f0 9e 21 b5 bb a2 6b 9f be 3f 7d 0e 3d 56 f1 97 bd
       -0.005527689 -0.31136805 0.034787413 -0.07419078
000200 29 c8 43 3c 46 41 a9 3d aa 70 08 3e e8 89 42 be
       0.011949577 0.08264403 0.13324228 -0.1899792
000210 21 9e fe bc d0 c9 16 3e 5f b5 de 3d 49 b0 f2 bb
       -0.031081261 0.14725423 0.108744375 -0.0074062687
000220 e1 21 0d be a1 f6 97 bd eb 39 35 be 39 80 19 3e
       -0.13782455 -0.074200876 -0.17697875 0.1499032
000230 95 cd 7b 3d f9 75 09 3e 56 0f 6f bd cb af 31 bc
       0.061475355 0.13423909 -0.058364235 -0.010845135
000240 b9 2e 9c 3d d8 19 22 bd 42 fa 68 3b 1e 61 6f 3d
       0.07626099 -0.039575428 0.0035549556 0.058442228
000250 27 60 76 3d 65 61 98 bd 38 86 c0 3d 54 db 9f bd
       0.06015029 -0.074404515 0.094006 -0.078055054
000260 6c 69 77 3d 01 dc f1 3d fb 8e a3 bd 36 91 58 be
       0.060403273 0.118095405 -0.07986256 -0.21149144
000270 b1 8a 36 3e c2 8a 95 3d ac 20 6b bd a5 b1 3b 3e
       0.17826344 0.073018566 -0.057404205 0.18329485
000280 8f 55 c3 bd df 71 8a 3d 83 36 f4 3d dd 4a 05 be
       -0.095378034 0.067600004 0.1192446 -0.1301684
000290 44 6b 16 3e 00 84 0c be ee 53 0b be af f0 03 3f
       0.14689356 -0.13722229 -0.13606235 0.5153913
0002a0 01 3c 41 bd 72 c4 ce 3b d4 3d b0 bc d1 55 26 3e
       -0.047176365 0.006310039 -0.021513857 0.16243674
0002b0 64 cb 55 be 77 4f 41 3c b8 23 cd bd 14 71 05 3d
       -0.20878369 0.011798731 -0.100165784 0.032578543
0002c0 c6 65 3a 3c 2c 7a 1d bd f1 6d c7 3c 87 92 5c 3d
       0.011376804 -0.03844659 0.024344416 0.053850677
0002d0 ac 04 ca bd 3a 18 1e be b2 b4 30 3d 39 10 42 bd
       -0.09864172 -0.15438929 0.043141074 -0.047378752
0002e0 71 d6 70 3d 51 24 96 3d f8 ae b7 3d d6 1c 31 3e
       0.058798257 0.073311456 0.089689195 0.17296156
0002f0 7a af 00 bd d4 17 b1 bd 60 4e 24 be 2c ca 4a 3d
       -0.031417347 -0.08647123 -0.16045523 0.049509212
000300 df c7 85 3d 2c 95 07 bd df 33 c7 bd f6 a6 ca 3c
       0.06532263 -0.033101246 -0.097266905 0.024737816
000310 d5 48 9a 3d af dc fa 3d b1 83 6f 3d 5c ec b7 3d
       0.07533423 0.12249123 0.0584752 0.08980629
000320 12 20 4b 3a 57 c2 7a 3d 95 2b 9a 3d 63 9f 19 be
       0.00077486143 0.061220493 0.07527844 -0.15002207
000330 52 71 72 bd a0 44 48 bc 3e 88 d0 bb ad 73 64 3d
       -0.059190102 -0.012223393 -0.0063638976 0.05577438
000340 c7 21 5b 3e ed e0 05 bf f0 7f 82 3d d7 ab ef 3d
       0.21399604 -0.52296335 0.063720584 0.11702698
000350 bf 4c 7e 3d ab 35 54 3b 05 87 0b bd 6d 65 49 3d
       0.06208491 0.0032380621 -0.03406431 0.049168993
000360 c8 a1 32 bd 43 26 43 3d 38 e0 53 bd f7 27 9d bd
       -0.043611318 0.04764391 -0.051727504 -0.07673638
000370 05 5d 27 3d eb 4d 14 3d 00 a3 6a 3d b5 c2 04 3e
       0.040860195 0.03620712 0.057284355 0.129649
000380 b7 ff b2 3d 36 3b 2d 3e ee 94 65 3d dc b3 e9 bd
       0.0874018 0.16917118 0.056050234 -0.114112586
000390 26 2f a2 bd fc f6 86 bd bd 82 5e 3d c6 4c 42 bd
       -0.07919149 -0.06590077 0.0543239 -0.047436498
0003a0 ab 50 a4 3c 86 57 92 3d 23 3b e3 bd 1d 10 46 bd
       0.020057997 0.071456 -0.11095264 -0.04835521
0003b0 6b 28 14 3d ae 3e 84 3d f9 f8 70 bb 9d ba 3e 3d
       0.036171358 0.06457268 -0.0036769493 0.046564687
0003c0 da 26 32 3c 16 00 5a bd b6 e5 1f 3e 6e ae 29 3d
       0.010873521 -0.05322274 0.15614972 0.041426115
0003d0 ad 69 f9 bd 4f 56 89 bd 28 44 47 bc 11 10 a1 3d
       -0.12178359 -0.06705915 -0.012162246 0.078643925
0003e0 e6 8e e9 3d 55 7e fa 3d d8 15 56 3d bb b6 b5 be
       0.11404209 0.12231127 0.052266926 -0.35490975
0003f0 8d 02 84 3d d3 29 fe 3c 80 5c 62 3d 4a 89 d3 bb
       0.06445799 0.031025803 0.055263996 -0.006455575

net.0.bias f4 [128]
000000 98 92 54 bd 4b eb da 3d aa 27 24 bd 9c d4 51 3e
       -0.051897615 0.1068941 -0.04007689 0.2049126
000010 04 7b 2a 3f 96 d2 7e be ac ca f6 3e e9 cc b7 3d
       0.66593957 -0.2488502 0.482015 0.089746304
000020 c8 69 91 3e c0 dc dc bd 2b c5 ee 3d 67 d9 0a 3e
       0.28401017 -0.10784292 0.116587006 0.13559495
000030 8a f6 b5 3e 64 51 71 3d ed b6 db 3e 04 fc 6b 3e
       0.35539657 0.05891551 0.42913 0.23045355
000040 4f 27 0d be 5d 36 d6 3e d8 64 57 be 22 4a ae 3e
       -0.13784526 0.4183835 -0.21034563 0.34040934
000050 23 55 77 be 16 38 db 3d e4 75 fa 3c 1b 44 94 3e
       -0.24153571 0.10704057 0.030573793 0.2895821
000060 b0 cf 06 3f 2a e1 5b bd c4 39 64 3e 44 af 42 3e
       0.52660656 -0.05368153 0.22287661 0.19012171
000070 f3 08 58 be 3e 11 3c be 02 47 51 be 7b fc 3f 3c
       -0.21097164 -0.18365952 -0.20437244 0.011717911
000080 03 55 9a bd 6b d3 37 3e 89 8d f6 3e 00 b0 dd 37
       -0.07535746 0.17951743 0.48154858 2.642721e-05
000090 40 85 36 3e 3e f6 82 3e 2f cf 86 3e ae 97 80 3e
       0.17824268 0.25578493 0.26329944 0.25115722
0000a0 39 ca 9b bc 4c 4e df 3d 54 e7 0b 3f a2 90 73 3e
       -0.019017326 0.10903606 0.54649854 0.23785642
0000b0 19 07 6e be 3b 37 ad 3e 1b 05 9f 3e 7b 52 65 3e
       -0.23244895 0.338312 0.31058583 0.22394745
0000c0 c4 39 5e 3e 32 ad a6 3e 3a ad f0 3d db c1 db 3e
       0.21701723 0.32554013 0.1175179 0.42921337
0000d0 e2 c9 03 be ad ac b9 3e 02 41 a2 be 8b ce 88 3d
       -0.12869981 0.36264554 -0.31690222 0.0668002
0000e0 0d e4 87 3e 4e 94 cf 3b e4 a4 ac bb a1 e6 9e bd
       0.26541176 0.006334818 -0.00526868 -0.07758833
0000f0 0c 50 bd bc 4d 3b 74 be 75 52 1d ba cf 57 d2 3c
       -0.023109458 -0.23850746 -0.0006001362 0.025676636
000100 2f 7c d1 3e 2f 9a 7a 3e ab 9c 85 3e 66 82 c8 3e
       0.40915057 0.24472879 0.2609609 0.39161986
000110 05 cf 86 3e dc 7d 37 be ce 6f fa 3e 18 d0 20 be
       0.26329818 -0.17919105 0.48913425 -0.15704381
000120 71 d2 3f bd 2e 19 99 3e a2 9c 65 3e dc f4 05 bf
       -0.046831552 0.29902023 0.22423032 -0.5232675
000130 2b 12 31 3e fe 0c cd be be 9d 5d 3b 32 a9 b7 bc
       0.17292087 -0.40048975 0.0033815945 -0.022419546
000140 94 55 3a 3f c3 59 f2 3e f1 a1 bc 3d 5c 13 0e 3d
       0.7278683 0.47334108 0.09210575 0.03468643
000150 00 f1 89 bd 60 f0 49 be 37 c3 88 be 20 55 10 3f
       -0.0673542 -0.19720602 -0.26711437 0.5637989
000160 3b 45 07 3e a9 f4 60 3e 70 8d 15 bf d0 63 f5 be
       0.13210003 0.2196833 -0.5841894 -0.47927713
000170 3a 14 e0 3e ce 23 31 3e 78 9f b4 3e 02 ef 11 3e
       0.43765432 0.17298815 0.35277915 0.1425133
000180 07 b7 56 be ea a0 f0 3e 17 fc 8f 3c dc 18 8f be
       -0.20968257 0.46997768 0.01757626 -0.27948654
000190 fa 01 0e be 36 3e a3 3e 79 7c c6 3d 98 a8 00 3e
       -0.13867941 0.318834 0.0969171 0.12564313
0001a0 df f7 db 3e a9 57 1c 3d fd 46 49 3d 28 05 68 3e
       0.42962548 0.038169537 0.049139965 0.22658217
0001b0 7b 71 e4 bc e6 e9 20 3f 36 11 8c 3e 7e d6 b2 3c
       -0.027886143 0.628569 0.2735688 0.021830793
0001c0 cf eb 7a 3e b1 74 98 3d 06 f5 95 3d 7a 0b 08 3e
       0.24504016 0.07444132 0.07322125 0.13285628
0001d0 db 53 df be 17 30 2f be 11 7e 04 3d 9c cc b2 3c
       -0.43618664 -0.17108189 0.03234679 0.021826081
0001e0 95 06 b1 3d 84 ee 31 3e ad b0 de bd c7 dc f7 bd
       0.086438335 0.17376143 -0.10873542 -0.12102657
0001f0 f9 0a 13 3e c8 fe e9 3e 1f ab 21 3e 95 c7 eb ba
       0.14359654 0.45702195 0.15787934 -0.0017988557

net.2.weight f4 [128, 128]
000000 d1 ec 5e 3a 94 5f 5f 3c f6 7b 5b 3d 17 c1 85 3c
       0.00085039163 0.013633627 0.053585015 0.016327424
000010 92 bb 1d bc c3 1c c1 bc e2 d0 67 bd e5 22 88 3d
       -0.00962724 -0.023573285 -0.05659569 0.066472806
000020 33 00 86 3d 55 e7 e1 3c 5d 96 e4 3c 43 ea fb bc
       0.06543007 0.027576128 0.02790373 -0.030751353
000030 e9 a1 0e bd 7e ea 18 3d 85 31 01 bc b0 f9 68 3d
       -0.03482238 0.037333004 -0.0078853415 0.056878746
000040 fd 08 85 3a 51 f2 96 3c af 32 84 bc 29 ec 8c 3c
       0.0010149773 0.018426092 -0.01613745 0.017202454
000050 48 fe a1 3c b9 52 8d bc bd 97 8a 3c 07 f6 75 3c
       0.019774571 -0.01725136 0.016918058 0.015012271
000060 77 08 b6 3b 16 f4 25 3c 28 f2 1a bd af 55 2e bc
       0.0055552083 0.010128995 -0.037828594 -0.010640546
000070 bb 3b bb bc e4 e3 00 bd 8d 28 33 3d a3 5e 6c 3d
       -0.02285563 -0.031467333 0.043739844 0.05770744
000080 c5 e2 2c 3d 71 60 54 3d f1 1a ba 3d 84 cb 3c 3d
       0.04220845 0.051849786 0.0908717 0.046092525
000090 d0 15 ac bd cb 8b e5 bc a5 1f 01 3e d3 c2 fc 3b
       -0.08402598 -0.02802076 0.12609728 0.0077136545
0000a0 4d a7 44 b9 3c 2a 2d 3d c7 ce ff 3b 87 49 42 bd
       -0.00018754341 0.042276606 0.007806632 -0.047433402
0000b0 3c 29 0d 3d 6e 54 9d 3c cb 4f 17 3b 95 48 9b bd
       0.034463152 0.019205298 0.0023088332 -0.07582203
0000c0 4b 07 b5 bc be 3e 98 3d fd 47 f0 3b a7 20 06 3d
       -0.022098204 0.07433842 0.0073328004 0.032745983
0000d0 b4 b2 07 bd f7 8e c3 3c bb d3 ea 3c 5e 81 09 3d
       -0.03312941 0.023871882 0.028665414 0.03357064
0000e0 30 8b 25 3d 68 60 b3 3d cc 53 e5 3b 7a 32 12 3d
       0.040415943 0.087586224 0.0069985148 0.03569267
0000f0 ef 12 11 3d a4 95 6d bc 41 01 b1 bc e1 28 66 3d
       0.035418447 -0.014501009 -0.021607043 0.05619133
000100 b1 fe 4f 3d 66 16 59 3d d2 31 02 bd a6 92 50 3d
       0.050780002 0.052999876 -0.031785794 0.050921105
000110 ea 30 00 3c 9a a4 c0 3c 91 24 b8 bd f5 91 91 3d
       0.007824162 0.023515988 -0.089913495 0.07107917
000120 46 01 02 bb ef 3b 81 3c b9 8a 24 3d af c4 2a 3a
       -0.0019837185 0.015775649 0.04017136 0.00065142935
000130 fa 72 9c bc 6d ba 3a 3a fa bb 28 bc 76 4c 36 bd
       -0.019097794 0.00071231165 -0.010298723 -0.044506513
000140 b4 a4 ac 3a 5f 1a 60 3d f4 6c 42 3d e1 cd b3 bc
       0.0013171644 0.05471265 0.047467187 -0.021948757
000150 77 47 07 3c c4 14 1a 3d 35 9a cf bc 05 01 6c 3c
       0.008256785 0.03761746 -0.025342086 0.01440454
000160 51 5c 96 bc 0f 56 48 bc 00 e1 35 bb b8 a2 64 bc
       -0.018354567 -0.012227549 -0.0027752519 -0.013954811
000170 21 a8 fe 3d 61 55 21 bb c1 8a 0f 3d 09 29 a2 bc
       0.12434412 -0.002461754 0.035044435 -0.019794958
000180 11 47 d5 ba ad 19 e9 3c a3 e1 96 3b 26 ea 26 bc
       -0.001627179 0.028454626 0.0046045347 -0.010187661
000190 28 ea 0b bc 4f 7b 9f bc cd 19 17 3d b4 cc 6b 3d
       -0.008539714 -0.019467978 0.03688984 0.057568267
0001a0 15 e5 00 3b da 07 8c 3d f6 68 a4 3d d2 c4 a9 3b
       0.0019667794 0.06837435 0.08027832 0.0051809335
0001b0 bf 41 1c bc fd 09 61 bc 9a cc 07 bc 9f 51 99 bd
       -0.009537159 -0.013735292 -0.008288527 -0.07486271
0001c0 6d ef 06 3d 13 2e 29 3c 24 ee 9a 3d 66 41 61 3d
       0.032943178 0.010325926 0.07564953 0.05499401
0001d0 bb 1c cc bc ba 62 a3 bb 33 2c 68 bd 16 0b b9 bc
       -0.024916044 -0.0049861344 -0.056682777 -0.022588294
0001e0 da b1 0f 3c ab a7 91 ba 1e 5c a2 bd 29 ea 3f 3d
       0.00877043 -0.0011112591 -0.07927726 0.046854172
0001f0 87 17 4e 3d 2c 3f 5b bc ce 7f b1 bd 13 91 7e 39
       0.050315406 -0.013381761 -0.08666955 0.00024277372
000200 df 52 36 3d a6 c8 cc 3c 7d f4 d9 3d f0 f2 15 3d
       0.044512626 0.02499802 0.106423356 0.036608636
000210 b3 bb b7 bb e5 07 01 3c af b3 83 bd 1e dc 96 3d
       -0.0056070923 0.007875417 -0.06430756 0.07366203
000220 dc 80 43 3d 63 79 14 bd 6d 89 0c 3d 1c d4 52 3d
       0.04773031 -0.036248576 0.034310747 0.051471815
000230 83 33 ed 3c 8d 3f 95 bb 57 30 43 3d f5 d4 ec 3c
       0.028955227 -0.004554695 0.047653522 0.02891014
000240 bc c2 92 3b 22 d8 83 3c 96 4d 9a 3c 80 62 84 bd
       0.0044787806 0.016094271 0.018835824 -0.064641
000250 af 39 71 3d ae bd 1f bd 46 22 20 3d 42 e4 0a 3d
       0.058892902 -0.038999252 0.039095186 0.03390909
000260 55 4c e7 37 8e 96 18 3c 77 b5 ab bc 5c 8f 40 3d
       2.757289e-05 0.009313239 -0.020960553 0.04701172
000270 42 29 a4 bc 05 88 be bc cd 4c f2 3c 2c 36 e6 3c
       -0.020039205 -0.023258219 0.029577637 0.028102003
000280 26 e4 11 3d 4e 33 b7 3a 75 a1 70 bc 0a 70 f9 3c
       0.03561797 0.0013977082 -0.014686932 0.030448932
000290 1c 7d 8e bd 72 51 60 3d da 9b 6d 3c 21 60 8f bc
       -0.069574565 0.054765172 0.01450249 -0.017501893
0002a0 8f 9d 3d bd 4b 68 0f 3d a9 88 ee 3c 6d b6 8c 3d
       -0.046292838 0.03501157 0.029117899 0.068707325
0002b0 47 fb e3 3d be 93 75 3d 80 43 92 3d ef 27 00 bd
       0.11131912 0.05995535 0.07141781 -0.031288084
0002c0 cc 1f 98 3c a8 ca fe 3b 16 b3 26 bc 38 11 18 3c
       0.01856985 0.0077756234 -0.010174533 0.009281449
0002d0 97 f3 a5 3d b7 eb 21 bd c7 58 f9 ba 6e 28 0d 3d
       0.08103102 -0.039531436 -0.001902365 0.034462385
0002e0 25 4f 7c 3d 93 c5 8b bd dd cc 00 3d 07 5d 5a 3c
       0.061598916 -0.06824794 0.031445373 0.0133278435
0002f0 7d ae f4 3c 7d 4d ba 3c 3f ef 6f 3c e3 cf 54 3d
       0.029868359 0.022742027 0.014644443 0.05195607
000300 9a 01 60 3b 47 37 96 bc fe 3e 90 3d 10 a1 0b bd
       0.0034180642 -0.018336905 0.07043265 -0.034089148
000310 b0 80 8d bd 05 42 89 bd 06 6b cc bd 52 98 02 3d
       -0.06909311 -0.06702045 -0.099813506 0.031883545
000320 7d 84 05 3c e8 bb 09 3d 0d ee f3 bc 98 37 8d bb
       0.008149263 0.033626467 -0.029776597 -0.004309606
000330 46 64 40 3d 9a 6d eb 39 ee bb b0 bb 42 b0 f5 ba
       0.04697063 0.00044904352 -0.0053934967 -0.0018744546
000340 c1 a9 02 3c b7 99 4d bd d2 69 06 3d de 84 d6 3b
       0.007975043 -0.050195422 0.032815762 0.0065466007
000350 1b 47 04 bd 82 10 f6 3b 95 7c 9f 3d 2f da 8b bd
       -0.032294374 0.007509292 0.07787434 -0.068287246
000360 09 7e 5c 3d c7 ed 9b bc e9 3c 79 bd 8d f7 28 3d
       0.053831134 -0.01903428 -0.060849104 0.041251708
000370 e4 3c 84 3c 01 33 71 3d 34 0a 90 3c c7 28 81 3c
       0.016142316 0.05888653 0.01758299 0.015766514
000380 41 0f 46 bb 15 9b 9c 3d 83 45 8b bb 7c 02 62 bc
       -0.0030221494 0.07646767 -0.00425023 -0.013794538
000390 f4 e0 78 3b ce ee f9 bc bc 3a 52 3d a2 34 86 3d
       0.003797588 -0.030509379 0.051325545 0.06553008
0003a0 dc 93 54 3d 27 a6 ef bb 6e 4f 4a 3d 08 3c e7 3c
       0.051898822 -0.007313508 0.049392156 0.028226867
0003b0 a9 a5 c6 3c 9d ed ab bc d7 77 98 bb 55 7b 17 bd
       0.024248915 -0.020987326 -0.004652958 -0.036982853
0003c0 47 c0 1b bd 70 23 13 bd b8 df 11 3d 0c a9 4a bd
       -0.038025167 -0.035922468 0.035613745 -0.049477622
0003d0 87 8a 79 bb cb 22 41 3b cc f9 2c bd 49 88 8e bd
       -0.0038076953 0.00294702 -0.042230412 -0.06959588
0003e0 32 94 98 3c 68 d4 47 3d 91 dc 34 bd 8e 9e 03 bd
       0.018625353 0.04878655 -0.04415566 -0.03213363
0003f0 7d 45 ab 3d 53 e6 48 3d 46 d3 54 3d 67 98 cb 3d
       0.08362863 0.04904778 0.0519593 0.09941178

net.2.bias f4 [128]
000000 ac e9 17 3e c4 d0 6e 3e 86 67 d3 3d 76 94 62 bd
       0.14835232 0.23321825 0.1032248 -0.055317365
000010 ff 8d de bc 38 1e ba 3d 2a e5 27 3e d7 f4 16 be
       -0.027167318 0.09087795 0.16396013 -0.14741836
000020 1b 42 ee bc 45 5a e3 bd 02 c3 40 3c c3 53 ac 3d
       -0.029084256 -0.11101202 0.0117652435 0.08414414
000030 0c ec b0 be 98 e3 00 3c 32 88 08 3e 72 41 a1 bd
       -0.3455509 0.007866763 0.13333204 -0.07873811
000040 b3 28 f0 3e a9 4b f9 3d 10 09 5c 3d 24 2c 7e bd
       0.4690605 0.12172634 0.05371958 -0.062053815
000050 7b 21 bd 3d 41 73 d9 bc e6 64 42 3e 11 cf f1 3d
       0.092349015 -0.026544215 0.18983802 0.11807073
000060 74 7d fc bc 11 dc 7c 3e 41 91 7d 3e b4 ed a2 3d
       -0.03082154 0.24693324 0.24762441 0.079554945
000070 29 cf 6f 3e 6a 2f 57 3d bb 52 9c 3d 74 9a e8 bd
       0.23418869 0.052535452 0.07632967 -0.113575846
000080 00 e7 f0 3d 32 51 0b be 14 5a 6d 3c 7b 4a bb 3b
       0.1176281 -0.13605192 0.014486808 0.005715666
000090 51 47 5e 3e 22 bf 8b 3d e3 87 ea 3d 3f 80 32 3d
       0.21706893 0.06823565 0.114516996 0.043579336
0000a0 9d ba d8 3d 60 b5 0f be 58 10 33 be bd 0c 3a 3e
       0.10582469 -0.14034033 -0.17486703 0.18168922
0000b0 ef 68 fd 3d f7 6f 0d 3e 31 b1 60 3e d5 cd 24 be
       0.1237353 0.13812242 0.21942593 -0.16094144
0000c0 8c 14 44 bd 4b 51 86 3c a5 d8 54 bd 17 26 d6 3c
       -0.047871158 0.016396185 -0.05196442 0.02614121
0000d0 31 eb c6 bb fb d6 ce bc 33 aa b9 3c 2e f4 79 be
       -0.0060705175 -0.025248995 0.022664165 -0.24409553
0000e0 6e 9c c1 bd d4 09 0f 3e 23 22 01 be 1c 26 ed bc
       -0.09453665 0.13968593 -0.12610678 -0.028948836
0000f0 6e 64 01 3e 54 5f d1 bd ba 0a f9 bc 50 99 b7 3b
       0.12635967 -0.102232605 -0.030400623 0.005602993
000100 01 e9 7b be 23 41 13 bd cf 9c 33 3d 84 9c cd bd
       -0.24600603 -0.03595079 0.043850716 -0.100396186
000110 2d 32 9d 3d 47 12 5e 3b dd 37 08 3e db 35 35 3e
       0.07675586 0.0033885406 0.1330256 0.17696325
000120 22 a8 3b be 89 2f f4 bd 5b f2 68 bd f5 5e 6b 3c
       -0.18325856 -0.11923129 -0.056871753 0.014365901
000130 b8 26 ba 3d 87 1c 38 bd 3e 35 ae bd 11 45 2b 3e
       0.09089416 -0.04494908 -0.08506249 0.16725565
000140 c3 d3 1d bb 00 7d c7 bd 52 ac 4c 3e 02 67 24 bd
       -0.0024082519 -0.09740639 0.1998761 -0.0401373
000150 ba e8 31 be db 31 ad 3d ad 0b 27 3c 26 6d 0d 3d
       -0.17373934 0.08456775 0.010195655 0.03452792
000160 86 26 b0 bd c3 28 91 3d 7f f9 9e be 67 e3 eb 3c
       -0.08601098 0.07087853 -0.31049725 0.028794957
000170 e1 8c 46 3c ba 46 a3 3c 1d 0b c3 bd 63 da 08 3e
       0.012118549 0.019931186 -0.09523604 0.13364558
000180 44 d8 08 be 95 12 ef 3d 60 74 43 3d 0f 8e 0a 3e
       -0.13363749 0.11673466 0.047718406 0.13530754
000190 b3 f7 07 3e 3b 7a 09 3e 53 07 e1 3c 63 7c 4a 3e
       0.13278084 0.13425533 0.027469313 0.19774012
0001a0 90 72 d2 3d 0c 6d 16 be fc 0a 08 3e 43 fe 0e be
       0.10275757 -0.14690036 0.1328544 -0.1396418
0001b0 7e 14 bc 3c 3c 8b 51 3e 6f 23 ac bc 1f 08 ae 3c
       0.02295899 0.2046327 -0.02101299 0.021244107
0001c0 1f 68 5e be 68 20 0c 3e f9 20 c2 3d 6c e0 f3 bb
       -0.21719407 0.13684237 0.09478945 -0.0074425247
0001d0 71 42 c6 bd 22 fb 09 3c 1e 9e 4f 3e 37 fe 36 bd
       -0.096806414 0.008421691 0.2027516 -0.044676032
0001e0 4c 59 de 3a 1f 30 53 38 9a 8f 27 bb dd 92 df 3d
       0.0016963868 5.0351136e-05 -0.002556777 0.10916684
0001f0 27 04 53 be 76 b1 14 3e 56 e9 5b bb 3e 34 19 be
       -0.20607053 0.14520821 -0.0033555827 -0.14961335

net.4.weight f4 [20, 128]
000000 b6 40 9b 3d eb eb 9e bb 24 96 d7 3c 63 78 b2 bb
       0.07580702 -0.004849901 0.02631671 -0.00544648
000010 60 67 4f bd af 37 41 3d 64 50 44 bc ae af 62 bc
       -0.050635695 0.047172245 -0.011982057 -0.013835831
000020 d5 dd 0e 3c 6e f1 85 3b bc 88 b2 3c 2c d8 c6 b8
       0.008719881 0.0040876186 0.021793716 -9.481641e-05
000030 6b 3b ed 3d df a3 7e 3c d5 f8 2c 3c 3b f5 15 bd
       0.11583599 0.015542 0.010557373 -0.036610823
000040 5e ec 99 3c ad b4 5c bd b4 d3 31 3c 29 f5 41 bd
       0.018789466 -0.053883243 0.010853697 -0.047352944
000050 89 fb 5b 3d f8 b5 a8 bb ec c5 74 3c 75 d6 06 bd
       0.05370668 -0.0051486455 0.014939766 -0.032919366
000060 72 fc 09 3d a8 f3 1a 3d 21 44 63 bd e9 8a 08 3c
       0.033688016 0.037830025 -0.055484895 0.0083339
000070 c1 6a ca bb 3b 5d 5f 3c d0 42 56 3d e8 dd 45 3d
       -0.006177277 0.013633068 0.05230981 0.04830733
000080 d6 08 bf 3c 98 ba 0c bb eb b4 1c bd 61 d4 ce b9
       0.023319643 -0.0021473523 -0.038258474 -0.00039449616
000090 58 56 1b 3d 50 f9 96 3c 30 69 c3 3c 1b cb d1 3c
       0.03792414 0.018429428 0.023853868 0.025609544
0000a0 53 ed 7d bc 98 27 46 bc a1 6e bb 3c c3 ea 50 3d
       -0.015498477 -0.012094401 0.0228799 0.051005136
0000b0 60 99 3a 3c 39 12 5a 3d cc 60 b8 3c fe bf 16 bd
       0.0113891065 0.053240035 0.022507094 -0.03680419
0000c0 45 cc 83 bc bb d2 eb bc f6 64 11 bc 5a ed ed 3b
       -0.016088614 -0.028787008 -0.008874169 0.0072609605
0000d0 a8 66 da bc 34 b5 1d 3d 2a ca 29 bc 35 a9 dc 3c
       -0.026660278 0.038502887 -0.010363141 0.026936153
0000e0 7a c9 5e bd ee c0 8e 3c 8f cb 86 3c b1 ce a6 bc
       -0.05439136 0.01742598 0.016454486 -0.02036223
0000f0 97 77 19 3d 56 bf 29 3c 94 df 8a bd 9c d5 55 3c
       0.037467565 0.010360559 -0.067809254 0.013051417
000100 70 cd 38 bd 79 01 91 3c 9e cd a7 bc 8f 27 64 b8
       -0.045117795 0.017700898 -0.020483788 -5.4396278e-05
000110 40 93 9e 3c 67 4e fa bc cf 81 96 bc 8c 2f a7 bc
       0.019357324 -0.030554963 -0.018372444 -0.020408414
000120 aa d0 cb 3c 64 a2 33 3c c1 9a ab 3c bb 11 81 3c
       0.024879772 0.01096401 0.020947816 0.015755525
000130 ae 67 83 3c f6 f8 92 bd f2 5f 2e 3c 17 6e c1 3c
       0.01604065 -0.07176392 0.010642992 0.023612065
000140 8c e3 2b bd 64 d0 c2 3c ee 4b 69 bb 20 00 81 3d
       -0.041965052 0.023781009 -0.0035598236 0.06298852
000150 35 a5 9e bb af f7 30 3c 03 a0 58 bc 20 e6 45 3c
       -0.0048414716 0.01080124 -0.0132217435 0.012078792
000160 a2 d1 b7 bc 0b 2d 43 b9 2f 42 9c 3c 56 63 9f bc
       -0.022438828 -0.00018613429 0.019074528 -0.019456547
000170 ed 70 1d bc 5a 3f 24 3d f9 9e 5f bc f3 9a 85 bd
       -0.009609443 0.04009948 -0.013648742 -0.06523695
000180 a9 fb 12 bd db fc 34 3d fd ee 14 3d 4b 51 54 3d
       -0.035884533 0.044186454 0.03636073 0.05183534
000190 33 d9 f8 3c c1 87 15 3a f3 76 46 bc 84 7b 71 3d
       0.030377006 0.0005704128 -0.012113321 0.058955684
0001a0 eb dc c7 3c 2f 92 86 3c 63 e7 83 ba ff 7f a7 bb
       0.024397334 0.016427128 -0.0010063465 -0.005111694
0001b0 a9 9e dd 3b fa ab 00 3d 50 cd 0c bd 69 65 51 3b
       0.0067632985 0.03141401 -0.03437549 0.0031951314
0001c0 92 9c b0 bc b4 4e 98 3c b2 41 17 3d fd 5c 55 3b
       -0.021559034 0.018592216 0.036927886 0.0032556646
0001d0 8b 03 2e 3d 04 bc 8a bc 8f 53 83 3d 66 52 7b bd
       0.042483848 -0.016935356 0.06412422 -0.06135788
0001e0 fe 94 b1 3b 7d cd ae 3c 28 d3 3a bd 86 5f bd bc
       0.0054193726 0.021338219 -0.04561153 -0.023116838
0001f0 0e 5b b8 bb 6a ae 35 3d a6 52 5d 3d 77 8e 20 3d
       -0.005626089 0.044355787 0.054033898 0.039198365
000200 57 14 03 3b 4a bd f1 3c e9 a7 f8 bc ca 1e 3b 3d
       0.0020001137 0.029509205 -0.030353503 0.04568366
000210 2f 56 4c 3b ad 10 1f bd d7 22 32 3d 65 b3 9e bb
       0.00311793 -0.038834263 0.043490257 -0.004843163
000220 91 c5 90 bc f2 32 43 3d 7a c5 69 3d c0 6b c9 3c
       -0.017672332 0.047656007 0.057073094 0.024587512
000230 5c ad a3 3d 40 b4 b1 3b ea be 8e bb 2d 0c 48 3a
       0.0799205 0.005423099 -0.004356255 0.0007631209
000240 2f 7c 01 bd 2c 0e 85 3d de db 8e 3a 60 e0 b8 bd
       -0.03161257 0.06496844 0.0010899266 -0.09027171
000250 de 6b 82 bc ed 81 e4 3c c3 16 84 bd c4 db d4 3a
       -0.015920576 0.027893985 -0.06449654 0.0016239812
000260 71 d1 fd bc 09 b0 4c bd 32 92 7f bc 77 b0 7f bc
       -0.030983659 -0.049972568 -0.0155988205 -0.015606037
000270 c4 95 c4 3c 29 a9 d3 38 38 e9 16 3d bd 5b 0c 3c
       0.023997195 0.000100927726 0.03684351 0.008566794
000280 61 71 ed 3b d0 cf 09 3b a0 ea 89 bc 3d 45 1f 3d
       0.007246182 0.0021028407 -0.01683551 0.03888439
000290 96 c3 3d bc 19 54 25 3d 3c a9 b1 bc 49 e5 0b 3d
       -0.011582276 0.040363405 -0.021687143 0.03415421
0002a0 c1 f8 95 bc 21 1f 1b bc f5 90 cc bb 45 de 95 bb
       -0.018307092 -0.009467871 -0.006242866 -0.0045736157
0002b0 fb e0 40 3d c6 32 2a 3d ed f4 71 3c e8 54 d0 3b
       0.047089558 0.041552328 0.0147678675 0.006357778
0002c0 1f 7d 7e 3c ef 98 31 bc 25 e1 2c 3d 4a 26 c1 3c
       0.015532761 -0.010839685 0.042206902 0.023577828
0002d0 a6 fc 32 3d 33 a4 06 3c a1 da 27 3c 84 40 60 3b
       0.043697976 0.008217859 0.010244996 0.0034218142
0002e0 96 81 1c bd ec ff e9 bb f4 b9 4d 3a 24 e9 21 bd
       -0.03820952 -0.007141104 0.00078478386 -0.03952898
0002f0 87 5d 9f 3c 25 2a ed 3b 94 88 44 bd 8c f8 a6 bb
       0.019453777 0.00723769 -0.047981814 -0.005095547
000300 40 43 5b 39 f4 17 a5 3c 86 a4 86 3c e3 94 54 bd
       0.0002091052 0.020153023 0.016435873 -0.051899802
000310 e2 3b 3f bb e8 c6 5b 3c 79 f3 72 3c fe 49 52 3d
       -0.002917998 0.013414122 0.014828556 0.051340096
000320 d7 0c 02 3d d2 bd a1 bc 21 67 6a bb 79 d7 2a bc
       0.031750526 -0.019743834 -0.0035767036 -0.010427349
000330 38 df 82 3b bd 23 ef bc 41 27 14 bc 1f db df 3c
       0.003993895 -0.029191846 -0.009042562 0.027326165
000340 f5 54 0a 3c e3 08 b7 bc ec 24 2e bc a6 bd 13 bd
       0.008443107 -0.022343105 -0.01062892 -0.036069535
000350 c7 e6 b3 bc 57 af d0 3a 29 43 a3 3c 26 a7 34 bd
       -0.02196063 0.0015921396 0.019929485 -0.044104718
000360 8c 09 c9 3c cc 59 51 bc 69 6c d3 bb c2 f4 28 bd
       0.024540685 -0.012777757 -0.0064521325 -0.041249044
000370 55 45 46 3d a2 b1 1a bd 1b 02 59 3a 0b a4 2b bd
       0.048405964 -0.03776706 0.0008278207 -0.04190449
000380 c4 36 5f 3b 11 d8 38 bc 97 f4 99 bc 37 db f2 bc
       0.0034059742 -0.011281983 -0.018793387 -0.029645545
000390 e1 a9 b5 3c 7f 92 b1 bc e6 4f 5f 3d 01 f2 0a bd
       0.022175731 -0.0216763 0.054519556 -0.0339222
0003a0 86 d6 b0 bb 2e 68 c9 3b 25 94 ab 3b 9e f2 84 3c
       -0.005396667 0.0061464524 0.005236166 0.01622897
0003b0 97 5f 14 bc 04 1e b3 3c ed eb 39 3c 7f 30 66 3b
       -0.0090559935 0.021864899 0.011347753 0.003512412
0003c0 25 78 0d 3d 0a 34 50 bc b5 d2 d7 3c e6 29 24 3c
       0.034538407 -0.01270772 0.02634559 0.010019755
0003d0 4f 07 1d bd 2d 74 bf 3c c8 93 ed bc 40 31 9a 3d
       -0.03833705 0.023370827 -0.029001132 0.07528925
0003e0 e4 d0 09 3c 58 2e 8f bb 16 c2 2e 3c 44 0b 3a 3d
       0.00841162 -0.0043695383 0.010666391 0.0454209
0003f0 49 9f 72 3c 10 7f a6 3c f9 c9 17 3c 79 e5 65 bc
       0.014808484 0.02032426 0.009264463 -0.014031761

net.4.bias f4 [20]
000000 a2 20 c1 3d 9e d8 35 3d a9 62 54 be 0d ec 16 3e
       0.09430052 0.044396035 -0.20740761 0.14738484
000010 16 82 2c bd c1 9c c8 bc e3 c9 9e 3b 5e 74 d8 3d
       -0.042116247 -0.024488809 0.004845844 0.1056907
000020 82 25 87 bd 35 3c 35 bd 0b a2 6e bc fd 4d 0f 3e
       -0.06598951 -0.04424687 -0.014565001 0.13994594
000030 29 30 89 3b 93 e8 ff bb 55 64 c8 bc aa f4 aa 3d
       0.0041866493 -0.0078097074 -0.024461905 0.08347447
000040 12 98 16 be 55 94 f8 3b bd 07 1b bc 5c ec 0b 3d
       -0.14706448 0.007586042 -0.009462294 0.034160957
