trained_models/z_f_policy.pth (torch, 91257 bytes, 6 tensors)

net.0.weight f4 [128, 21]
0	0x3e3557e3	0.17709307
1	0x3d5dcc08	0.054149657
2	0x3dbedbae	0.09319244
3	0x3e0dccdd	0.1384768
4	0x3cbe3b32	0.023221586
5	0xbceb271e	-0.028705176
6	0xbda19186	-0.078890845
7	0x3dc96969	0.098345585
8	0x3e23f226	0.16010341
9	0xbe20df3f	-0.15710162
10	0x3e1bed29	0.15227188
11	0xbd88cf5f	-0.06680178
12	0x3e554d3d	0.20830245
13	0x3db5d3c2	0.0887828
14	0x3dace91a	0.08442898
15	0xbd79121f	-0.060808297
16	0x3dc89a99	0.09795112
17	0x3d955e3f	0.07293367
18	0xbd634fd7	-0.055496063
19	0x3c2dce72	0.010608302
20	0xbc9a1b66	-0.018811893
21	0xbd198c75	-0.037487466
22	0xbe36b039	-0.17840661
23	0xbdba397d	-0.09092996
24	0xbdac3f94	-0.08410564
25	0xbe21663f	-0.1576166
26	0xbd997a6c	-0.07494053
27	0xbd1e927f	-0.03871393
28	0xbbd32ced	-0.0064445646
29	0xbe56908f	-0.20953582
30	0x3cd47821	0.025936188
31	0xbe0e4883	-0.13894849
32	0x3e2ad6f0	0.16683555
33	0x3c98d853	0.018657839
34	0xbcdd0206	-0.026978504
35	0x3e01d401	0.1267853
36	0xbbd6296c	-0.0065356996
37	0x3e2014e1	0.15632965
38	0x3d809c2d	0.06279788
39	0xbd6fb812	-0.058525153
40	0x3d0f9d12	0.035061903
41	0x3d4f5e96	0.050627314
42	0x3dc3e92e	0.0956596
43	0x3dc3cda3	0.095607065
44	0x3d2fc465	0.042911906
45	0x3d19b504	0.037526146
46	0x3d8fd2bb	0.070226155
47	0x3d7a7a74	0.061151937
48	0x3dad8269	0.084721394
49	0xbde8ee2e	-0.11373554
50	0xbe5eccc4	-0.217578
51	0xbd065158	-0.03279242
52	0xbe2c5bbd	-0.1683187
53	0x3e85ec01	0.2615662
54	0x3d943db8	0.072383344
55	0x3c90e23a	0.017685998
56	0x3dcc2ba1	0.09969259
57	0x3b72c969	0.003704632
58	0x3e121969	0.14267506
59	0xbdf033c6	-0.11728625
60	0xbc8dfe35	-0.01733313
61	0xbe2ea69c	-0.17055744
62	0x3e211f49	0.1573459
63	0xbd3a05e5	-0.045415778
64	0x3d7516a1	0.059836034
65	0xbe09b801	-0.13449098
66	0x3deade73	0.1146821
67	0xbdb493ec	-0.08817276
68	0xbdf3007c	-0.11865327
69	0x3c64faf1	0.013975845
70	0x3e3dc61a	0.18532601
71	0x3dabdc83	0.08391669
72	0x3d9a8806	0.07545476
73	0xbe0d8cd8	-0.13823259
74	0xbd20c47e	-0.03924989
75	0xbdf39c47	-0.11895042
76	0xbd9dad69	-0.07699091
77	0x3d4dad3c	0.050214037
78	0x3d9672f7	0.073461466
79	0x3e123e67	0.14281617
80	0xbdb7798e	-0.089587316
81	0xbe3bb921	-0.1833234
82	0x3dd1e1a8	0.10248119
83	0xbe0c65de	-0.13710734
84	0x3e58d6c7	0.21175681
85	0xbc8270d1	-0.015922936
86	0x3d27aa66	0.04093399
87	0xbddd9b95	-0.108206905
88	0xbe241d9e	-0.16026923
89	0x3b8df7cb	0.0043325177
90	0xbde8ffb0	-0.113768935
91	0xbe0fea54	-0.14054233
92	0x3d9d2643	0.076733135
93	0x3d4ef2a2	0.05052436
94	0xbe03d7c7	-0.12875281
95	0x3c79e05f	0.015251248
96	0x3e4825bf	0.19545649
97	0xbe063d36	-0.13109288
98	0x3d54e4a2	0.051975854
99	0xbe379936	-0.17929539
100	0xbdcac6f4	-0.099012285
101	0xbd166cb0	-0.036724746
102	0xbdf315bc	-0.1186938
103	0xbe634741	-0.2219515
104	0x3ea900ed	0.3300852
105	0xbd472214	-0.048616484
106	0xbdfeeb69	-0.12447245
107	0xbdb577cd	-0.08860741
108	0xbe085b83	-0.13316159
109	0xbd961e06	-0.07329945
110	0x3e2a86e6	0.16653022
111	0x3daf107b	0.08548065
112	0xbca73d38	-0.020414934
113	0xbe2d435d	-0.16920228
114	0xbde5c7f8	-0.11219782
115	0xbd12d0eb	-0.03584377
116	0x3dbd7142	0.09250118
117	0xbe05b806	-0.1305848
118	0xbe195448	-0.14973557
119	0xbe23cc93	-0.15996008
120	0x3cab339a	0.020898629
121	0xbda60a27	-0.08107405
122	0x3cfe6786	0.031055223
123	0xbda49617	-0.0803644
124	0xbe0d9441	-0.13826086
125	0x3d6cd94e	0.057824425
126	0xbbcbde2d	-0.006221554
127	0xbd23d197	-0.039994802
128	0x3e6be9ef	0.23038457
129	0x3dedc3ef	0.11609637
130	0xbbd616ef	-0.0065334956
131	0x3d94cdf4	0.07265845
132	0xbe3c35d1	-0.18379904
133	0x3d90fb8d	0.070792295
134	0xbd9ad845	-0.075607814
135	0xbe62dfda	-0.22155705
136	0xbda55781	-0.08073331
137	0xbe6f88c5	-0.23392017
138	0x3e3456fd	0.17611308
139	0xbdc60734	-0.09669343
140	0x3e2c8219	0.16846503
141	0x3c3bc202	0.011459829
142	0x3e06711d	0.13129087
143	0xbe127f90	-0.14306474
144	0xbc460f89	-0.012088665
145	0x3d605959	0.05477271
146	0x3ee5484c	0.4478172
147	0x3e0d85e3	0.13820605
148	0x3e350079	0.17675962
149	0xbe2ee943	-0.1708117
150	0x3c24a097	0.010048053
151	0xbd064875	-0.032783944
152	0xbc329a8d	-0.010901106
153	0xbdd37573	-0.10325136
154	0x3e177a7f	0.14792822
155	0xbe17493b	-0.14774029
156	0x3cd01828	0.025402144
157	0x3d72a896	0.059242807
158	0x3ddb4097	0.10705679
159	0xbdf608e6	-0.12013416
160	0x3dde8bc8	0.10866505
161	0x3da1d894	0.07902637
162	0xbdbcb62c	-0.09214434
163	0xbe384ac5	-0.17997272
164	0x3dab815e	0.08374284
165	0xbcd7b6c3	-0.026332265
166	0xbdac499b	-0.08412477
167	0x3e557b8e	0.20847914
168	0x3d2eeb34	0.042704776
169	0xbd06d67f	-0.032919403
170	0xbdd017ea	-0.10160811
171	0x3d0b8e74	0.0340714
172	0x3d068c1d	0.032848466
173	0xbd243237	-0.04008695
174	0xbe00f2ff	-0.12592696
175	0xbd9cbf7b	-0.076537095
176	0xbe1b56b5	-0.15169795
177	0xbd8f7218	-0.070041835
178	0x3e15ac9f	0.14616631
179	0xbe17fd50	-0.14842725
180	0x3d95da02	0.07316972
181	0x3d53ce4b	0.05171041
182	0x3c8d781d	0.017269189
183	0xbdb45537	-0.08805316
184	0x3df88a07	0.121357016
185	0x3df5b85a	0.11998053
186	0x3d6e30e6	0.058152102
187	0xbd1a91ee	-0.037736826
188	0x3f404353	0.7510273
189	0x3d72e277	0.059298005
190	0xbd1127b7	-0.035438266
191	0xbdac397c	-0.08409402
192	0x3df94873	0.12172022
193	0x3d6acce9	0.057324324
194	0xbd41836c	-0.047244474
195	0xbd629359	-0.055316303
196	0x3c2e11ca	0.010624358
197	0xbcf6a518	-0.03010802
198	0x3afcea04	0.0019295816
199	0x3d5f6cf7	0.054547276
200	0xbe303d54	-0.17210895
201	0xbd7a76c0	-0.061148405
202	0x3e01014d	0.12598152
203	0x3da8e745	0.08247236
204	0x3c0749dc	0.008257356
205	0xbddf7348	-0.1091066
206	0xbe0c1a59	-0.13681926
207	0xbe0a7503	-0.13521199
208	0xbd9060d6	-0.0704972
209	0x3ea2c8ee	0.31793922
210	0x3db29f9b	0.087218486
211	0xbda2ccbb	-0.079492055
212	0xbdb016df	-0.08598112
213	0xbd86b73e	-0.065779194
214	0xbdd78a5c	-0.10524437
215	0x3dec4aa3	0.11537673
216	0x3e049089	0.12945761
217	0xbd7fb6ed	-0.06243031
218	0x3d9b307e	0.075776085
219	0xbd6bfb5d	-0.057612766
220	0xbdb2ad11	-0.08724416
221	0x3df4347f	0.11924075
222	0xbe24694c	-0.16055793
223	0xbd35bbb4	-0.04436846
224	0xbe4068dc	-0.1879
225	0x3d29e239	0.04147551
226	0x3e2f3576	0.17110237
227	0x3d79e84b	0.061012547
228	0xbd70544e	-0.05867415
229	0xbe417d96	-0.18895563
230	0xbe74c833	-0.23904495
231	0x3e19f17e	0.15033528
232	0x3d122928	0.03568378
233	0x3d0fb9ae	0.035089187
234	0x3e4f14f8	0.20222843
235	0xbd77e0f8	-0.06051728
236	0x3d4a25ce	0.04935246
237	0xbd63f47c	-0.05565308
238	0xbe2ee1a7	-0.17078267
239	0xbe3de2ab	-0.18543498
240	0x3dc55349	0.09635026
241	0xbdfcdcce	-0.12346803
242	0x3d3e769d	0.046499837
243	0xbe08d456	-0.1336225
244	0x3ca008b3	0.019535398
245	0xbe0c1f5f	-0.13683842
246	0xbe22211b	-0.15832941
247	0x3d3bc6a0	0.04584372
248	0xbcb07764	-0.021541305
249	0x3de5a8ae	0.11213814
250	0xbdc64088	-0.09680277
251	0x3d90bb50	0.07066977
252	0xbd852163	-0.06500509
253	0xbdc9ce3e	-0.09853791
254	0xbe007b1c	-0.12546962
255	0xbd6aa288	-0.057283908

net.0.bias f4 [128]
0	0x3d7569fc	0.059915528
1	0x3e1fbe28	0.15599883
2	0x3e7abcd7	0.24486099
3	0x3e444457	0.19166695
4	0x3e93ae95	0.28844133
5	0xbdd15196	-0.102206394
6	0x3e852b80	0.2600975
7	0xbbd97f83	-0.006637515
8	0x3edb68c1	0.42853358
9	0xbdf2a162	-0.118471876
10	0xbdd73cc1	-0.10509635
11	0xbdf4d8c0	-0.11955404
12	0x3ee123c4	0.439726
13	0x3df64a0a	0.120258406
14	0x3c91e931	0.01781139
15	0x3e08ee51	0.1337216
16	0x3ca8d99a	0.020611573
17	0xbe495cff	-0.19664381
18	0x3e26b788	0.16280949
19	0x3cde7587	0.02715565
20	0x3e6a2f39	0.22869577
21	0xbd8c7bfe	-0.06859587
22	0x3ecdf37b	0.40224823
23	0xbe1fd94b	-0.15610234
24	0x3ea19350	0.31557703
25	0x3f3e6112	0.7436687
26	0x3ea59963	0.32343587
27	0x3e13b4b5	0.14424403
28	0x3e9487bd	0.2900981
29	0x3e8c23e9	0.27371147
30	0x3e5d755f	0.21626805
31	0x3eefe5c7	0.46854994
32	0x3e855e9c	0.26048744
33	0x3ea85dcd	0.32884064
34	0x3ecdfc8a	0.40231735
35	0xbe349bc3	-0.17637543
36	0x3d5dee22	0.05418218
37	0x3dad8363	0.08472326
38	0x3e4d8d6e	0.20073482
39	0xbe2bb4cf	-0.16768192
40	0x3de9a3fe	0.11408232
41	0x3e0bd6d3	0.13656168
42	0xbdd1efd6	-0.10250823
43	0x3d4be0ff	0.04977512
44	0xbe182418	-0.14857519
45	0x3d493b39	0.049128745
46	0x3f511b3b	0.81682175
47	0xbe246ddb	-0.16057532
48	0x3e4f898a	0.2026731
49	0x3eb4ecc2	0.35336882
50	0xbda03d6b	-0.078242145
51	0x3d657aa3	0.05602516
52	0x3d70e637	0.0588133
53	0xbe0932bc	-0.1339826
54	0x3dcdc8eb	0.10048088
55	0x3eac504f	0.3365502
56	0x3e1d1b43	0.15342431
57	0x3e3d057f	0.18459128
58	0xbe454011	-0.1926272
59	0x3ebd3f15	0.3696219
60	0x3f091f78	0.5356364
61	0x3ebc804e	0.3681664
62	0x3df918e9	0.12162954
63	0x3ea5a558	0.3235271
64	0x3eec1e68	0.46116948
65	0x3e891748	0.26775575
66	0x3c8ebdad	0.017424429
67	0xbe2895a1	-0.16463329
68	0x3f85e46b	1.0460333
69	0x3f3dc0eb	0.74122494
70	0x3eb41d62	0.35178667
71	0xbe9e5526	-0.30924338
72	0x3e933710	0.28752947
73	0x3e55b709	0.20870604
74	0x3bcd6b46	0.0062688915
75	0x3e9398d6	0.28827542
76	0xbe247f7f	-0.16064261
77	0xbdb65ac2	-0.089040294
78	0xbd8c7f5d	-0.0686023
79	0x3e36ca10	0.17850518
80	0xbc054d8f	-0.008136167
81	0x3da8482a	0.08216889
82	0x3e6a6732	0.22890928
83	0x3ec04eb1	0.37560037
84	0x3b02bc29	0.0019948578
85	0xbe7c0327	-0.24610578
86	0x3e12ef96	0.14349207
87	0x3e0fea96	0.14054331
88	0xbe653b34	-0.22385865
89	0x3e35ce1c	0.17754406
90	0xbd9c4e4c	-0.076321214
91	0xbde04191	-0.10950006
92	0x3e7d56ca	0.24740139
93	0xbd0df342	-0.034655817
94	0x3ea6a204	0.32545483
95	0xbeacbbe7	-0.33737108
96	0x3d9b2d41	0.07576991
97	0x3e00ed40	0.12590504
98	0x3de95280	0.11392689
99	0xbdef2a43	-0.11677983
100	0xbbbdf7b3	-0.0057973503
101	0x3d167842	0.03673578
102	0xbd38fabd	-0.045160998
103	0x3cca1aa0	0.024670899
104	0xb95a2417	-0.00020803545
105	0xbe93d76d	-0.28875294
106	0x3e060311	0.13087107
107	0x3df8b12a	0.12143166
108	0x3e49e538	0.19716346
109	0x3e4c1941	0.19931509
110	0xbd38da50	-0.045130074
111	0x3e364fcf	0.17803882
112	0x3f0157b7	0.5052447
113	0x3ec552da	0.38539773
114	0x3e0d30aa	0.13788095
115	0xbe8f90b5	-0.2804009
116	0x3d5a5d65	0.053311724
117	0xbe44508d	-0.19171353
118	0x3e9a93fe	0.30191034
119	0xbd40b6cc	-0.04704933
120	0x3f05b0f2	0.5222312
121	0x3e328671	0.17434098
122	0xbd0c67ac	-0.034278557
123	0x3c35df45	0.011100595
124	0xbeda73c5	-0.4266645
125	0x3f316e74	0.69309163
126	0xbd2d2838	-0.042274684
127	0x3ec071c2	0.3758679

net.2.weight f4 [128, 128]
0	0x3cd67af2	0.026181672
1	0xbdfd5b95	-0.123709835
2	0xbc74b165	-0.014934872
3	0x3dade87a	0.08491607
4	0xbc1828e7	-0.009287096
5	0xbcac2fec	-0.021018945
6	0x3c65af3a	0.014018828
7	0x3d044da9	0.032300625
8	0xbd2a8d54	-0.041638687
9	0x3d007317	0.03135976
10	0xbd8aa16f	-0.06769072
11	0x3ce157ee	0.027507748
12	0x3da1583f	0.0787816
13	0xbd266781	-0.040626053
14	0xbd33d404	-0.043903366
15	0xbd5d85d2	-0.0540827
16	0xbc6baa61	-0.014383883
17	0x3d178411	0.036991183
18	0xbd60b60e	-0.05486112
19	0xbd0e4da6	-0.03474202
20	0x3dbcf749	0.092268534
21	0xbdab3d4d	-0.083613016
22	0xbd8ee571	-0.06977356
23	0x3dd01816	0.10160844
24	0xbd1d20e8	-0.03836146
25	0x3d80326c	0.06259617
26	0x3d43996b	0.047753733
27	0x3ab79b1c	0.0014008018
28	0x3db316ea	0.08744605
29	0xbc06ebc4	-0.008234922
30	0xbc9468cc	-0.018116377
31	0xbcbab873	-0.02279303
32	0xbd197f42	-0.037474878
33	0x3d31b760	0.04338777
34	0x3c2e25a1	0.010629089
35	0x3ca1d661	0.019755544
36	0xbd1415f1	-0.036153737
37	0x3b2c9e1c	0.0026339358
38	0x3cac63ed	0.021043742
39	0x3c8721a0	0.016495526
40	0x3cdebdc9	0.027190106
41	0x3d99af1c	0.075041026
42	0x3d9f9792	0.077925816
43	0xbd55cf3b	-0.052199584
44	0xb8a4a612	-7.8510624e-05
45	0x3bb66b03	0.005566956
46	0x3ceec35a	0.029145885
47	0x3ab95642	0.0014140087
48	0xbd1d8e45	-0.038465757
49	0x3b856cc5	0.004071804
50	0xbd618959	-0.055062626
51	0xbd06a368	-0.03287068
52	0xbcb35441	-0.021890761
53	0xbcdb3a41	-0.026761176
54	0xbd9b3c2f	-0.075798385
55	0x3d8ab2d9	0.06772394
56	0x3d099aed	0.033595014
57	0xbdd77eec	-0.10522255
58	0x3db2eecd	0.08736954
59	0x3d8806e8	0.06641942
60	0xbca7ac4a	-0.020467896
61	0xbd83c7ce	-0.06434594
62	0x3d19acae	0.037518196
63	0x3dcce0a8	0.10003787
64	0xbd8ae4f6	-0.06781952
65	0xbbcaae11	-0.006185301
66	0x3d20a8fb	0.039223652
67	0xbd9c88c0	-0.076432705
68	0xbc43b8ed	-0.011945945
69	0x3e175b54	0.14780933
70	0xbc06408e	-0.008194102
71	0x3d8db274	0.06918803
72	0xbd8213a4	-0.063514024
73	0x3d55a508	0.05215934
74	0xbd1f8d1d	-0.038952935
75	0x3cd1d0b4	0.025612213
76	0xbb4f4fe0	-0.0031633303
77	0x3bd0055c	0.006348295
78	0xbd7ba9b6	-0.061441146
79	0xbe1baffb	-0.1520385
80	0x3d91b037	0.071136884
81	0x3b9c1e09	0.0047643227
82	0x3d258268	0.04040757
83	0x3c451f50	0.012031391
84	0x3d6fb230	0.058519542
85	0x3c72ce16	0.0148196425
86	0x3cfe3f71	0.03103611
87	0x3d5089ac	0.050912544
88	0xbd2ea765	-0.04264011
89	0xbd0cfe72	-0.034422345
90	0xbcb5e95f	-0.022206007
91	0xbbc0a724	-0.0058792997
92	0xbdb2381c	-0.08702108
93	0x3d192afd	0.037394512
94	0xbe0842a4	-0.13306671
95	0x3cd79df4	0.026320435
96	0xbabc8c6f	-0.0014385114
97	0xbd92df25	-0.07171468
98	0x3d5b8b64	0.05359973
99	0x3d35f10f	0.044419345
100	0xbcfc57b8	-0.030803546
101	0x3cca8518	0.024721667
102	0x3c3e5899	0.011617803
103	0xbc41c6ea	-0.01182721
104	0x3d23883b	0.03992484
105	0x3ce8fe86	0.028441679
106	0x3d6cb324	0.05778803
107	0x3c9f7c62	0.01946849
108	0xbc95de02	-0.018294338
109	0xbcc4ea22	-0.024037424
110	0x3c8e8ffd	0.017402643
111	0x3d983777	0.07432454
112	0x3e1402aa	0.14454141
113	0x3d6e488b	0.05817465
114	0xbd1b49ce	-0.037912183
115	0x3c086e2e	0.00832705
116	0xbdc16911	-0.09443868
117	0xbd055245	-0.03254916
118	0x3c9d07a2	0.019168679
119	0xbda48505	-0.08033184
120	0x3cbbbc22	0.022916857
121	0xbdf28b1b	-0.118429385
122	0x3d5153cd	0.05110531
123	0xbd64d5f1	-0.055868093
124	0xbd00fd2d	-0.031491447
125	0x3caaa232	0.020829294
126	0xbd2f5d08	-0.04281333
127	0xbd3653a9	-0.04451338
128	0x3d289771	0.04116005
129	0x3b889044	0.0041675884
130	0xbbab2ca6	-0.0052238284
131	0x3d0a4659	0.033758495
132	0x3e213645	0.15743358
133	0x3d87dbe7	0.0663374
134	0x3da03d13	0.07824149
135	0xbd87d0ef	-0.06631648
136	0x3d75b06f	0.059982713
137	0x3d1dc741	0.0385201
138	0xbd9a25d2	-0.07526745
139	0x3ce2f21a	0.027703334
140	0xbcec2ee2	-0.02883095
141	0xbd2299c8	-0.03969744
142	0xbccfe464	-0.02537746
143	0x3b71b7c9	0.0036883226
144	0xbc8c9755	-0.017162004
145	0xbd60f0d9	-0.05491719
146	0x3d3edb81	0.046596054
147	0x3d9e1354	0.0771853
148	0xbb91280a	-0.004429822
149	0xbd578991	-0.052621428
150	0x3b81fd05	0.00396693
151	0xbc9ca5e3	-0.01912207
152	0xbd98d49c	-0.07462427
153	0x3c563686	0.013074523
154	0x3d4e908f	0.05043083
155	0xbd927518	-0.0715124
156	0xbc6d3c38	-0.014479689
157	0xbd49853d	-0.04919933
158	0xbc16f632	-0.009213971
159	0x3d6f99c4	0.05849625
160	0xbca9609b	-0.020675948
161	0xbccac403	-0.024751669
162	0x3d270e4c	0.04078512
163	0xbd5436f2	-0.051810212
164	0x3d2b5eea	0.041838564
165	0x3d4a6dd8	0.04942116
166	0x3cebb144	0.02877105
167	0x3cc6e036	0.024276834
168	0x3d2cc4d0	0.042179883
169	0x3d3a19e6	0.045434855
170	0xbd34c71e	-0.044135205
171	0x3d999890	0.07499802
172	0xbc9dba7e	-0.019253965
173	0x3c5940cc	0.013260078
174	0x3d956fde	0.072967276
175	0x3b5c7398	0.0033638235
176	0x39e76265	0.00044133063
177	0xb9bb23c5	-0.0003569407
178	0x3bf98530	0.007614754
179	0xbd6618da	-0.056176044
180	0xbcd95b43	-0.026532775
181	0x3d54f104	0.051987663
182	0xbb18d8ab	-0.0023322504
183	0x3ca89a79	0.02058147
184	0x3d772048	0.06033352
185	0x3dae0e76	0.08498852
186	0x3d9810ac	0.07425055
187	0xbd92368f	-0.071393125
188	0x3d3799b5	0.04482432
189	0x3cd18b0e	0.025579002
190	0xbdfecf0a	-0.12441833
191	0x3d94c90b	0.072649084
192	0x3d9b2e22	0.075771585
193	0xbd29713d	-0.041367758
194	0x3cbc62e3	0.022996372
195	0x3d8ec9f1	0.06972111
196	0xbca83807	-0.020534528
197	0x3c9aef5f	0.01891297
198	0x3dad14b1	0.08451212
199	0x3cc7191a	0.024303962
200	0x3bff641d	0.007793917
201	0x3c9aa264	0.018876262
202	0x3d957e0d	0.07299433
203	0x3d29f95d	0.041497577
204	0xbdde8904	-0.108659774
205	0xbb51193e	-0.0031905915
206	0x3de3641b	0.11103078
207	0xbc7ea976	-0.015543332
208	0x3ccc2ace	0.024922755
209	0xbd9d0605	-0.07667164
210	0x3cecd57a	0.028910387
211	0x3c245c8c	0.0100318305
212	0xbd3af2d1	-0.045641724
213	0x3bd76c92	0.006574222
214	0x3cc1164e	0.023570206
215	0x3cb18441	0.021669509
216	0xbb030e9c	-0.0019997722
217	0xbd643259	-0.055712078
218	0x3d663ca1	0.056210164
219	0xbce0b2bd	-0.027428979
220	0x3c480cc7	0.012210078
221	0x3c98ff52	0.018676434
222	0xbd5305aa	-0.051519074
223	0xbd7b9563	-0.061421763
224	0x3d0eb21e	0.034837835
225	0xbcd8a69b	-0.026446631
226	0x3b1f7eb2	0.002433699
227	0x3d0e428d	0.034731437
228	0xbd7428d1	-0.059609238
229	0x3d3a1e2c	0.04543893
230	0x3d95d9da	0.073169425
231	0xbc08611a	-0.008323932
232	0xbc63e158	-0.013908707
233	0xbda98661	-0.08277584
234	0x3d0cb461	0.03435171
235	0x3ce6f935	0.028195003
236	0x3d653cf3	0.05596633
237	0x3ac0e000	0.0014715195
238	0xbd221a2a	-0.039575733
239	0x3da5ce8a	0.08096035
240	0xbd128fd4	-0.035781696
241	0x3c2bf5d7	0.0104956245
242	0xbd022d59	-0.03178153
243	0x3cd34bf3	0.025793051
244	0x3d3520ba	0.044220664
245	0x3ccded27	0.025137497
246	0xbcdbe5ea	-0.02684303
247	0xbbb19bd9	-0.00542019
248	0x3cb9b10b	0.022667428
249	0xbb4e032c	-0.0031434996
250	0x3d25c841	0.04047418
251	0x3cb324c8	0.021868125
252	0x3c418dac	0.011813562
253	0x3b3d7ce0	0.0028913543
254	0xbc77b2f7	-0.015118352
255	0x3d4cbe4a	0.04998616

net.2.bias f4 [128]
0	0x3e68c5ae	0.22731659
1	0x3c9f67d5	0.01945869
2	0x3d1d7bee	0.038448267
3	0xbcaea736	-0.021319967
4	0x3ca07ef0	0.019591779
5	0xbe6560da	-0.22400227
6	0xbacfd93c	-0.0015857588
7	0xbd2ba788	-0.041907817
8	0xbde1bbeb	-0.11022171
9	0x3d2d85a9	0.042363796
10	0x3c21a8a6	0.009866869
11	0xbe152ccd	-0.14567871
12	0xbb79d795	-0.0038122882
13	0x3d11f947	0.03563812
14	0xbe7fb340	-0.24970722
15	0xbb8923d5	-0.0041851797
16	0x3b009f13	0.0019626066
17	0x3d1249fd	0.035715092
18	0x3cb2a160	0.021805465
19	0x3d2190ec	0.03944485
20	0xbc4f6c40	-0.012660086
21	0x3d275728	0.040854603
22	0xbc0994ee	-0.008397324
23	0xbe002a10	-0.12516046
24	0x3e1d7859	0.1537794
25	0xbea04309	-0.31301144
26	0x3d3bd109	0.04585365
27	0x3e5d4eb8	0.2161206
28	0xbddbb982	-0.10728742
29	0x3d4a09c2	0.049325712
30	0x3c4dd718	0.012563489
31	0x3e19a4d8	0.15004289
32	0xbd903e55	-0.07043139
33	0x3d9cabbe	0.07649945
34	0xbda6081f	-0.08107018
35	0xbdba3400	-0.090919495
36	0x3d2970eb	0.041367453
37	0xbc66a0d8	-0.014076434
38	0xbbbbbb77	-0.0057291347
39	0xbddc88f9	-0.10768313
40	0x3cd8424a	0.026398797
41	0xbe50fc06	-0.2040864
42	0xbcb05f7e	-0.02152991
43	0x3c84c28a	0.016206045
44	0x3abf9586	0.0014616705
45	0x3d0750d4	0.033036068
46	0xbc615111	-0.013752238
47	0xbdec8718	-0.115492046
48	0x3daf3d8c	0.08556661
49	0xbcaf5a63	-0.021405404
50	0x3dc9cf9c	0.098540515
51	0xbd0fe392	-0.035129137
52	0x3ce736ff	0.028224466
53	0xbd20cdb3	-0.03925867
54	0x3cc9e7ef	0.024646727
55	0x3d3e179a	0.046409227
56	0xbd7827fa	-0.060585
57	0x3dce3571	0.10068787
58	0x3dab7747	0.0837236
59	0x3d028b13	0.031870913
60	0xbe6bbed0	-0.23022008
61	0x3e09a90a	0.1344339
62	0xbe67f7b6	-0.22653088
63	0x3cd37327	0.025811745
64	0xbeb394ef	-0.35074565
65	0x3d90a183	0.07062056
66	0x3b9a9edc	0.0047186445
67	0x3daa04e8	0.08301717
68	0xbcc43138	-0.02394925
69	0x3cb3c124	0.021942683
70	0x3dd74142	0.10510494
71	0xbda31d03	-0.07964518
72	0x3e0b99dc	0.13632911
73	0xbe6a75a1	-0.22896434
74	0xbd68496e	-0.056710653
75	0x3e006f9a	0.12542573
76	0xbd13b9db	-0.036065917
77	0xbde1a7b2	-0.110183135
78	0xbc290c9e	-0.01031795
79	0x3e553786	0.20821962
80	0x3d524e21	0.05134404
81	0x3e6d0ef1	0.23150231
82	0xbe174c02	-0.14775088
83	0x3d83060b	0.06397637
84	0xbe4b17b0	-0.19833255
85	0x3dd93768	0.10606271
86	0x3e249b3e	0.16074845
87	0x3dee2a09	0.11629111
88	0xbca4065c	-0.020022564
89	0x3d9cd7e7	0.076583676
90	0xbd450af2	-0.04810614
91	0x3ce0a282	0.02742124
92	0xbd5a987a	-0.05336807
93	0x3d4c64c3	0.04990078
94	0xbc77a092	-0.015113967
95	0x3e028f36	0.12749943
96	0x3db48912	0.088152066
97	0x3e0ba982	0.13638881
98	0xbe08211f	-0.13293885
99	0x3c168c12	0.009188669
100	0x3e2d3b3b	0.16917126
101	0x3deccb57	0.115622215
102	0xbd64e871	-0.055885736
103	0xbe829d3f	-0.25510594
104	0xbd1b5f9b	-0.037932973
105	0x3df6a3af	0.12042939
106	0x3eefaca7	0.4681141
107	0x3dca7317	0.09885233
108	0x3e291205	0.1651078
109	0xbd9a8a6e	-0.075459346
110	0xbd6793ab	-0.05653731
111	0x3d51625b	0.05111919
112	0xbde42569	-0.11139948
113	0x3d49d035	0.049270827
114	0xbea12801	-0.31475833
115	0x3dbdfc1b	0.09276601
116	0xbe072b25	-0.13200052
117	0xbd980512	-0.07422842
118	0x3ea249cf	0.31696936
119	0xbe2785bf	-0.16359614
120	0x3d76a20b	0.06021313
121	0x3d722727	0.05911937
122	0xbe0da026	-0.13830623
123	0x3dea3bb5	0.114371695
124	0x3e497ec9	0.19677271
125	0x3e4175db	0.18892615
126	0xbd9a131e	-0.075231776
127	0xbd72df11	-0.059294764

net.4.weight f4 [20, 128]
0	0x3d1ad7ba	0.03780339
1	0x3c0f1960	0.008734077
2	0x3b081213	0.0020762726
3	0xbcde1362	-0.027108852
4	0xbd1cea7b	-0.038309556
5	0x3b798093	0.003807102
6	0xbd4a0eba	-0.04933045
7	0x3c0d88b8	0.008638553
8	0x3cc4e811	0.02403644
9	0x3c9f6620	0.019457877
10	0x3c9807a1	0.018558325
11	0x3cb24869	0.021763043
12	0x3d0e97b7	0.034812655
13	0x3d404304	0.04693891
14	0xbcb56e1f	-0.022147236
15	0x3c90e4a9	0.017687159
16	0x3bc83496	0.0061097844
17	0xbc9f6800	-0.01945877
18	0x3cf3ddf2	0.029768918
19	0x3bdb371b	0.0066899187
20	0x3cab033e	0.02087557
21	0xbb129a0d	-0.0022369653
22	0xbbe095a0	-0.006853774
23	0xbc27982b	-0.010229151
24	0x3c841b7d	0.016126389
25	0xbcc18c52	-0.02362648
26	0x3ca1aee5	0.019736717
27	0x3c3f4263	0.011673543
28	0x3c9eb6b8	0.019374236
29	0x3d92a78c	0.07160863
30	0xbd12d9ec	-0.035852358
31	0x3c96166a	0.018321235
32	0xbd438f58	-0.047744125
33	0xbc09ec3c	-0.008418139
34	0xbd525251	-0.051348034
35	0xbbe936f4	-0.0071171466
36	0xbc3b9cee	-0.011450989
37	0x3ca60a14	0.020268477
38	0x3d1b0f52	0.037856407
39	0xbd1a8829	-0.03772751
40	0x3cf9a334	0.03047333
41	0x3b420345	0.0029604
42	0x3c420f61	0.011844487
43	0xbc22c438	-0.0099344775
44	0x3b637427	0.0034706683
45	0x3c551d5d	0.013007489
46	0xbc9f8270	-0.019471377
47	0xba223756	-0.0006188055
48	0xbd43968e	-0.047751002
49	0x3c8e0ab6	0.017339092
50	0x3d073b52	0.033015557
51	0x3ca5e0b7	0.020248754
52	0x3cacdc3a	0.021101106
53	0xbb177a0c	-0.0023113517
54	0xbc751b56	-0.014960131
55	0x3c5b28f7	0.013376466
56	0xbcece98d	-0.02891996
57	0x3d103768	0.03520909
58	0x3c3e5366	0.011616563
59	0xbd203054	-0.03910859
60	0x3d777f60	0.06042421
61	0x3b02fca9	0.0019987023
62	0x3c15af52	0.009136038
63	0x3cbcecc7	0.023062123
64	0xbc0f918f	-0.008762731
65	0x3cd39d64	0.025831886
66	0xbc9b5073	-0.01895926
67	0xbc61eabb	-0.013788874
68	0xbd2d02a2	-0.04223884
69	0x3c49c6cd	0.012315464
70	0xbc52c92c	-0.012865346
71	0x3c8da31e	0.017289694
72	0x3ccbce4a	0.02487864
73	0x3bcae23f	0.0061915214
74	0xbb9f1995	-0.0048553445
75	0x3d43c562	0.04779566
76	0x38fad192	0.000119599645
77	0x3a822b12	0.0009931049
78	0x3cad85a2	0.021181885
79	0x3c93cc53	0.018041765
80	0xbc001405	-0.007817273
81	0xbad09a28	-0.0015915083
82	0x3c72f9f2	0.014830099
83	0xbb10554f	-0.0022023504
84	0xba6827bb	-0.0008856018
85	0xbd586e1d	-0.052839387
86	0xbb5646c6	-0.0032695993
87	0x3d07870d	0.03308778
88	0x3abfaa00	0.0014622808
89	0x3da2728f	0.079320066
90	0xbd1a2f36	-0.03764268
91	0xbc986794	-0.018604077
92	0xbd09369d	-0.03349935
93	0x3cdefb43	0.02721942
94	0x3c2c72b8	0.010525398
95	0x3cab81b1	0.020935865
96	0x39e20ac9	0.00043114115
97	0x3d8b4271	0.06799782
98	0xb9b5c2d5	-0.0003466817
99	0x3c422a46	0.011850899
100	0xbc89dc13	-0.016828572
101	0xbc2b0826	-0.010438954
102	0x3cc67fb2	0.024230812
103	0x3b7a87ff	0.0038228033
104	0x3c9c9c14	0.019117393
105	0x3d36603c	0.04452537
106	0x3c818a83	0.015813118
107	0xbc39bfb9	-0.011337214
108	0x3c493c9c	0.012282517
109	0x3caf40f2	0.021393273
110	0x3de44b65	0.11147193
111	0xbd81b4ab	-0.06333288
112	0x3c287705	0.010282283
113	0x3bba896d	0.005692652
114	0xbbf33acf	-0.007422782
115	0x3d6c3534	0.057667926
116	0xbba6b448	-0.005087409
117	0x3b9f43ff	0.0048604007
118	0x3b871743	0.004122646
119	0x3c09b84a	0.008405754
120	0xbc076a5b	-0.008265103
121	0x3c2fca84	0.010729436
122	0x3d0911c4	0.03346421
123	0xbd036bb9	-0.032085154
124	0x3c1671cb	0.009182404
125	0xbd1fc1d2	-0.0390032
126	0xbcdf6e96	-0.027274411
127	0x3cb57275	0.022149304
128	0xbc0e44df	-0.008683412
129	0x3cb0543e	0.021524545
130	0x3bea0774	0.0071420018
131	0xbd635ca3	-0.055508267
132	0x3c357a5f	0.011076539
133	0x3b81d8e4	0.003962623
134	0xbcf96f53	-0.030448591
135	0x3c3d2311	0.011544005
136	0x3c053c66	0.008132076
137	0x3adcdb26	0.0016849979
138	0xbbbaaf93	-0.0056971996
139	0x3bb056a5	0.0053814226
140	0xbca4149f	-0.020029364
141	0x3d34e5d4	0.044164494
142	0x3b132b69	0.0022456294
143	0xbd84c2ac	-0.06482443
144	0x3bd1ecf1	0.0064064194
145	0x3c8ea3a8	0.017412022
146	0xbc741a31	-0.014898823
147	0xbb07b509	-0.002070727
148	0xbcd2b6a8	-0.025721863
149	0x3aa6691d	0.0012696121
150	0x3b3f06da	0.002914837
151	0xbc81a566	-0.015825938
152	0x3c8cb29d	0.017175013
153	0x3cb3c642	0.021945123
154	0xbcc09a3b	-0.023511043
155	0xbb01db2f	-0.0019814481
156	0x3c9bb5da	0.019007612
157	0x3c405715	0.011739512
158	0xbd51d932	-0.051232524
159	0xbb68f103	-0.0035544045
160	0x3d2326de	0.03983199
161	0xbbb84ffa	-0.0056247683
162	0xbcbe2253	-0.023209726
163	0x3c8b0d49	0.016974108
164	0x3b4d60d2	0.0031338227
165	0xbb86751e	-0.004103317
166	0x3ce23a59	0.027615713
167	0x3c918615	0.01776413
168	0xbca33d11	-0.01992658
169	0x3c4546ec	0.012040835
170	0x3c11b571	0.008893357
171	0xbc376d9e	-0.011195568
172	0x3d2d2f18	0.04228124
173	0x3ab104ca	0.0013505456
174	0xbcb72ffc	-0.022361748
175	0xba9d4c02	-0.0012000802
176	0x3adc7be8	0.0016821595
177	0xbc240458	-0.010010801
178	0x3d15a59b	0.036534887
179	0xbc2658b4	-0.010152984
180	0x3d245c9b	0.040127378
181	0xbb27f48f	-0.0025627946
182	0x3d9d64f0	0.07685268
183	0x3757a8bb	1.2854284e-05
184	0x3b9723d1	0.004612424
185	0x3bfc3465	0.0076966756
186	0xbb10f3c2	-0.0022117947
187	0x3c5223a2	0.012825878
188	0xbc9b3614	-0.018946685
189	0x3cb409d7	0.021977348
190	0xbd0447c8	-0.03229502
191	0xbd2d6087	-0.042328384
192	0x3c58c8e7	0.013231493
193	0xbb72be3b	-0.0037039656
194	0x3cc3f3e9	0.023920016
195	0x3d563102	0.05229283
196	0x3d1cbc09	0.03826526
197	0x3a29a593	0.0006471511
198	0xbabfd971	-0.0014636946
199	0x3c9e7c2f	0.019346325
200	0x3c8cc07b	0.017181626
201	0xbca5571e	-0.020183142
202	0xbb1c70c6	-0.002387093
203	0xbd2c051d	-0.041997064
204	0xbc27bbe6	-0.01023767
205	0x3c8b13f6	0.016977292
206	0x3cb85143	0.022499686
207	0x3c43cf29	0.011951246
208	0xbaa9ed69	-0.001296443
209	0xbb51c943	-0.003201083
210	0xba389d74	-0.00070425053
211	0xbb20a63b	-0.0024513144
212	0x3b7280e1	0.0037003087
213	0x3c3be2c6	0.011467641
214	0x3cd553f5	0.02604101
215	0x3cc5305b	0.02407091
216	0x3b4eb0fc	0.0031538596
217	0xbcd9c68c	-0.026583932
218	0x3d0c086c	0.03418772
219	0x3c7b6ce1	0.015345783
220	0xbc2270eb	-0.009914617
221	0xbb94ab9e	-0.00453706
222	0x3c0b17a7	0.008489526
223	0x3c865db5	0.016402105
224	0x3b48c072	0.0030632284
225	0x3d06d807	0.032920863
226	0x3ba4516e	0.00501459
227	0x3d9f719b	0.077853404
228	0x3b9506d6	0.004547934
229	0xbd0bcb67	-0.034129526
230	0x3cec5518	0.02884917
231	0xbce2e271	-0.027695866
232	0xbc189d25	-0.00931481
233	0xbc02af3a	-0.007976348
234	0xbccf21c0	-0.025284648
235	0xbbc97a27	-0.006148595
236	0xbd306e34	-0.043073848
237	0x3cfa8cfa	0.030584801
238	0xbd68afa8	-0.056808144
239	0xbc822f93	-0.015891826
240	0x3bbfbb89	0.0058512134
241	0x3b93dda0	0.0045125037
242	0xbbc38ecc	-0.0059679504
243	0x3ba9e60c	0.0051848944
244	0x3c31b936	0.01084738
245	0x3c146243	0.009056631
246	0xbc38a645	-0.0112701105
247	0xbb3f2fec	-0.002917285
248	0x3c877c22	0.016538683
249	0xbccb16dc	-0.024791174
250	0xbc7e350f	-0.01551558
251	0xbca3a3a9	-0.0199755
252	0xbadc3ffd	-0.0016803738
253	0xbd376433	-0.04477329
254	0xbc63bd8d	-0.013900173
255	0x3d0301d1	0.031984154

net.4.bias f4 [20]
0	0x3e15a8b7	0.14615141
1	0x3db63b16	0.088979885
2	0xbe2401af	-0.16016267
3	0x3e0671b4	0.13129312
4	0x3d132bf6	0.035930596
5	0xbd61adc0	-0.05509734
6	0x3ad9cb2a	0.0016616334
7	0x3e00bbb0	0.12571597
8	0xbcb0c21f	-0.02157694
9	0xbc5515bf	-0.013005673
10	0x3d207011	0.039169375
11	0x3e216b84	0.1576367
12	0x3d073611	0.033010546
13	0x3d401247	0.04689243
14	0x3c12b17a	0.0089534465
15	0x3d053220	0.032518506
16	0xbe1fe90d	-0.15616246
17	0xbc1e5f83	-0.009666326
18	0x3c5589ad	0.013033313
19	0x3c09642e	0.008385701
