drift_genes/z_b_policy.pth (torch, 91257 bytes, 6 tensors)

net.0.weight f4 [128, 21]
0	0xbde1be91	-0.11022676
1	0xbc919611	-0.017771753
2	0x3d2c251e	0.042027585
3	0xbc03c181	-0.00804174
4	0x3d28ec91	0.041241232
5	0x3cfd6bac	0.030935131
6	0x3cab88f8	0.020939335
7	0x3de015a1	0.109416254
8	0xbdd61e9f	-0.10455059
9	0xbcf08f5e	-0.029365238
10	0xbdefd7d2	-0.11711086
11	0x3d2e11de	0.04249751
12	0xbd43c5b4	-0.047795966
13	0x3d51988b	0.051170867
14	0x3dafbcb5	0.08580915
15	0x3e15f50e	0.14644262
16	0xbd3a610b	-0.045502704
17	0xbb27871a	-0.0025562705
18	0x3db74067	0.08947831
19	0xba3e7038	-0.00072646467
20	0x3e9fee2c	0.31236398
21	0xbd61b739	-0.055106375
22	0x3d5dd057	0.054153766
23	0xbe1a2da5	-0.15056475
24	0xbdaaa073	-0.083313845
25	0xbd21077e	-0.039313786
26	0x3de7ce19	0.11318607
27	0x3dada70c	0.08479127
28	0x3ccb1c9b	0.024793914
29	0xbd046a91	-0.032328192
30	0x3daf6f45	0.08566145
31	0xbdd1e611	-0.1024896
32	0xbdc8f51d	-0.09812377
33	0xbe102f91	-0.14080645
34	0x3d15bad3	0.036555123
35	0x3d0cffb1	0.034423534
36	0xbd4ba66b	-0.049719255
37	0x3d8faac6	0.07014994
38	0x3ce88fed	0.028388942
39	0xbd55e0ce	-0.052216344
40	0x3d05503d	0.032547224
41	0x3f13c3fa	0.5772091
42	0x3de4d98d	0.11174307
43	0x3c077f34	0.008270074
44	0x3bb91a51	0.005648889
45	0xbe348cfe	-0.17631909
46	0x3c6dfa67	0.014525033
47	0x3d2a6f04	0.04160978
48	0x3e1a47a5	0.15066393
49	0x3c560923	0.013063702
50	0xbd0f80af	-0.03503483
51	0x3db46e45	0.08810095
52	0xbe09666e	-0.1341798
53	0xbdd8b107	-0.1058064
54	0xbdcae3a8	-0.09906703
55	0xbd95ac0a	-0.073082045
56	0x3bdeee29	0.0068032932
57	0x3e251bb4	0.16123849
58	0xbc37864c	-0.011201452
59	0x3db331bd	0.08749721
60	0x3d5e3a06	0.054254554
61	0x3d8e19ca	0.069385126
62	0x3dfcc289	0.12341792
63	0x3c555c68	0.01302252
64	0x3c0f6ef3	0.00875448
65	0x3b56310e	0.0032683047
66	0xbe3738e9	-0.17892803
67	0x3d3a3808	0.04546359
68	0xbd498c8c	-0.0492063
69	0xbd8baf2a	-0.06820519
70	0x3e04cfd8	0.12969911
71	0x3cf34c68	0.02969952
72	0x3bd7f25b	0.0065901703
73	0xbdda0469	-0.106453724
74	0x3c6800f6	0.014160385
75	0x3d89ad33	0.06722488
76	0xbc8071e1	-0.015679302
77	0xbe00ae9a	-0.12566605
78	0xbdf195ec	-0.117961735
79	0xbdc50bfb	-0.09621426
80	0xbda23776	-0.079207346
81	0x3d12cc8b	0.0358396
82	0xbd29dff2	-0.041473337
83	0x3da684f9	0.08130831
84	0xbd08a4ca	-0.03336028
85	0x3c9a2079	0.018814312
86	0xbdca4ef5	-0.09878341
87	0xbcd74c95	-0.026281634
88	0xbd9bf1b7	-0.07614463
89	0x3d0ad203	0.03389169
90	0x3daa95b3	0.08329334
91	0x3b7428cb	0.003725576
92	0x3bab5f37	0.0052298564
93	0x3d58a52f	0.052891906
94	0xbdaa5ddd	-0.08318684
95	0xbdca2b8e	-0.09871589
96	0xbcb915c9	-0.022593396
97	0xbc1ccedf	-0.009570806
98	0x3da12c88	0.07869822
99	0x3e037c04	0.12840277
100	0x3ce47555	0.02788798
101	0x3d1cff47	0.03832939
102	0xbdb46c8a	-0.08809765
103	0x3d5fdce0	0.054654002
104	0x3f14478f	0.5792169
105	0xbcc47f7c	-0.02398657
106	0xbdeeb6b4	-0.116559416
107	0xbc938057	-0.018005533
108	0xbd6b0774	-0.057380155
109	0x3c879c04	0.016553886
110	0xbc4d6672	-0.012536632
111	0x3db0be3c	0.08630034
112	0x3d0e6ac6	0.034769796
113	0xbdd0868c	-0.10181913
114	0x3de34bb7	0.11098426
115	0x3da8b6d9	0.082380004
116	0xbca6eca8	-0.020376518
117	0xbc8e4fe2	-0.017372075
118	0xbcdd757f	-0.027033566
119	0x3d10d459	0.03535876
120	0x3dd863eb	0.10565933
121	0xbb09e588	-0.0021041352
122	0xbd9c8aa0	-0.07643628
123	0x3d83f611	0.06443418
124	0x3e100304	0.1406365
125	0x3e12351c	0.14278072
126	0xbddbbdad	-0.10729537
127	0xbd9417d4	-0.07231107
128	0xbd1bda1c	-0.038049802
129	0x3c945d4f	0.0181109
130	0xbba778b9	-0.005110827
131	0x3cc76b33	0.024343109
132	0x3db8d541	0.0902505
133	0xbd413571	-0.047170106
134	0xbde0a83b	-0.109695874
135	0x3cc7aa7f	0.024373291
136	0xbd62fd2d	-0.05541723
137	0xbcc8bde6	-0.024504613
138	0xbd025390	-0.031817973
139	0x3d210af5	0.03931709
140	0x3de9c0c6	0.11413722
141	0x3ccf5855	0.025310675
142	0xbe110a42	-0.1416407
143	0x3d31b8fb	0.0433893
144	0xbe1d9e58	-0.15392435
145	0xbca8b4c5	-0.02059401
146	0x3e68cfb1	0.22735478
147	0xbc880383	-0.016603237
148	0xbd12d4be	-0.035847418
149	0xbe16aeda	-0.14715138
150	0x3e193c2e	0.14964363
151	0xbd0ece2f	-0.0348646
152	0xbdc11b8a	-0.09429081
153	0xbde4cbd9	-0.11171693
154	0x3e174012	0.14770535
155	0x3daa6aa5	0.08321122
156	0x3ca6144e	0.020273354
157	0x3d1bc672	0.03803105
158	0x3d92ee05	0.07174305
159	0x3c726e88	0.0147968605
160	0xbe24f0c3	-0.16107468
161	0xbda660a6	-0.08123903
162	0xbe0865b6	-0.1332005
163	0x3d813af3	0.06310072
164	0x3d1dcf2a	0.038527645
165	0x3e18de17	0.1492847
166	0x38c6f3c7	9.486783e-05
167	0xbe3afcac	-0.18260449
168	0x3d851912	0.064989224
169	0xbd295bd8	-0.041347355
170	0xbdc7004f	-0.09716856
171	0xbda9eee4	-0.08297518
172	0xbd34405c	-0.04400669
173	0xbd1dd9bd	-0.03853773
174	0xbc4ee825	-0.01262859
175	0xbdaab3e9	-0.083350964
176	0x3ce4c523	0.027926033
177	0x3d783e86	0.060606502
178	0xbbd14095	-0.0063858726
179	0xbd1d7244	-0.03843905
180	0xbd85a1d9	-0.065250106
181	0xbc72811d	-0.014801291
182	0x3ccd46d0	0.02505818
183	0x3d6b46d9	0.057440612
184	0xbd64def0	-0.055876672
185	0x3da3fda0	0.080073595
186	0x3d80a877	0.06282132
187	0x3b9b0bf7	0.004731651
188	0x3f56aff2	0.8386222
189	0xbe30689c	-0.17227405
190	0x3d2287b4	0.039680198
191	0x3e35bc55	0.17747624
192	0x3d7c7099	0.06163082
193	0x3d118044	0.035522714
194	0x3cf7708e	0.030205037
195	0x3caed633	0.021342373
196	0x3e1d060e	0.15334341
197	0x3da6841a	0.08130665
198	0x3c0bad80	0.008525252
199	0x3e06046a	0.13087621
200	0x3dd8ae69	0.10580141
201	0x3d2d13e3	0.042255294
202	0xbde1a073	-0.110169314
203	0x3cb3b753	0.021938002
204	0xbe07624b	-0.1322109
205	0xbe0e6fd8	-0.13909853
206	0x3da37d0e	0.07982837
207	0x3d1522a2	0.03640998
208	0x3d91a8ce	0.07112275
209	0x3f5363c5	0.8257411
210	0xbcd22e8d	-0.025656963
211	0xbce4930f	-0.027902154
212	0xbdefa005	-0.11700443
213	0x3deec116	0.11657922
214	0xbd790147	-0.060792234
215	0xbd508746	-0.050910257
216	0xbd03cfda	-0.032180645
217	0xbc85f4b6	-0.016352039
218	0xbb59d3a3	-0.0033237718
219	0xbda25490	-0.07926285
220	0x3e240ec9	0.16021265
221	0xbd50ba9b	-0.05095921
222	0xbcccc0ba	-0.024994243
223	0x3d2b110e	0.04176431
224	0xbe1f1136	-0.15533909
225	0xbd9c48ff	-0.076311104
226	0x3e0fab18	0.14030111
227	0xbc1fef11	-0.009761588
228	0xbddbb4b4	-0.10727826
229	0x3b8f2da2	0.0043694535
230	0xbf25549f	-0.64582247
231	0x3d7e38bc	0.062065825
232	0x3d890a57	0.06691425
233	0xbd69aa36	-0.05704709
234	0x3d4177ce	0.047233395
235	0x3db14520	0.08655763
236	0x3d02fc7b	0.031979065
237	0xbc8e5c45	-0.017377982
238	0x3dfa17bc	0.12211558
239	0x3d141f9f	0.03616297
240	0xbc0dcc24	-0.008654628
241	0xbd39142d	-0.045185257
242	0xbbc52090	-0.0060158446
243	0xbd5fb100	-0.05461216
244	0xbd0abb77	-0.033870187
245	0x3dcb54dd	0.09928296
246	0xbdc50239	-0.096195646
247	0xba38211b	-0.0007023976
248	0xbd53582f	-0.05159777
249	0x3e13a6bb	0.14419071
250	0x3c2fa867	0.010721303
251	0x3cffe2a0	0.031235993
252	0x3e17d1af	0.14826082
253	0x3df2b7a2	0.118514314
254	0xbdeee6dc	-0.11665127
255	0x3e263520	0.16231203

net.0.bias f4 [128]
0	0x3eff4b65	0.4986221
1	0x3f02a3c5	0.5103114
2	0xbdbaf03f	-0.091278546
3	0x3e771ddf	0.24132489
4	0x3eb91f16	0.3615653
5	0x3d8db821	0.069198854
6	0x3d87b107	0.06625562
7	0x3bea5fe7	0.0071525457
8	0x3dccb043	0.09994557
9	0x3f2ff96e	0.68739974
10	0xbe5134ee	-0.20430347
11	0xbcfd3387	-0.03090836
12	0x3edb6110	0.4284749
13	0xbdbf7ab5	-0.093495764
14	0x3d8df4e2	0.06931473
15	0xbef4c238	-0.47804427
16	0x3ef829da	0.4846943
17	0x3e5a4ad2	0.21317604
18	0x3db72e1e	0.08944343
19	0x3d5dd8b7	0.054161754
20	0xbec2a428	-0.38015866
21	0x3f0ffca0	0.5624485
22	0x3f091073	0.53540725
23	0x3ecab391	0.39590123
24	0xbd803714	-0.06260505
25	0xbed0f833	-0.4081436
26	0x3e214fbd	0.15753074
27	0xbd5685db	-0.05237375
28	0x3ecc3ea8	0.39891553
29	0x3e50c8f2	0.20389155
30	0x3b0cc1f2	0.0021477905
31	0x3e570ac9	0.21000208
32	0xbe1399d7	-0.14414154
33	0xbd0fda96	-0.03512057
34	0xbeeb27ec	-0.45928895
35	0x3e0779ae	0.13230011
36	0x3ced4a01	0.028965952
37	0x3e82f0ea	0.25574428
38	0x3e17e70f	0.14834236
39	0x3e1b181f	0.1514592
40	0x3db62baa	0.08895047
41	0x3d4ea00c	0.0504456
42	0x3dcf6beb	0.101280056
43	0xbe15eeb8	-0.14641845
44	0x3e94a097	0.2902877
45	0x3f0d0791	0.5508967
46	0x3f28e21a	0.65970004
47	0xbe7d1238	-0.24713981
48	0xbdd9cdeb	-0.10634979
49	0xbf518d0a	-0.81855834
50	0x3e4dd29d	0.20099874
51	0x3e26847a	0.16261473
52	0xbe824818	-0.25445628
53	0x3dc37f87	0.09545808
54	0xbe011f55	-0.12609608
55	0xbd65c3bf	-0.05609488
56	0xbe746d22	-0.23869756
57	0x3eaccfaa	0.33752185
58	0xbe2bbade	-0.16770503
59	0x3e833c00	0.25631714
60	0x3cb666c0	0.022265792
61	0x3e0f17e0	0.13973951
62	0x3e2eaadb	0.17057364
63	0x3d48a497	0.04898509
64	0x3dadf136	0.08493273
65	0x3e8c26f7	0.27373478
66	0xbe974c06	-0.2955019
67	0xbd266a6f	-0.040628847
68	0xbe5dd2cc	-0.21662444
69	0x3d64e893	0.055885863
70	0xbc8797b1	-0.016551824
71	0xbdb6f198	-0.08932799
72	0xbd84f91b	-0.064928256
73	0x3e02bf4c	0.12768286
74	0xbde6d679	-0.11271376
75	0x3e8c550d	0.2740864
76	0x3d2a4763	0.041571986
77	0xbdab4f0b	-0.083646856
78	0x3e39509a	0.18097153
79	0x3eecc19c	0.46241462
80	0x3e828f23	0.2549983
81	0x3f477e8c	0.7792747
82	0x3eecbcb4	0.4623772
83	0x3e07f592	0.13277271
84	0x3ef436ee	0.47698158
85	0x3c6ac101	0.014328242
86	0xbd9e22ab	-0.07721456
87	0x3e8e9566	0.27848357
88	0x3e501e42	0.20324042
89	0x3cc85692	0.024455342
90	0x3e2f940e	0.17146322
91	0x3def44dd	0.116830565
92	0x3db2fb7d	0.08739374
93	0x3f0d3962	0.55165684
94	0xbcdd5e2a	-0.02702244
95	0x3ea2f7b0	0.31829596
96	0x3e38162e	0.17977211
97	0x3e852d9c	0.2601136
98	0x3e5450b5	0.20733912
99	0x3e043e7e	0.12914464
100	0xbe1ff3da	-0.15620366
101	0x3e8b5154	0.27210486
102	0x3e2ef4c3	0.17085557
103	0x3d3e233e	0.04642033
104	0xbd67209b	-0.05642758
105	0x3e67edff	0.22649382
106	0x3d977861	0.07396007
107	0xbdab37c9	-0.083602495
108	0x3d949763	0.07255437
109	0xbe289027	-0.1646124
110	0x3e7bd18a	0.24591652
111	0xbddfa526	-0.109201714
112	0x3d9f956c	0.07792172
113	0x3e0cffa0	0.13769388
114	0xbd607f34	-0.05480881
115	0xbd173faf	-0.036925968
116	0x3e2834ef	0.16426443
117	0xbe77bc46	-0.24192914
118	0x3f122fea	0.5710436
119	0x3dfb9cf4	0.12285796
120	0x3f1977a8	0.59948206
121	0x3e72db97	0.2371658
122	0x3d73c863	0.059517276
123	0x3c7bda64	0.015371893
124	0x3edcb1c6	0.4310438
125	0x3ea9d1ee	0.33167976
126	0x3ec5d523	0.38639173
127	0xbf007de5	-0.501921

net.2.weight f4 [128, 128]
0	0x3cce0dbb	0.025153032
1	0xbea81b7f	-0.32833478
2	0xbd7a0fb9	-0.06105015
3	0x3d097923	0.03356279
4	0xbec236d7	-0.37932464
5	0x3cb32d67	0.021872235
6	0xbd0a6ec9	-0.03379706
7	0xbd21ae53	-0.03947289
8	0x3dd5875a	0.10426207
9	0x3d850a64	0.064961225
10	0x3c06f8fc	0.008238073
11	0x3c203f1f	0.009780674
12	0x3c628ceb	0.013827543
13	0x3b881fc8	0.0041541792
14	0x3b3995b0	0.002831798
15	0xbd02306c	-0.03178446
16	0xbd640aca	-0.05567435
17	0xbcc9209c	-0.024551682
18	0xbd72c44a	-0.059269227
19	0xbd2f15dc	-0.042745456
20	0xba57519e	-0.0008213761
21	0xbcf0fd9d	-0.029417807
22	0x3cf88d2c	0.030340753
23	0xbd758459	-0.05994067
24	0xbc227ddd	-0.009917703
25	0x3cc1b6ee	0.023646798
26	0x3cb972dc	0.022637777
27	0x3c845302	0.016152862
28	0x3d6de0b0	0.058075607
29	0x3ca6e77d	0.020374054
30	0x3c913538	0.017725572
31	0x3ca4d739	0.020122157
32	0xbb4f8ed0	-0.0031670816
33	0x3d017455	0.031605083
34	0x3c30afe7	0.010784126
35	0xbcac6b95	-0.021047393
36	0xbd025e33	-0.031828117
37	0x3c6e8081	0.014557005
38	0xbc53a1d2	-0.012916999
39	0xbd12886f	-0.035774644
40	0xbd48a51b	-0.04898558
41	0xbbf32b5f	-0.0074209417
42	0xbd2d7f1f	-0.04235756
43	0x3b8d0f36	0.004304792
44	0xbd4b49f3	-0.04963107
45	0xbd6a342d	-0.057178665
46	0x3ca7ee4c	0.020499371
47	0x3cdc4033	0.026886081
48	0x3c356196	0.01107063
49	0xbc54382d	-0.0129528465
50	0xbc978616	-0.018496554
51	0x3c6bb984	0.014387492
52	0xbcfeab36	-0.0310875
53	0x3d05b34e	0.0326417
54	0xbca840c2	-0.020538691
55	0xbd155eaf	-0.03646725
56	0x3daa3ec3	0.08312752
57	0xbc4781cc	-0.012176942
58	0x3c882019	0.016616868
59	0xbcb70909	-0.022343175
60	0xbd4eb087	-0.05046132
61	0x3cc283ed	0.023744548
62	0x3c966128	0.018356875
63	0x3d8c8dd7	0.06862991
64	0xbc5d6921	-0.013513834
65	0x3afdcd4c	0.0019363551
66	0x3a889f96	0.0010423537
67	0xbd99a95e	-0.07503007
68	0x3d1870ed	0.03721707
69	0xbd51eb0e	-0.051249556
70	0xbd41b288	-0.0472894
71	0x3acee789	0.0015785556
72	0x3d106306	0.035250686
73	0x3cdd56d8	0.02701895
74	0xbcab56e3	-0.020915454
75	0xbd8b80fc	-0.06811711
76	0xbc549c55	-0.012976726
77	0x3ceeb574	0.029139258
78	0xbd249207	-0.040178325
79	0x3d2168d1	0.0394066
80	0x3d01bfba	0.031676985
81	0x3d6230aa	0.05522219
82	0xbd277c45	-0.040889997
83	0x3af5ca67	0.0018752337
84	0xbc49079e	-0.0122698825
85	0xbc10181d	-0.008794812
86	0xbd151f73	-0.036406945
87	0xbd2a8c5c	-0.041637763
88	0xbd769e06	-0.060209297
89	0xbd34598b	-0.044030707
90	0x3d0566dc	0.032568797
91	0x3c634dbb	0.013873513
92	0x3cddb386	0.027063143
93	0x3d2ad0f0	0.041703165
94	0x3d11452c	0.035466358
95	0x3d8442a5	0.06458024
96	0x3ca81211	0.020516427
97	0x3d205dc2	0.039151914
98	0x3c9ddd1f	0.019270478
99	0xbd1098e5	-0.03530206
100	0x3d1992a9	0.03749338
101	0xbb64351c	-0.0034821695
102	0xbc2b1171	-0.01044117
103	0x3d94a54d	0.07258091
104	0x3b43906c	0.002984072
105	0xbca0168f	-0.019542007
106	0xbd4df4c4	-0.050282255
107	0xbcfb06b5	-0.030642847
108	0xbc2579b5	-0.010099818
109	0x3ce399fc	0.027783386
110	0x3d1aba49	0.03777531
111	0xbcb0555b	-0.021525076
112	0xbb33c6a5	-0.0027431634
113	0xbc8cc7a3	-0.017185038
114	0xbcca2b86	-0.024678957
115	0x3c67264f	0.014108255
116	0xbbd27212	-0.0064222896
117	0x3d08a7b9	0.033363078
118	0x3d948d50	0.07253516
119	0x3d2dd195	0.0424362
120	0xbd0c8cce	-0.03431397
121	0xbcf06830	-0.029346555
122	0x3bebc958	0.007195633
123	0x3c6a566f	0.014302834
124	0xbcbc06da	-0.022952486
125	0xbc801cae	-0.015638676
126	0x3c91afc4	0.017784007
127	0xbd41aead	-0.047285724
128	0x3ccb22c8	0.024796858
129	0x3cb5fca4	0.022215195
130	0xbd6f8581	-0.05847693
131	0x3ce41d84	0.027846105
132	0x3b9547d7	0.004555683
133	0xbdc8314e	-0.09775029
134	0x3d538e35	0.05164929
135	0x3da10cb2	0.078637496
136	0x3c616308	0.013756521
137	0xbc4df2c3	-0.012570086
138	0x3b095665	0.0020956036
139	0x3c217683	0.009854916
140	0x3d2b0e11	0.04176146
141	0x3cd787fc	0.02630996
142	0xbda4e531	-0.08051527
143	0xbc88d006	-0.016700756
144	0x3cef661a	0.02922349
145	0xbd1b8a58	-0.03797373
146	0xbb137811	-0.0022501985
147	0x3d14c8b7	0.03632423
148	0x3d9130ce	0.07089387
149	0xbc896919	-0.016773747
150	0xbbaee2e9	-0.0053371084
151	0x3d977215	0.07394806
152	0xbb18dbbc	-0.0023324331
153	0xbe1b33f4	-0.15156537
154	0x3cab4f6d	0.020911897
155	0xbe398797	-0.1811813
156	0x3d3cb2d4	0.04606898
157	0x3c4284f3	0.011872518
158	0xbdba1bbc	-0.09087321
159	0xbd3d46b6	-0.046210013
160	0xbcf15ab7	-0.029462202
161	0x3d95c94d	0.07313786
162	0x3ac96d08	0.0015367577
163	0xbd4d9c48	-0.05019787
164	0xbe04f6c5	-0.1298476
165	0xbd08fe37	-0.033445563
166	0xbd677031	-0.05650348
167	0x3bd02f68	0.0063533075
168	0xbc6eb51b	-0.014569546
169	0xbcf0b5fb	-0.02938365
170	0x3b032b32	0.002001476
171	0x3cddfbe8	0.027097657
172	0x3b501e1e	0.0031756232
173	0xbca0a208	-0.019608513
174	0xbdcb0e14	-0.099147946
175	0xbe1c0187	-0.15234958
176	0xbd40022a	-0.046877064
177	0x3d0accb1	0.033886615
178	0xbcf9c160	-0.030487716
179	0xbd859fec	-0.06524643
180	0xbdb3963c	-0.08768889
181	0xbd3e0181	-0.046388153
182	0x3d1dee6f	0.038557466
183	0xbd6569c9	-0.056009088
184	0xbc622c4b	-0.013804506
185	0xbc8bdb78	-0.017072424
186	0xbcda2c39	-0.026632415
187	0x3b36724b	0.002783912
188	0x3d84bbaa	0.064811066
189	0x3bcd8e2f	0.006273053
190	0xbd378d66	-0.044812582
191	0xbd7beae3	-0.061503302
192	0xbd3bc686	-0.045843624
193	0x3dbed9b2	0.09318866
194	0xbcf70277	-0.030152543
195	0xbba22b9d	-0.0049490468
196	0xbe3ad166	-0.18243942
197	0xbd199530	-0.037495792
198	0xbe171174	-0.14752752
199	0x3ba5e931	0.005063199
200	0x3d2a6e7f	0.041609284
201	0xbda69f58	-0.08135861
202	0x3cd99970	0.026562423
203	0xbbe71711	-0.0070523103
204	0xbd2ced8a	-0.042218722
205	0xbd4dad75	-0.05021425
206	0x3c0351b8	0.008015089
207	0xbd846de6	-0.06466274
208	0x3d362962	0.04447306
209	0x3ce074f9	0.027399527
210	0x3c47fabe	0.012205778
211	0x3b8461ba	0.00403997
212	0x3bc9e567	0.00616138
213	0xbc92ec3c	-0.017934911
214	0xbdcab91b	-0.09898587
215	0x3da09d36	0.078424856
216	0x3c76d6e9	0.015065887
217	0x3d1caf0f	0.038252886
218	0x3c344d49	0.011004754
219	0xbc055ed6	-0.008140286
220	0xbdfcfe67	-0.12353211
221	0xbdae46e4	-0.08509615
222	0xbd58978e	-0.05287891
223	0xbcf592be	-0.029977199
224	0x3c2f9684	0.010717038
225	0xbe384f5f	-0.17999028
226	0xbe628bcc	-0.22123641
227	0xbd5b2694	-0.053503588
228	0x3d11fd3a	0.035641886
229	0x3d051059	0.032486293
230	0xbd332754	-0.043738678
231	0xbdd99c47	-0.10625511
232	0x3c84ee1c	0.01622682
233	0x3d1721c8	0.03689745
234	0x3d8994dd	0.067178465
235	0xbd74f6b8	-0.0598056
236	0x3d1492b5	0.036272723
237	0xbc518dd1	-0.012790159
238	0xbccf9395	-0.025338927
239	0xbd2c0a3c	-0.042001948
240	0xbacc2163	-0.0015573915
241	0xbd8ee216	-0.06976716
242	0x3d28365e	0.041067474
243	0x3dab0f56	0.083525345
244	0x3dc02825	0.09382657
245	0xbcdc84bc	-0.026918761
246	0xbc3162a2	-0.010826739
247	0xbe06b5d6	-0.13155302
248	0x3d9dc807	0.07704168
249	0xbbf52cce	-0.007482148
250	0x3cf62b91	0.030050071
251	0x3c6fd7e1	0.014638872
252	0xbd03957a	-0.032124974
253	0xbbe9fc0a	-0.007140641
254	0x3cb9bb28	0.02267225
255	0x3ca87662	0.020564262

net.2.bias f4 [128]
0	0x3e86f14d	0.26355973
1	0xbeeabdc0	-0.45847893
2	0x3dec926e	0.11551367
3	0x3e4ec5b9	0.20192613
4	0xbd23a372	-0.039950795
5	0x3e741456	0.23835883
6	0xbe7047a3	-0.23464827
7	0xbc85c690	-0.016330034
8	0xbcb12e0e	-0.021628406
9	0xbe46c88e	-0.19412443
10	0xbcd2aa1a	-0.025715876
11	0x3da46846	0.08027701
12	0xbde0ef3f	-0.109831326
13	0x3d974388	0.073859274
14	0x3dc900e0	0.0981462
15	0x3cd5be04	0.026091583
16	0xbd55bc2c	-0.052181408
17	0x3d38be09	0.045103107
18	0xbccaa8fd	-0.024738783
19	0x3b9de93f	0.004819065
20	0x3de856b1	0.1134466
21	0x3ca08629	0.019595223
22	0x3d4e1384	0.05031158
23	0x3e524de3	0.20537524
24	0x3e9ae51c	0.30252922
25	0x3e269cb8	0.16270721
26	0xbd076b9f	-0.03306162
27	0x3c894f56	0.016761463
28	0x3cb16dca	0.021658797
29	0x3e855826	0.26043814
30	0xbdd98f59	-0.106230445
31	0xbdfd5b42	-0.12370922
32	0x3dce715c	0.10080215
33	0x3e102990	0.14078355
34	0xbd911295	-0.07083622
35	0x3de3314e	0.110933885
36	0x3cbc7d24	0.02300889
37	0x3df98e13	0.12185302
38	0x3d1749c6	0.03693559
39	0x3c8a92f9	0.016915785
40	0x3d897386	0.067114875
41	0xbd11bcc4	-0.03558041
42	0xbd154437	-0.036442008
43	0xbd07d9fb	-0.033166867
44	0xbcd56afb	-0.026051989
45	0xbdbf620b	-0.09344872
46	0xbdf27dea	-0.118404225
47	0x3e57a095	0.21057351
48	0xbd6b8da9	-0.057508145
49	0xbdc8be13	-0.09801879
50	0x3c918590	0.017763883
51	0xbe235157	-0.15948997
52	0xbd96fc1a	-0.07372303
53	0xbe33136d	-0.17487879
54	0xbd770c22	-0.060314305
55	0x3d7653e3	0.060138594
56	0x3e003ecb	0.12523954
57	0x3cdee699	0.027209567
58	0x3e8d35c3	0.2758008
59	0xbcc3a66e	-0.02388307
60	0xbcb3c257	-0.021943254
61	0xbe72e2b9	-0.237193
62	0xbe1cc751	-0.15310408
63	0x3e5cfecb	0.21581571
64	0xbe0b9d75	-0.13634284
65	0x3e184454	0.14869815
66	0x3e59c330	0.21265864
67	0xbde9df96	-0.11419599
68	0xbe1eacf7	-0.15495668
69	0xbe91b411	-0.28457692
70	0x3dfc18ed	0.12309442
71	0xbe121867	-0.14267121
72	0xbdbd8e17	-0.09255617
73	0x3d8089c5	0.062762775
74	0xbedeb884	-0.4350015
75	0x3d731f8a	0.05935625
76	0x3ccdacf5	0.025106886
77	0xbae4ae80	-0.0017447025
78	0xbe0a3cc7	-0.13499747
79	0x3d33af01	0.04386807
80	0xbe477117	-0.19476734
81	0xbe958a62	-0.2920714
82	0x3ca5b218	0.020226523
83	0xbe482afe	-0.1954765
84	0x3da5b51b	0.08091184
85	0xbd1cdf62	-0.038298972
86	0x3d03d172	0.032182164
87	0x3dfadaaf	0.12248742
88	0xbe6aaaad	-0.2291667
89	0xbb833716	-0.0040043695
90	0xbe82a8ad	-0.25519314
91	0x3d37c93c	0.044869646
92	0x3dfd9e7f	0.12383746
93	0xbc14c644	-0.009080473
94	0x3daabd0a	0.083368376
95	0xbc710277	-0.01471006
96	0x3d79288d	0.060829688
97	0xbd642999	-0.055703733
98	0x3e168577	0.1469935
99	0x3ddf4d32	0.10903396
100	0xbd7b913e	-0.06141781
101	0x3b6e49d5	0.0036359925
102	0xbd92df25	-0.07171468
103	0x3dbb3636	0.09141199
104	0x3e517a2e	0.20456764
105	0xbdb492f2	-0.0881709
106	0x3d3dd2a2	0.046343453
107	0x3d7b1b43	0.061305296
108	0x3eab75c3	0.33488283
109	0x38ed25cc	0.00011308081
110	0xbe0b143a	-0.13581935
111	0xbf0a5ff5	-0.5405267
112	0xbd11ba01	-0.035577778
113	0x3e817333	0.25283203
114	0xbc8cb212	-0.017174754
115	0xbce67c50	-0.028135449
116	0xbbfdd78e	-0.0077466434
117	0xbdac5ec9	-0.08416516
118	0xbec24cfd	-0.37949362
119	0x3e0ed704	0.1394921
120	0x3d222374	0.039584592
121	0x3e27fd04	0.16405112
122	0x3b66f030	0.0035238378
123	0x3b2d18d9	0.0026412515
124	0x3e5aefc0	0.2138052
125	0x3ca8a39e	0.020585831
126	0xbe69320f	-0.22773002
127	0x3d5b8dcb	0.05360202

net.4.weight f4 [20, 128]
0	0xbcec2b73	-0.028829312
1	0x3b844dff	0.004037618
2	0xb9507b87	-0.00019882443
3	0x3b9b9650	0.0047481433
4	0xbbe47c98	-0.0069728605
5	0xbcff55de	-0.031168874
6	0x3d1ce78b	0.038306754
7	0x3d0700a8	0.03295961
8	0xbce24dfd	-0.027625078
9	0x3ba0728e	0.0048964685
10	0x3b4ccf25	0.0031251397
11	0xbc8dddd0	-0.017317683
12	0x3ab3fad5	0.001373137
13	0x3be6ea48	0.0070469715
14	0xbc2e8dcd	-0.010653925
15	0x3c695e9c	0.014243748
16	0x3bb58207	0.005539182
17	0x3b364393	0.0027811273
18	0xbc427a40	-0.011869967
19	0x3d1192e1	0.035540465
20	0x3b46745d	0.003028176
21	0xbb09cabc	-0.002102538
22	0x3bd2770f	0.0064228843
23	0xbbea0af1	-0.0071424176
24	0xbd028b20	-0.03187096
25	0x39181c70	0.00014506443
26	0x3c8e7367	0.017389013
27	0x3cd3ee51	0.025870474
28	0x3c37937d	0.011204598
29	0xbcbd4bdb	-0.02310746
30	0xbd8dd0fb	-0.069246255
31	0x3ce210f4	0.027595975
32	0xbb10140c	-0.0021984605
33	0xbcc5b518	-0.024134204
34	0x3ba559ae	0.005046091
35	0xbd51c7bb	-0.05121587
36	0xbbab94ac	-0.005236229
37	0xbd4e56e3	-0.05037583
38	0x3c461612	0.012090223
39	0xbd367fa7	-0.044555333
40	0xbc0cb717	-0.008588574
41	0xbceee2e9	-0.029160934
42	0x3c2f8c97	0.010714672
43	0x3b986d9e	0.0046517393
44	0xbc8cb738	-0.01717721
45	0xbcd55eeb	-0.026046237
46	0x3d390443	0.04517008
47	0xbc932020	-0.017959654
48	0xbc506b0c	-0.012720834
49	0xbc08b3d7	-0.008343658
50	0xbc5e3aa4	-0.013563786
51	0x3bb59b61	0.0055422042
52	0xbc4b8634	-0.012422133
53	0x3bff8626	0.007797974
54	0x3a9e1381	0.0012060256
55	0x3cc6000b	0.024169942
56	0xbd3e5edd	-0.046477187
57	0x3d34695a	0.044045784
58	0x3c20f70e	0.009824527
59	0x3c055fd6	0.008140525
60	0x3d1d23e4	0.038364306
61	0xbb748621	-0.0037311392
62	0x3d1aac32	0.037761874
63	0xbbe4ac29	-0.006978531
64	0x3c40563a	0.011739308
65	0x3cc77016	0.024345439
66	0xbade9eb8	-0.0016984558
67	0xbbc53e9a	-0.0060194256
68	0xbba65785	-0.005076351
69	0x39d02994	0.0003970383
70	0x3bcb2651	0.006199636
71	0x3c451b72	0.012030469
72	0xbbbc19e2	-0.00574039
73	0x3cdde419	0.027086305
74	0x3cad04c2	0.021120433
75	0xbcef07d5	-0.02917854
76	0xbc55a1b9	-0.013039046
77	0xbc99c3d7	-0.018770142
78	0xbc54f2d3	-0.012997347
79	0x3d46ca14	0.04853256
80	0xbcaba0b5	-0.020950655
81	0x3c1201be	0.008911548
82	0x3c6a1c03	0.014288905
83	0x3cf378dc	0.029720716
84	0x3bb38b7c	0.0054792743
85	0xbcc032e3	-0.023461765
86	0xbb5a75ee	-0.0033334452
87	0xbd01f50f	-0.031727847
88	0xbc6b035d	-0.014344064
89	0x396bb189	0.00022477483
90	0xbcbe18eb	-0.023205241
91	0x3c6085f0	0.013703808
92	0x3bc1d02e	0.0059147095
93	0xba98ecd7	-0.0011667263
94	0x3d5580cb	0.05212478
95	0x3ccfa33c	0.02534639
96	0xbd187732	-0.03722305
97	0xbcc0275c	-0.023456268
98	0x3c17e7a4	0.009271536
99	0xbcebcd95	-0.028784553
100	0x3c861f18	0.016372249
101	0xbaa63317	-0.0012680021
102	0xbc0f02d5	-0.008728703
103	0x3ca77f3e	0.020446416
104	0x3c69f078	0.014278524
105	0x3b0e6667	0.0021728517
106	0xbc1c8f82	-0.009555699
107	0xbcbdf284	-0.02318693
108	0xbce42082	-0.027847532
109	0x3c0adfb5	0.0084761875
110	0xbabea0c2	-0.0014543759
111	0xbc2cf605	-0.0105567025
112	0xbb8154b5	-0.0039468654
113	0x3c3546ba	0.011064226
114	0xbcfb435a	-0.030671764
115	0xbce1ad34	-0.02754841
116	0xbd02eba3	-0.031963002
117	0xbb06e0a2	-0.002058067
118	0xba6c32da	-0.0009010263
119	0x3b364c51	0.0027816484
120	0x3d8018d3	0.06254735
121	0xbbfaed29	-0.007657666
122	0xbc6eec84	-0.014582757
123	0x3c5fa5e1	0.013650388
124	0x3d50e07d	0.05099534
125	0xbc6157c4	-0.013753835
126	0xbba9d6b0	-0.0051830634
127	0x3b40fa69	0.002944613
128	0x3ce01c59	0.027357267
129	0x3c3f05e9	0.011659124
130	0x3cbdbedd	0.0231623
131	0xbcc5bb7b	-0.02413725
132	0x3d506528	0.05087772
133	0xba6ae346	-0.0008960258
134	0xbd2bc4b5	-0.04193564
135	0xbb9f15a7	-0.004854876
136	0xbcba440b	-0.022737524
137	0x3c127600	0.008939266
138	0x3ce49661	0.027903738
139	0x3bd97110	0.0066357926
140	0xbc174bc7	-0.009234375
141	0x3d1c1e45	0.038114805
142	0xbbc1a149	-0.0059091193
143	0x3c9098fc	0.017651074
144	0x3b186b15	0.0023257185
145	0x3c271925	0.010198866
146	0xbd2214c7	-0.039570596
147	0x39f11cb7	0.00045988496
148	0x3b59041b	0.003311402
149	0x3c643e53	0.013930875
150	0x3c97c07c	0.0185244
151	0x3bb8c772	0.00563901
152	0xbbb114b4	-0.0054040793
153	0xbd349314	-0.044085577
154	0x39d4fbce	0.000406234
155	0xbc186a60	-0.0093027055
156	0xbc615cb2	-0.01375501
157	0xbce49618	-0.027903602
158	0x3b2f8e59	0.0026787727
159	0xbc866dd7	-0.016409798
160	0xbc1f84dc	-0.009736266
161	0xbcd5e78f	-0.026111392
162	0xba8baf88	-0.0010657171
163	0xbd700773	-0.058600854
164	0x3ca85dbd	0.02055251
165	0xbd403dd1	-0.046933953
166	0xbc9a65aa	-0.018847305
167	0xbd171830	-0.0368883
168	0x3caf200c	0.021377586
169	0xbd4ee838	-0.05051443
170	0xbc324505	-0.010880713
171	0xbd1b7058	-0.037948936
172	0xbc558cfc	-0.013034102
173	0xbced20e4	-0.028946348
174	0xbc7e7d4e	-0.015532805
175	0x3baef897	0.005339693
176	0x3ccb962b	0.02485188
177	0x3b850575	0.0040594884
178	0xbc33346f	-0.010937794
179	0xbc5bdc61	-0.013419242
180	0x3d7a024f	0.061037358
181	0x3d2ba3a9	0.041904125
182	0xbcad8a14	-0.021184005
183	0xbc715e4e	-0.014731957
184	0x3cf6a1af	0.030106394
185	0xbce96409	-0.028490083
186	0xbce638df	-0.02810329
187	0xbcd690ec	-0.026192151
188	0xbca9662c	-0.020678602
189	0x3cb6336e	0.02224132
190	0xbd4fca9d	-0.050730336
191	0x3c66c4ab	0.014084975
192	0x3d7fb406	0.062427543
193	0xbd08b3f6	-0.03337475
194	0xbd1524d6	-0.036412083
195	0xbbc0f9af	-0.0058891396
196	0x3c87e515	0.016588727
197	0x3c8a9fe8	0.016921952
198	0x3d0fd2b1	0.03511304
199	0x3c8770dc	0.016533308
200	0x3cf9bb6d	0.03048488
201	0x3b22628c	0.0024777977
202	0xbda1b7ac	-0.07896361
203	0x3cc60252	0.024171028
204	0x3bcb289d	0.00619991
205	0xbd72cd6b	-0.059277933
206	0x3d7e68d1	0.06211168
207	0x3c8fa148	0.01753296
208	0xbd9f34d0	-0.07773745
209	0x3c3d3ab8	0.011549644
210	0x3d3ffd42	0.046872385
211	0x3befeef1	0.007322185
212	0x3c8162b0	0.015794128
213	0xbb6b363e	-0.0035890485
214	0xbc976851	-0.01848236
215	0x3c84dbab	0.016218027
216	0x3c17c608	0.009263523
217	0xbbc5e2c9	-0.006038998
218	0xbdf35b39	-0.11882634
219	0x3c8bd8f0	0.017071217
220	0xbd18672a	-0.03720776
221	0xbc8f89e3	-0.017521804
222	0x3d7b9ecd	0.06143074
223	0xbc7cc606	-0.015428072
224	0xbd5ecb46	-0.054393075
225	0xbc90c391	-0.017671378
226	0xbd426b91	-0.047465865
227	0x3bcd99ef	0.006274454
228	0x3c012329	0.007881918
229	0x3da2b6c6	0.079450175
230	0x3bff45c6	0.0077903
231	0xbca299c5	-0.019848714
232	0x3b8b6cfe	0.0042549362
233	0x3d3b29dc	0.045694217
234	0x3d85df52	0.065367356
235	0x3d3fa10b	0.046784442
236	0x3bc6f8a7	0.006072122
237	0xbca1a649	-0.019732611
238	0x3cf877c2	0.030330542
239	0x3beb064f	0.007172383
240	0x3b804b9b	0.003915263
241	0x3d1458d2	0.03621752
242	0xbcbbd190	-0.022927076
243	0xbd75b30c	-0.059985206
244	0x3d265640	0.0406096
245	0x3cb1d91c	0.021709971
246	0x3bf770b3	0.0075512766
247	0x3c177c2c	0.0092459135
248	0x3d6a7783	0.05724288
249	0xbd40dee2	-0.047087558
250	0x3c70a541	0.014687837
251	0xbd06652b	-0.032811325
252	0x3d535179	0.05159137
253	0x3d119b6a	0.035548605
254	0x3adcecce	0.0016855241
255	0x3c8dee8e	0.017325666

net.4.bias f4 [20]
0	0xbd67f900	-0.05663395
1	0xbda308b2	-0.07960643
2	0x3e077443	0.13227944
3	0xbbbb2c9a	-0.005712104
4	0x3dc7b4af	0.097512595
5	0x3c60a214	0.013710517
6	0xbc793c19	-0.015212082
7	0x3e5d03f1	0.21583535
8	0x3d88a2af	0.066716544
9	0xbd98d3b1	-0.07462252
10	0xbd928ba3	-0.0715554
11	0x3d8ea3b0	0.06964815
12	0xbe452494	-0.19252235
13	0x3d3a4416	0.045475088
14	0x3e3d561a	0.18489876
15	0x3e6129a5	0.21988542
16	0x3dbebb47	0.09313064
17	0x3e14c0e2	0.14526704
18	0xbe24c8ac	-0.16092175
19	0xbcecb705	-0.028895864
