drift_genes/z_f_policy.pth (torch, 91257 bytes, 6 tensors)

net.0.weight f4 [128, 21]
000000 fa fc 3f be e8 c2 90 bd b8 c6 bd 3d ce 0e 16 3e
       -0.18748847 -0.070684254 0.09266418 0.14654085
000010 ea c7 e9 3d d7 69 0c bb 6c 97 d4 bd 44 74 0c 3e
       0.11415084 -0.002142539 -0.10380444 0.13716227
000020 4e 7f c9 bd 43 c5 92 bc 59 50 81 bd 0e 4d 22 3e
       -0.098387346 -0.017916327 -0.06314153 0.15849707
000030 95 0f b2 3d 67 45 d6 3d 21 50 37 3e d7 22 4b be
       0.08694378 0.10462456 0.1790166 -0.19837509
000040 14 06 59 be c0 f3 4b bd 8b 52 fb bd 10 04 30 be
       -0.21193725 -0.049793005 -0.12271603 -0.1718905
000050 5d 20 97 bd 73 15 b4 3d fa 3a 9e bc c6 a8 65 3d
       -0.0737922 0.087931536 -0.019315232 0.056069158
000060 74 c0 72 3d 1a 22 c4 3d d5 5a 97 3b 08 20 e0 3d
       0.05926557 0.09576817 0.0046189823 0.109436095
000070 a1 86 17 3d 2b 40 c1 3d 48 43 30 bd 6a 2d 2e be
       0.036993627 0.09436067 -0.043032914 -0.17009512
000080 ab 60 b8 3d 7b 5f 0b be 50 27 67 3d 0e 38 de bc
       0.09002813 -0.13610642 0.056433976 -0.027126338
000090 1b fe de bd 21 1a 16 3e f7 6e bd 3d 09 75 3f bd
       -0.108883105 0.14658405 0.092496805 -0.046742473
0000a0 87 f6 05 3b cf e3 4f bd 8a d5 5f be 05 ef ef bd
       0.0020441131 -0.050754365 -0.21858802 -0.11715511
0000b0 a2 da f6 bd e3 e9 e6 ba 5e 2c 78 bc 0c 1a 08 3e
       -0.1205342 -0.0017617311 -0.015147297 0.13291186
0000c0 aa 9a 90 3d 17 12 04 be f9 26 ad bd da 93 03 3d
       0.0706075 -0.12897526 -0.08454699 0.032123424
0000d0 26 89 ce 3d be b9 fc 3d 6d 5f cb bd fd a9 27 3e
       0.10084753 0.12340115 -0.099303104 0.16373439
0000e0 9b a6 ec 3d e9 5b 88 3d f4 2c 2e be 98 2d 06 3e
       0.11555215 0.066581555 -0.17009336 0.1310333
0000f0 15 8f cc bd b7 c9 e0 bd d5 5f 56 3d ab 0d bb bd
       -0.09988228 -0.10975974 0.052337486 -0.09133466
000100 17 b0 19 3e 38 02 9e 3c e2 6d ed bd 4a 32 ec bd
       0.15008579 0.019288167 -0.11593224 -0.115330294
000110 53 f5 6d bd 8a 00 9c 3c 41 63 d4 bc bd 23 15 3d
       -0.058095288 0.019043226 -0.025926234 0.036411036
000120 6b 19 a4 bd e4 92 3a 3e f5 a3 4d 3d 54 ab 20 bd
       -0.080126606 0.18220097 0.05020519 -0.03922589
000130 35 67 63 3c b4 dd 9e bc 0c bf ff 3d bb 79 16 bb
       0.013879587 -0.019392826 0.12487611 -0.002296074
000140 eb a0 c1 3d c3 d5 dc bb 12 90 52 3d c7 12 e6 be
       0.09454521 -0.0067393496 0.051406927 -0.449362
000150 ec dd e1 3d e7 ce 4e 3d 0c e6 20 3e 51 f2 1f 3e
       0.11028656 0.050490286 0.15712756 0.1561978
000160 d1 0b bb 3c 7e 53 d4 3d fe 06 69 3d 93 84 67 3d
       0.022832783 0.10367487 0.056891434 0.056522917
000170 80 9e 40 3c 96 55 92 bd ae 26 11 be 25 0b 90 3d
       0.011756539 -0.071452305 -0.14174911 0.07033376
000180 5e c3 4c 3e 5d ac 20 bd c1 62 b6 3d 83 b7 b5 bc
       0.19996402 -0.03922688 0.089055546 -0.022182232
000190 ab 8e 1f be 7b 0e 42 be 1b b0 da 3d 57 c0 1c be
       -0.15581767 -0.18950836 0.10678121 -0.15307747
0001a0 04 42 b7 3e 41 06 17 3e d1 a3 a5 3d e8 f9 ee 3a
       0.35792553 0.1474848 0.08087886 0.0018232437
0001b0 d2 91 2f bd 17 e0 3b be cf ab 70 bd 20 37 85 3b
       -0.042863674 -0.18347202 -0.0587576 0.0040654093
0001c0 29 58 69 bd be e1 4b 3e 0f 43 87 bd 28 97 46 be
       -0.05696884 0.19910333 -0.06604587 -0.19393599
0001d0 5f 30 65 bd 33 0a df bd cb 40 12 3e d2 1a 86 bd
       -0.055954333 -0.10890617 0.14282529 -0.06548084
0001e0 5b 88 b1 bc 12 0c 30 3d bd 82 70 3e 55 4d 8c 3c
       -0.021671465 0.04298026 0.23487373 0.017126719
0001f0 03 ab d6 bd f9 59 ad 3e 2d f4 27 3d 5e 72 44 3d
       -0.10481837 0.33857706 0.04100435 0.04796063
000200 fe 2a 92 bd 65 f4 0a 3d e2 18 d3 bd 9f 2d 80 3d
       -0.07137106 0.03392448 -0.103074804 0.062587015
000210 6f 22 ba 3c 60 30 e4 3d fd bb 32 bc a6 7d fb 3d
       0.022721497 0.11142039 -0.010909078 0.12279825
000220 2b e1 9f 3b b2 fe 44 bd e5 01 85 3d 65 62 a4 bb
       0.004879137 -0.04809446 0.06494502 -0.0050166124
000230 c5 7a 34 3e 78 a4 c2 bb a1 72 e7 3d 2d 8c 89 39
       0.17624958 -0.0059400164 0.113011606 0.00026235115
000240 31 70 30 3d 82 cb 6d 3d 0b 8b aa 3e 37 ff 0c 3e
       0.043075744 0.05805541 0.33309206 0.13769232
000250 a8 47 63 bd 65 10 75 bd eb 5b d8 bc 08 6f 77 bc
       -0.05548826 -0.05983009 -0.026411017 -0.0151021555
000260 98 28 29 bd c6 da 51 bd 6d d8 28 3d 02 af 05 bc
       -0.04129848 -0.05123403 0.041222025 -0.008159401
000270 6a 3b 04 3e 30 38 3a 3d d8 0c 84 bd 81 85 67 bd
       0.1291329 0.04546374 -0.06447762 -0.056523804
000280 dd b4 ee bd 6e 4d eb 3c 3f 74 4f 3e 33 47 2c bd
       -0.11655591 0.028723445 0.20259188 -0.04206009
000290 16 e5 a3 bd cb 4e 02 3d 48 50 94 3d 71 3b ff 3d
       -0.08002679 0.031813424 0.07241875 0.124625094
0002a0 f5 12 f6 bd 8d 12 d7 bd c2 77 b8 3d 47 45 15 3d
       -0.120153345 -0.10501585 0.09007217 0.03644302
0002b0 4b 3c 9e bd 57 7e 1f 3d 6e 1f fc bc f9 fe a0 3d
       -0.07726344 0.038938846 -0.030776706 0.07861132
0002c0 8d 03 0c bd f9 be 58 3d ce cb 10 be 73 c1 00 3e
       -0.034183074 0.0529165 -0.14140245 0.12573795
0002d0 ea 0e 15 3d a5 33 de 3c fe 98 d0 bd e1 c4 bf 3d
       0.036391176 0.027124235 -0.10185431 0.093637235
0002e0 35 43 39 be 0f 8e f1 3c c2 24 fc 3d 10 b9 10 3b
       -0.18092044 0.029486684 0.123116985 0.0022082962
0002f0 2a e8 d6 3d 07 16 a4 bd 0f 96 20 bc 33 9e ef 3d
       0.104935005 -0.08012014 -0.009801402 0.11700096
000300 4d 9b bc 3d b7 3f 00 be 94 99 b6 3d 16 29 12 3e
       0.09209309 -0.12524305 0.089160115 0.14273486
000310 18 c6 4d 3c 96 fd 87 3d 37 fc d6 3d 1d 95 9b 3c
       0.012559436 0.066401646 0.10497325 0.018992001
000320 b0 bc 86 3d cd 61 3c 3e 23 a5 99 bd 57 e8 07 be
       0.06578958 0.18396683 -0.075022005 -0.13272224
000330 b8 71 3b 3e a5 bb 0b 3d a1 74 77 3d b2 d6 3a be
       0.18305099 0.0341145 0.06041396 -0.18245962
000340 08 30 ac 3a e4 0a 74 3e ed c4 f2 bc 2d b2 13 bd
       0.0013136873 0.2383228 -0.029634917 -0.036058594
000350 e5 19 32 be 1d 60 21 3e d8 61 02 bd b3 68 e7 bd
       -0.1739269 0.1575932 -0.031831592 -0.11299267
000360 07 3d 0a be 16 35 39 3e 5b 84 c2 3d b2 c3 e4 3c
       -0.13499843 0.18086657 0.09497901 0.027925346
000370 a8 43 17 3d c5 97 8e 3d 0c 6a 82 3b 25 9b 3a be
       0.036929756 0.069625415 0.003979927 -0.18223245
000380 b2 26 c1 bd dc a6 0f be 71 6f 96 3d c2 38 df 3c
       -0.09431209 -0.14028496 0.073454745 0.027248744
000390 88 31 34 3e 53 80 3c bc 35 11 a0 bd 62 1c 46 be
       0.1759702 -0.011505204 -0.07815782 -0.19346765
0003a0 a5 f2 94 3c d6 90 16 3c 5b 2f 13 3e 5b b9 4d 3e
       0.018182108 0.009189805 0.14373533 0.20090239
0003b0 49 63 4d 3e 38 49 04 be f7 4f 90 3c 72 fd 69 3d
       0.20057406 -0.12918556 0.017616255 0.05712647
0003c0 ee f3 25 bc 79 cf c4 3d 72 1a 33 3d 2b d0 8c 3d
       -0.010128958 0.09609885 0.043726392 0.068756424
0003d0 4d ed 13 be 9e aa 52 bc 4f e6 67 3e fe 0b 10 3e
       -0.14445992 -0.012858061 0.2264645 0.14067075
0003e0 82 1f e8 3d b0 fc 17 3e 44 70 fe 39 de f4 05 3e
       0.11334135 0.14842486 0.000485303 0.1308169
0003f0 fb 6c 66 bd ae 8c 18 3d 53 6e 86 bd 21 a8 34 3d
       -0.056256276 0.037243538 -0.065640114 0.044105653

net.0.bias f4 [128]
000000 c4 52 29 be 31 10 4d be 83 3b 81 3e 96 0c 8f be
       -0.16535479 -0.20025708 0.25240716 -0.2793929
000010 c9 22 2f bd a8 05 82 3e cc 40 7d 3e 52 ef af bd
       -0.042757783 0.2539494 0.2473175 -0.085905686
000020 e9 5b ca bd cb 25 fe 3e 56 da 38 3e ef 53 ed 3e
       -0.09880812 0.4963821 0.18052039 0.463531
000030 0e 07 ae be c9 32 44 3e 4c f6 bc bc 6b 48 7c 3d
       -0.33989757 0.19159998 -0.023066662 0.0615925
000040 5a c1 ba 3e 0a d3 13 be 0d 08 4b 3e 04 6d 4f 3e
       0.3647564 -0.14435974 0.1982729 0.2025643
000050 47 b0 56 3e 56 ec 47 3e 8a d0 d2 3e d4 5a de 3d
       0.20965682 0.19523749 0.41174728 0.10857168
000060 41 d8 cd bd e5 56 a9 be 79 09 42 3c 63 b7 3d 3e
       -0.10051013 -0.33074108 0.011843079 0.18526988
000070 42 25 25 3e 74 b1 5f bd cd 3d f4 3d 70 b1 8c 3d
       0.16127494 -0.054612592 0.1192585 0.06869781
000080 0b 4f b5 3e a3 9b d3 3e a0 3e 8c 3e 36 d0 0a bc
       0.35411867 0.4132968 0.2739153 -0.008472493
000090 85 af db 3e 21 18 4d be e5 f8 22 3e 65 2b 5b 3e
       0.42907348 -0.20028736 0.15915258 0.21403272
0000a0 5e be 94 bd 18 53 cd bd 1a cf 89 3d 00 bd 5b 3e
       -0.07262872 -0.100256145 0.067289546 0.21458817
0000b0 1a b2 90 3e f1 5f 3f bc 21 ed 83 be 4c 4d 18 3e
       0.2826088 -0.011680589 -0.25766852 0.14873236
0000c0 00 64 e3 bd be c5 bd 3e 5b 6d b4 bd 38 20 51 3e
       -0.11103058 0.37064928 -0.088099204 0.20422447
0000d0 f2 d4 8a 3d b5 c1 ac 3d 1a 4f ec bc 40 04 72 bd
       0.06778897 0.08435384 -0.028846312 -0.059086084
0000e0 45 c8 64 bd 1d ea 4b be 00 26 61 3e cf 81 ca bd
       -0.055855054 -0.19913526 0.21987152 -0.0988804
0000f0 88 a4 62 3a 31 3e f7 bd 98 f4 06 3e ac 70 51 3d
       0.0008645733 -0.12072409 0.13179243 0.051132843
000100 e5 e0 41 3e b4 74 b5 3d 0e ac a8 be 42 be 59 3e
       0.18933447 0.0886015 -0.32943767 0.21263984
000110 06 ef 1d 3e 2b 67 60 bd 0f f6 e5 bd 9a 8f 81 3e
       0.15423211 -0.05478589 -0.112285726 0.25304872
000120 31 40 71 3b 96 53 93 3e 4f 31 7d 3c 7e a8 67 3e
       0.0036811943 0.28774709 0.015453651 0.22622868
000130 dd 49 97 3e 6b cf bd bd d8 8e 1e 3e 5b 0e fd 3c
       0.2954854 -0.092680775 0.15484178 0.030890634
000140 bb 11 24 be 1c cf 8f 3e f8 0c f8 3d 05 11 c4 bd
       -0.16022389 0.280877 0.121118486 -0.09573559
000150 f8 61 19 3d 96 8e 79 3c fd dc c7 3d 12 fe d0 3d
       0.037446946 0.015231749 0.09758947 0.1020471
000160 5a a0 d3 3c 4a e8 f2 3d 74 e7 94 be 78 38 15 bf
       0.025833298 0.11860712 -0.29082835 -0.5828929
000170 b7 23 67 be 54 e8 ae 3e 3f a1 4f bd a2 cd b0 3e
       -0.22572218 0.34161627 -0.050690886 0.34531885
000180 3e 40 96 be 48 e8 16 be 44 f9 49 bd 0b 7e 3d 3e
       -0.29345888 -0.14737046 -0.049309984 0.18505113
000190 f9 80 a8 3e 42 f8 5d 3e 0e c9 4e be 1c 9c 40 3e
       0.32910898 0.21676734 -0.20193884 0.18809551
0001a0 c3 f1 d0 3c d9 09 9c 3c 72 ea 6f 3e 07 d1 53 3e
       0.025505906 0.019047664 0.23429278 0.20685206
0001b0 2b 3d ce bd 29 af 7d 3e 84 d5 1c be 61 61 59 3e
       -0.100702606 0.2477385 -0.15315825 0.21228553
0001c0 6e 11 86 3f 5d 29 3d be 92 ec 15 3f 98 d2 30 3f
       1.0474069 -0.1847281 0.585641 0.6907134
0001d0 91 8d ef 3d 12 13 c4 be 65 7c cd 3d 05 ab 61 3d
       0.116969235 -0.382958 0.10033492 0.055094738
0001e0 c5 64 b6 3d 37 e5 78 3e 19 e2 03 3e b3 09 a1 3e
       0.08905939 0.24306189 0.12879218 0.31452712
0001f0 e2 e2 ab 3d 36 db dc bc 8a 8b f5 3e fe 4c 9c 3d
       0.08392884 -0.026959997 0.47958022 0.076318726

net.2.weight f4 [128, 128]
000000 9c 7c 84 bc 5c cf 08 bc 55 b6 b2 3c 72 17 1e b8
       -0.0161727 -0.00835022 0.021815458 -3.769197e-05
000010 4f 1a db bc 2f 54 d9 bc c6 0a 05 3d a7 f5 9e 3d
       -0.026745943 -0.0265294 0.032480977 0.07761698
000020 83 ac 87 bc 8d bb 26 be 7a fa 3f bc 37 98 ad bc
       -0.016561752 -0.16282482 -0.011717433 -0.021190746
000030 e3 a1 46 3b a9 8b 8b bc 2f 8c e0 bd ff 99 ce bc
       0.0030308894 -0.017034369 -0.10964238 -0.025219915
000040 00 6e 9e bd f4 07 44 3d 79 11 73 3c df bf d0 3c
       -0.077358246 0.047859147 0.014835709 0.025482116
000050 cc 8b 08 be db 8d 6a bd f7 c3 8d bc 1e a5 fb bb
       -0.13334578 -0.05726419 -0.017305357 -0.0076795956
000060 9e 88 3a bd 3b cc 34 bd 0d 41 14 ba c5 c1 79 3d
       -0.045540445 -0.04414008 -0.0005655445 0.06097581
000070 c3 20 d6 3d bd 38 a9 3d 2a 82 61 3d f0 94 32 3d
       0.104554676 0.08262775 0.055055775 0.04359907
000080 26 10 a3 3a a5 d9 00 bd d8 3a cb 3c 19 c9 ad bd
       0.0012440726 -0.031457562 0.024808332 -0.08485622
000090 eb 9f 21 bb a7 e2 03 bc 7d 52 dc bc 3d 8a 9a 3d
       -0.002466197 -0.008049644 -0.026894802 0.07545898
0000a0 ce 2a 53 bc 28 c8 c5 bb 22 15 25 bb 47 5b 57 b9
       -0.012888623 -0.0060358234 -0.0025189598 -0.00020538001
0000b0 46 87 0c 3d c6 01 0d bd 5b 96 86 bd 08 f3 38 bd
       0.034308694 -0.03442552 -0.06571647 -0.045153648
0000c0 d0 9c 98 bc b0 df bd 3b 92 f0 86 bd de c8 29 bd
       -0.018629462 0.005794488 -0.06588854 -0.041451328
0000d0 64 fa ee 3b db a5 27 3d 52 2a 0c bc 97 d0 13 bd
       0.0072930325 0.040929656 -0.008555012 -0.0360876
0000e0 6c b2 4e bb 38 30 03 bd 7d 9c 0a 3d 3d 50 88 3d
       -0.0031539453 -0.032028407 0.033840645 0.06655929
0000f0 34 b2 a2 3c 1d 0c d7 bd 72 0f ad 3c 2d c3 b7 3c
       0.019860364 -0.10500357 0.021125529 0.022431934
000100 4f 5a 59 3d 0b c7 82 3d 91 05 04 3e 45 4c ca 3c
       0.05306464 0.06385621 0.12892748 0.024694571
000110 b0 cc 82 bd ae 4a 4b bc d8 7a 1d bd 8b cb 8d bc
       -0.06386697 -0.012407942 -0.03844723 -0.01730897
000120 ab 01 45 bd 8d 69 40 bb 17 75 4c bd e7 b7 fd 3c
       -0.048097294 -0.0029359788 -0.049916353 0.03097148
000130 54 13 ef 3c ad 5f 78 bb 67 68 f0 bb 3d f8 1c 3d
       0.029184021 -0.0037898824 -0.0073366645 0.038322676
000140 35 31 6b 3d cb 18 05 bd f8 8a a1 3d 9a 64 35 3d
       0.057419974 -0.032494348 0.07887834 0.044285394
000150 b3 4f b3 bd f9 0f a6 bd c5 ce 0d bd cd d4 88 bc
       -0.08755436 -0.08108515 -0.03462102 -0.016703034
000160 a2 e8 95 3d 4e ba e8 3a 84 b0 ef ba 90 fa 4d 3c
       0.07319762 0.0017755718 -0.0018286859 0.012571946
000170 e7 0a 57 3d 66 03 45 bc 8a 6e 68 3d 04 56 0c 39
       0.05250063 -0.012024736 0.056746043 0.00013383484
000180 e5 64 e2 3c 4e f5 52 3d 7c a6 8d 3c a8 79 95 3c
       0.027636 0.051503472 0.0172913 0.018246487
000190 d8 df 38 3d a9 c7 60 3b 73 63 ba 36 95 4c e7 bc
       0.04513535 0.0034298694 5.5548094e-06 -0.02823476
0001a0 43 05 2c 3d 9a 98 84 3d 4a fe ff 3c f0 07 29 3d
       0.041997205 0.06474419 0.031249184 0.041267335
0001b0 73 73 56 bd 0a 19 95 3d 36 37 8b bc 30 96 b4 3d
       -0.052356195 0.072801664 -0.0169941 0.088177085
0001c0 71 ff 9f 3c 2b a8 f5 3c c4 6f 88 3c 1c de 91 3d
       0.019530984 0.029987415 0.016654857 0.07122442
0001d0 55 eb 88 3b 5e 5f 68 bd 6a 4d 1e bd 14 a6 db bd
       0.0041784444 -0.056731574 -0.038648047 -0.10725036
0001e0 46 74 93 3c 20 f1 6e bd cf 2e 54 3d 42 c1 40 bd
       0.01799978 -0.058335423 0.051802453 -0.047059305
0001f0 5e aa ea bc 6b f3 e6 3c db 7c 8d 3c 71 7f 77 bc
       -0.02864569 0.028192243 0.01727145 -0.015106068
000200 97 bf 82 bd 6d 70 1d 3c d1 36 11 3c 21 1c c3 39
       -0.06384199 0.009609324 0.008863167 0.00037214256
000210 79 b9 16 3c bf b9 16 3d c4 4f eb bc 40 d8 b4 bc
       0.009199494 0.036798235 -0.028724559 -0.022075772
000220 e2 13 4e 3d 1d 3a 69 bd cb 96 bb bd 0f 1e 85 bc
       0.05031193 -0.056940187 -0.09159621 -0.016249685
000230 f4 64 84 bd 1e fa 9b 3c 38 11 16 3d 4b e2 1e bb
       -0.06464568 0.019040164 0.036637515 -0.0024243768
000240 75 25 3f bd 36 94 0b bd c4 9d cd 3c 8b 2b cb 3d
       -0.04666658 -0.03407689 0.025099643 0.099204145
000250 ff 59 e8 bc ed 73 a5 3c fa 13 b0 3b c9 37 98 bc
       -0.028363226 0.02019688 0.005373475 -0.018581288
000260 f8 2a 0e bd 81 2e 40 3c 71 df 32 3c 06 33 89 3c
       -0.034708947 0.011729837 0.01091753 0.016747963
000270 58 b9 fb 3b 97 58 a2 bd 1d 28 45 bc ad 49 c9 ba
       0.007682007 -0.079270534 -0.0120334895 -0.001535704
000280 d2 1e d4 3c 04 1b 34 bc e9 ad 2f 3d 9c 91 f0 bc
       0.025893603 -0.010992769 0.042890463 -0.029366307
000290 fa c7 01 bd 99 b0 80 bd 33 a2 15 3d 7e 4f 86 bd
       -0.031684853 -0.06283683 0.03653164 -0.06558131
0002a0 55 29 85 bd 0f 83 25 bc 15 2b 72 bd 87 0f d5 3d
       -0.06502024 -0.010102048 -0.059123117 0.10403352
0002b0 82 d4 d9 bb a3 5b 4d bc f8 d1 1b 3d 85 34 0f bb
       -0.0066476474 -0.012534055 0.03804204 -0.0021851372
0002c0 59 e1 49 3b ea 04 4a 3d a9 ed 34 bd 1a 03 60 bb
       0.0030804484 0.049321093 -0.044171963 -0.0034181536
0002d0 55 5d 88 bd a0 36 f8 3c 19 4b ae bc 72 81 48 3b
       -0.06658427 0.030299485 -0.021276044 0.0030594734
0002e0 33 cd 34 ba b4 96 3f 3d 49 11 a1 bb ea 6e 2a 3c
       -0.0006897032 0.04677458 -0.0049153906 0.010402421
0002f0 3b c0 8e bc 5b e5 33 bd 7c 09 18 3d 7f 29 9b bd
       -0.017425647 -0.043919902 0.03711842 -0.07576274
000300 cc ea 2d bc c0 58 0a bd 63 aa 6f 3d 65 2e 6b 3d
       -0.010615062 -0.033776045 0.058512103 0.057417292
000310 db a1 34 3c 4b 02 3b bc 20 68 20 3d 1b 0e c5 bd
       0.0110249175 -0.011414121 0.0391618 -0.09621831
000320 35 72 cd bc 88 b4 58 bd 6d 01 1b bd c2 b5 43 3d
       -0.025078872 -0.052906543 -0.037843157 0.04778076
000330 b2 8d 1c 3b 8c 47 b2 bd 01 d2 a0 ba 9c 1b 8d 3c
       0.0023888168 -0.08705053 -0.0012269617 0.01722508
000340 cb 0a a6 bc bd d9 85 3d 06 c6 b4 bd bb 2a 20 3e
       -0.020268818 0.06535671 -0.088268325 0.156413
000350 06 7e 53 bd 57 30 02 bd e1 5e 8d bc ad fc eb bb
       -0.051633857 -0.03178438 -0.017257156 -0.007201752
000360 42 8d b6 3c 5c 6e 7e 3d d4 47 34 3c 07 6a 93 3d
       0.022284154 0.062116966 0.011003453 0.071979575
000370 60 07 e3 bc f5 6d cf bc a6 be 1a be 4d 4f f7 3c
       -0.027713478 -0.025320986 -0.15111789 0.03018918
000380 98 f8 86 3c 64 ac 1d 3d be aa 9b bd d2 e1 0b 3d
       0.01647596 0.038494483 -0.07600926 0.034150906
000390 2a 68 dc 3c 33 58 ec bc 54 e1 df bc 44 50 e3 3b
       0.026905138 -0.02885065 -0.027329125 0.0069370586
0003a0 cf 79 69 bd 98 6e 0a 3d 63 98 1a bd b1 ab 15 3c
       -0.05700093 0.033796877 -0.037742984 0.009135173
0003b0 f6 57 6d 3d 57 a9 1e 3c ae f2 87 bd 60 bc 5c bc
       0.057945214 0.009683928 -0.06638084 -0.0134726465
0003c0 0b dd ad bd 50 48 35 3b 90 ad d7 3c 2e 45 0e 3d
       -0.08489426 0.002766151 0.026327878 0.034733944
0003d0 40 55 4c 3d ab 3f b9 3d 52 93 62 be b1 aa a8 bd
       0.04988599 0.09045347 -0.2212651 -0.08235682
0003e0 f7 83 d3 3c b1 3d 33 3d e0 31 d6 bc 6e c7 b1 bc
       0.025819762 0.043760005 -0.02614683 -0.02170154
0003f0 28 85 3f 3d aa 30 02 3d 4b a0 ed 3c fa 43 f5 3c
       0.046757847 0.03178469 0.029007098 0.02993964

net.2.bias f4 [128]
000000 86 5c 6e bd ed 43 2e 3c 57 d1 9e bd af da 06 bd
       -0.058193706 0.010636312 -0.07754772 -0.032923397
000010 2c 71 02 bc 25 62 3e be 28 5c 28 3b 35 22 ca 3d
       -0.007961553 -0.18592127 0.0025689695 0.09869806
000020 26 c7 1f bd 36 f8 a3 bc 57 93 b0 bd 6f 7a 4f 3d
       -0.039008282 -0.020015817 -0.08621853 0.05065387
000030 31 98 7d 3c ff 8d 59 bd 2e 90 03 bd af 32 c9 3d
       0.01547818 -0.053113934 -0.032119922 0.0982412
000040 12 94 04 bd d1 7c d3 3c 88 42 1d 39 4e 27 8d 3c
       -0.032367773 0.025816353 0.00014997472 0.017230656
000050 01 92 30 3e 4a 33 7e bd 49 9a d9 3d af ea 43 be
       0.17243196 -0.06206063 0.10625131 -0.19132493
000060 a0 90 e6 3d cd 4f cb 3d 79 ee 5d bd 99 d6 65 3d
       0.11258054 0.0992733 -0.054182503 0.05611286
000070 c7 41 10 3d 12 13 b1 bd 32 fd 2f bd dd 4c ec 3c
       0.03521898 -0.086462155 -0.042966075 0.028845245
000080 ec 97 a1 bd c1 2f 55 be 4b e1 3b be 6e 9c 37 be
       -0.07890305 -0.20818998 -0.18347661 -0.17930767
000090 09 34 31 3e 78 b0 82 bd 70 44 ad bd 09 a2 70 bd
       0.17305006 -0.06381315 -0.08460319 -0.05874828
0000a0 8a 99 3e 3e ac 4b 00 be 17 c4 5d 3d 76 b8 9f bc
       0.18613258 -0.12528867 0.054142084 -0.019497138
0000b0 6f 23 f7 3d 25 52 f2 3d 3e 61 20 3e fe 52 70 bd
       0.12067305 0.11832074 0.15662095 -0.058672898
0000c0 18 02 92 3d 9b e7 04 be 26 c8 c7 3d 26 2e 41 3d
       0.071293056 -0.12978975 0.09754972 0.04716315
0000d0 ce 0d 51 be a2 be 40 3d 96 28 d2 bd 8a 4d 63 3e
       -0.20415422 0.0470568 -0.102616474 0.22197548
0000e0 b6 ea 02 3d 67 55 73 3e 7e 70 0a bd dc 48 e6 3d
       0.03196212 0.23763047 -0.033798687 0.112443656
0000f0 a1 d0 ab bc 0a 16 a7 bc ea 66 39 be 9b 55 a7 bd
       -0.020973505 -0.020396251 -0.18105665 -0.08170625
000100 11 2a ac 3c 00 6d 0b bc fa 9b 95 3d 69 ab a6 3e
       0.021016153 -0.008509874 0.07305141 0.3255265
000110 b9 f8 0e 3e 69 23 c0 3d a8 0a e5 bb e7 7d 83 3e
       0.13962068 0.09381754 -0.0069897957 0.25681993
000120 98 45 60 3e fe 22 dd 3b 58 f5 96 bd a2 06 8d 3d
       0.21901548 0.006748556 -0.07371014 0.06886031
000130 0b 26 14 3e 07 e2 ba 3c 40 26 17 3d e3 49 61 be
       0.14467637 0.022812856 0.036901712 -0.22000842
000140 4f 99 6e 3d d6 ff ba bd a8 f1 e5 3d 46 09 e8 bd
       0.058251675 -0.09130828 0.11227733 -0.11329894
000150 83 d2 c2 bd 34 e6 16 be c2 e1 31 be 17 bb bd 3d
       -0.09512808 -0.14736253 -0.17371276 0.092642
000160 e0 76 a2 be 5b 77 50 be 4c 1e 3e bd 04 ac 0e 3e
       -0.3173132 -0.2035803 -0.046415612 0.13932806
000170 15 6d 3d bd 19 e9 2b 3e 1e 39 f9 bd c1 3e c5 bb
       -0.046246607 0.16788138 -0.12169097 -0.0060194437
000180 24 f0 a6 bc 05 fe 94 bc c7 bb 35 3e bc 17 68 3e
       -0.02037818 -0.018187532 0.17747413 0.22665304
000190 95 bd 40 3e 9d a4 91 be 4c f6 c1 3d 08 f6 89 3e
       0.1882232 -0.28445902 0.094708055 0.2694552
0001a0 cc 58 fe 3d 69 98 d0 3c 69 01 b2 bc 4e 92 5d 3e
       0.124192804 0.0254633 -0.021729188 0.21637842
0001b0 05 ca 48 bd 62 34 b0 3d 5a 16 89 3d bd f5 14 be
       -0.049020786 0.08603741 0.06693716 -0.14546867
0001c0 84 4b db bc 5d fe e3 bd 58 9e 1b 3e a3 6f ab 3c
       -0.026769407 -0.111325 0.15197122 0.020927256
0001d0 40 a3 04 3e 05 82 32 3e de e2 ff bd a8 c9 2e bc
       0.129529 0.17432411 -0.12494443 -0.010668196
0001e0 b3 3c a3 bd 33 12 1f 3d 11 54 1b 3d ba 18 29 be
       -0.07970562 0.038835716 0.03792197 -0.16513339
0001f0 47 46 b3 bc 30 37 b2 3e 66 12 14 bd 52 af af bc
       -0.021884097 0.3480773 -0.03615036 -0.021445904

net.4.weight f4 [20, 128]
000000 4d 0a 05 3c 69 66 34 3c 9d 0e ec bc 32 70 02 3d
       0.008120132 0.011010745 -0.028815562 0.03184528
000010 ef ad 0c bc b8 7f 63 3b c2 53 bf 3b 59 de 3e ba
       -0.008586391 0.0034713577 0.005838842 -0.0007281057
000020 c9 00 cf 38 0d 44 05 bc db 07 10 3b 8e b8 1c bd
       9.8706754e-05 -0.0081339 0.0021977338 -0.038261943
000030 d6 62 30 3d 87 33 ef bb 53 6c 4a bc 0e 75 a3 bc
       0.043063007 -0.0072998437 -0.012354928 -0.019953277
000040 62 91 42 3c b8 4c 34 bc 9a 96 c8 bc d8 59 68 bc
       0.011875482 -0.011004619 -0.024485875 -0.014181577
000050 69 fa 9e 3c 42 58 be bb 3a e2 5a bd 10 bf 05 3b
       0.019406514 -0.005808861 -0.053438403 0.0020408072
000060 ea 7a b1 3b 3a d4 3d 3d 0e b4 d1 3b bb c3 22 bb
       0.005416264 0.046344973 0.006399638 -0.0024835903
000070 cd 04 c6 3b 80 c3 2b bc a2 c3 68 3c 85 3c c7 3c
       0.0060430528 -0.010483623 0.014206799 0.02432085
000080 92 5f 72 3b 38 e4 65 3b fd 50 c2 3b 1b 9f 2e bc
       0.0036983234 0.0035078656 0.0059300647 -0.010658051
000090 24 37 05 bc ce 23 c5 3a 6c 8a 5b bb d3 8b b0 bb
       -0.008130822 0.0015040578 -0.0033499254 -0.005387762
0000a0 22 46 5c 3c ba 68 04 3d 85 cb 4c bd a4 eb 0b 3c
       0.013444455 0.032326438 -0.04999878 0.008540068
0000b0 e8 d0 af bc 73 bb 3d bc 2b 9e 0d bb d8 8f 28 3d
       -0.021461919 -0.011580336 -0.0021609168 0.041152805
0000c0 2f 1b 9c 3c e6 61 1b 3d 62 ca bc 3c d8 66 ec bc
       0.01905593 0.03793516 0.023045722 -0.028857633
0000d0 ad 11 0b bb 0e d5 8a 3a 34 c3 e6 3c 43 a1 5a 3d
       -0.0021220252 0.001059206 0.028169252 0.053376447
0000e0 b8 fd 30 bd 87 5e db bc d4 35 36 3c 6d 26 02 bb
       -0.043210715 -0.026778473 0.011121232 -0.001985933
0000f0 a5 e3 b4 3c d1 25 71 3c 68 3e 98 3b 86 89 2f bc
       0.022081206 0.014718489 0.0046461113 -0.0107139405
000100 a8 c6 40 bc ca 5d 07 3d 75 b3 bf 3c 4a a2 9e bc
       -0.011766113 0.03304843 0.023401001 -0.019364495
000110 34 b3 36 bd 05 96 aa 3a 8d b2 61 3d 83 19 eb bc
       -0.044604495 0.001301468 0.05510192 -0.028698688
000120 1b 2d 75 bc 63 f4 09 3c 2d cb 05 3d b5 0c 11 bd
       -0.014964367 0.008420083 0.032664467 -0.03541251
000130 0a 7a ba bb 79 03 cc bc e7 71 da bc 37 43 2b bc
       -0.0056908177 -0.024904 -0.026665641 -0.010453037
000140 67 7b ee bc 4a 41 76 ba c2 06 04 ba a2 89 4c 3c
       -0.029111577 -0.0009393884 -0.00050364074 0.012483986
000150 93 c5 ae 3b 33 75 0c bc bc 3d 43 bc 23 77 a5 bd
       0.0053336113 -0.008572864 -0.011916574 -0.08079364
000160 6b 3d 7a bc e6 92 d0 3a 99 80 1d 3b a1 9a 90 bb
       -0.015273432 0.001591292 0.002403295 -0.0044129645
000170 f0 c7 97 3b 51 75 67 3d c8 42 27 bc 8c ee b3 bc
       0.0046319887 0.056508366 -0.010208793 -0.021964334
000180 4a 0a 13 bd c1 39 50 bc e4 ee 60 3d ef 5c 15 3d
       -0.035898484 -0.012709082 0.054915324 0.03646558
000190 4b 4f 7a bb 9c 0d cb 3c 2b 46 65 b9 a3 a6 1a bc
       -0.0038194235 0.024786763 -0.00021865281 -0.009439143
0001a0 2c cc 1a bb a5 39 34 3d b3 4e 55 3b 7e ac b1 bc
       -0.002362023 0.044000287 0.003254813 -0.021688696
0001b0 bb 91 25 3d e5 ef 6c bd 38 30 f7 bc ee 6f ac 39
       0.040422183 -0.05784597 -0.03017436 0.0003288979
0001c0 7f 4d 97 3b 88 82 87 3a 4d f3 81 bd 5a f0 0f 3c
       0.0046173926 0.0010338584 -0.06345234 0.008785332
0001d0 fb 49 bf 39 ac 3d f6 bc 30 a7 a5 bc a4 d6 04 3d
       0.0003648548 -0.030058704 -0.020221323 0.03243126
0001e0 b9 94 d6 3b 4d ec 35 bc 7a 09 70 bd ab 60 c2 bc
       0.006548491 -0.011103702 -0.058602788 -0.023727736
0001f0 fe 84 1c 3c 67 f9 4b 3c 4b b3 c3 bc 47 bf 49 3d
       0.009553192 0.012449599 -0.023889204 0.049254682
000200 c0 f9 3e 3c 23 23 81 3b 0e aa 28 3d 21 e6 32 bc
       0.011656225 0.003940956 0.0411778 -0.010919125
000210 d4 84 06 bb cf 38 71 bc 04 d9 d6 3c f1 72 62 3c
       -0.002052595 -0.014723017 0.026226528 0.0138213495
000220 59 95 03 3d 62 4e 94 3c 46 b8 21 3d 7d d8 b4 bc
       0.03212485 0.018103782 0.039482377 -0.022075886
000230 f5 f8 86 bd 71 de a4 3b ce 45 25 bd 01 3c 8c bc
       -0.065904535 0.0050314 -0.040349774 -0.017118456
000240 3e 90 28 3c b7 af ab 3c 1b b0 44 bd d9 1a 19 3d
       0.010288296 0.02095781 -0.04801951 0.03737912
000250 47 f2 10 3c 32 cf f1 3c 6f 4e 44 bd 11 a6 82 b9
       0.008846826 0.029517744 -0.047926363 -0.0002491926
000260 08 26 18 3d 17 26 1d 3d 42 eb 8d 3d 4a b0 c0 bc
       0.037145644 0.038366403 0.069296375 -0.023521561
000270 99 ae fa 3c 7e 9f e2 3c 3c 7c 41 3c 78 5c 28 bb
       0.030600833 0.027663942 0.011809405 -0.0025689881
000280 cd 1f f3 bc 68 a1 8d 3c 12 b1 9b 3c ef 37 aa bc
       -0.02967825 0.017288879 0.019005332 -0.020778624
000290 28 6f 9e 3c 30 d9 7d 3c cf 1c 1b bd 2c a4 3c bb
       0.019340113 0.015493676 -0.03786927 -0.0028784378
0002a0 3b 71 b1 ba d2 1f a9 bc 7e 11 15 bd cb 2f a1 3c
       -0.0013537774 -0.020645056 -0.036393635 0.01967611
0002b0 e6 ad 0c 3d ad 37 d8 ba 4d 7c 2b bd 11 92 7d bc
       0.03434553 -0.0016496085 -0.04186659 -0.0154767195
0002c0 6c 27 0b 3d aa 87 7c 3d 8c 6f 08 3d d5 ac 92 3b
       0.033973143 0.061652817 0.033309504 0.0044761696
0002d0 8e 96 6f bc 09 98 15 3d b2 ff 5d bc 95 3b 45 3d
       -0.014623297 0.036521945 -0.013549732 0.048152525
0002e0 f6 8d 23 bd fc fc 9d 3b a6 bb bc 3b cd 3f 2b 3d
       -0.039930306 0.004821418 0.005759674 0.041808892
0002f0 90 6e 2f bc 03 f5 25 3b 9e 3f 1c bd 61 cd dc bb
       -0.0107075125 0.002532304 -0.038146608 -0.0067383503
000300 23 e6 bc 3b f9 45 52 bb 72 16 1e bd 6d 46 b2 bc
       0.005764739 -0.0032085164 -0.038595624 -0.021762097
000310 7f ac 95 3c 4f 42 bc 3b f1 90 58 3d e3 c3 10 3d
       0.01827073 0.0057452093 0.052872602 0.035343062
000320 9a 64 d9 3c 21 40 ba bb 69 a9 28 bd ad 3c f4 3b
       0.026537228 -0.0056839143 -0.041177187 0.007453522
000330 e0 3e 2e bd 0a 4c 9f bd 90 b7 29 bd fd 4e cb b8
       -0.04254043 -0.07778175 -0.041434824 -9.694507e-05
000340 10 4e 4a bd 87 b8 b7 bc 2d c7 cd ba 28 56 66 bd
       -0.049390852 -0.022426857 -0.0015699618 -0.05623451
000350 bf 1f 2d bc b3 36 40 3d 15 e4 7a 3b ff 98 64 bd
       -0.010566651 0.046927165 0.003828292 -0.05580997
000360 5b c5 cc 3c 0f 93 d4 bc c4 74 63 3d 64 03 d1 3c
       0.02499645 -0.02594903 0.05553128 0.025514312
000370 5c 63 01 3d e5 76 d3 3b 32 ed 56 3c 9d 13 ca 3c
       0.031588897 0.0064533823 0.013118075 0.024667555
000380 af 56 77 bd 1c 55 10 bd 14 41 38 bc ae 25 a3 bd
       -0.060385402 -0.035237417 -0.011245985 -0.07966171
000390 f5 78 24 3d bf 87 7a bd 92 14 ea bc 30 53 1f bd
       0.040154416 -0.061164614 -0.028574262 -0.038897693
0003a0 ed 4e 50 3c e1 98 54 3c 31 7f 3d bd 70 c6 eb bc
       0.01271413 0.012975902 -0.046263877 -0.028781146
0003b0 cb 6f 18 bd 42 02 13 bd 40 2e 0c bc f8 e6 80 bc
       -0.03721599 -0.035890825 -0.008555949 -0.015735134
0003c0 1a a0 81 3c 52 58 4b 3a 81 0b a5 3b b4 1c 13 bc
       0.015823413 0.0007756996 0.0050367718 -0.008979011
0003d0 2b b4 05 bd 3a f0 99 bb c4 5c 13 3d 6d 24 a4 3c
       -0.032642525 -0.0046978267 0.03597714 0.0200369
0003e0 91 7c af bc e9 03 92 3c 5a 74 66 3d f7 3b fe bb
       -0.021421703 0.01782413 0.056263305 -0.007758613
0003f0 0d f9 79 3d fa 5f b6 3c 1a 9e 90 3c d0 45 8d bc
       0.06102853 0.022262562 0.017653514 -0.017245203

net.4.bias f4 [20]
000000 64 29 84 bd bd ed b5 bd 89 ca c2 3d 4f dc 1d 3c
       -0.06453207 -0.088832356 0.09511287 0.009635045
000010 a1 b8 1c 3e c3 89 8a 3d 65 11 05 3d 01 da 22 3e
       0.15304805 0.06764557 0.03248729 0.15903474
000020 84 b5 6f 3d 57 ba fb bd 6f 31 70 bd ae 5e 9c 3d
       0.058522716 -0.12291401 -0.058640894 0.07635246
000030 fc 8b 38 be 09 e9 47 3d 81 5a 18 3e f1 61 55 3e
       -0.1802215 0.048806224 0.14878275 0.20838143
000040 73 ca b2 3d 1d ea 9c 3d ed 14 0b be 80 ea 69 bd
       0.087300204 0.07661841 -0.13582201 -0.057108402
