ablation/z_b_ablation.pth (torch, 90897 bytes, 6 tensors)

net.net.0.weight f4 [128, 21]
00000000: 8cd3 173d c34b da3d e634 d4bd c782 97bd
00000010: f5cb 47be f7e0 f13d 78c6 8f3d eb17 8bbd
00000020: a267 61be 2317 13bd 3460 d7bc f848 abbd
00000030: 290c 043e 3c81 8d3c 8bad 6ebb 0970 d73c
00000040: 819c 07be 0ca6 f1bb 7913 043e 0227 a83d
00000050: 0c08 3a3d 3ee2 3d3d f5a0 08bc 878f 3a3c
00000060: 9adf e2bd 4578 ed3c ee2c d2bd dcb1 d9bd
00000070: 06cd d13c e802 17bd 1c09 b1bd aabf 77bc
00000080: f352 b2bd 032e 06bd 9712 a7bd ebf0 273d
00000090: b5aa a3bd 46ec da3c 8a58 8a3d 9f75 8a3b
000000a0: d94f b9bd f9d5 373d fc8c bebd 52a2 32be
000000b0: 9362 103b 6c93 7ebd 459d d3bd 3a50 bb3c
000000c0: 253d 74bc 1291 cfbd b55a a8bc 5331 dabc
000000d0: 9b35 32bd 5aa8 acbd 1343 c73d caa4 06be
000000e0: 2330 353e acd6 eb3c 5e30 de3d 0ba3 9cbd
000000f0: 1d9a 20bd 9d90 68bc e72b af3b 9e63 043e
00000100: 3595 fc3d 5a49 f9bc 04e3 283d e614 a43d
00000110: dd44 ae3a be4e 393e ee4c 683d 827b 46bd
00000120: 6c67 18bd 6b7f 9dbd c1cd 0ebe 8355 06be
00000130: 40ae be3c 0a42 f53d 0ed4 b1bc 92fe f03d
00000140: b4eb bdbc cc8e 8c3d 5d66 0f3e 041b ee3c
00000150: 0d96 34bd 98ca f23d ecc9 d93c 7ca8 f1bd
00000160: 3d17 6cbd d369 77bd 3350 263d 59b0 30bd
00000170: a58f b6bd 5f62 82bd 6eaf e13d 6197 aebd
00000180: 8cf9 3fbd 4a9b 673d 517b 74bb 8999 bcbd
00000190: b5ec de3c 23d1 d83d 3c15 85bc 25c0 863d
000001a0: 5af1 d13d 30bb ef3c 84f8 05bb db85 44bc
000001b0: 738c e83d 2484 ec3d d25a 10bd 5a62 1e3e
000001c0: 97c3 013e e1d1 363e 3dd9 dabd f7be 4dbe
000001d0: fc55 4ebe a382 823c 2967 39bd 361e 4c3d
000001e0: 8bfd ee3c 82d0 263d dca6 5abe 87a0 34bd
000001f0: eb22 65bd 78d9 383d 2147 0c3a 5f1b 1c3e
00000200: be7d 33bc 3935 63bc 0e4e 47bd 73df bb3d
00000210: 0232 e8bc 0cc3 a73c 8b07 153e 7939 983b
00000220: 31a9 b23d 9863 78bd 14a3 b23b 0f71 963c
00000230: ecd1 acbc a195 633c 8472 f4bc 9d93 a9bd
00000240: 4082 c3bd 4e8f 4b3d be84 3d3d bbb4 4039
00000250: daf4 d5bc 7b9c 233e 1186 4cbd 9275 f9bb
00000260: edfa cbbd 8f3f 1fbe d3b2 d1bd 279a f93d
00000270: 0f2f 0a3e 4738 2d3d 5a94 3b3d 330a 2a3d
00000280: 4144 fb3d 236a 1dbe 2667 11be c8b4 3a3d
00000290: 25a7 f33c c0d4 cebd b371 f23d 4e08 063c
000002a0: 1761 cc3d 1d16 46bd a757 1a3d 67fb abbc
000002b0: 30d5 6cbd 26cd bfbc 89b0 263e 9b07 8abd
000002c0: d2ec e3bd f49c 96bc 6d14 963d cfa0 9abc
000002d0: a8ff f83d a927 b6bd a59e d23c da6b abbd
000002e0: 75cb 87bd d075 a63d de72 40bb 06fd f13a
000002f0: 8ab2 023d b5a1 023d 6951 663d 81e7 6bbe
00000300: 9d0d 00be 29b1 b03d 55b6 293e 3696 5a3d
00000310: f8dc 683d aafa c9bd 6ca7 1b3e 2257 4b3e
00000320: b0a1 d93d 1658 ea3b 8d6d 8bbd 3070 51be
00000330: 365d 53bd dcb0 f43d 5d49 b73d 4a5c 07bd
00000340: ed42 04bd dde8 593d 89d8 86bd 88c8 693d
00000350: 5096 043d e865 c2bc 34b6 ba3d 7f81 b6bd
00000360: b56a 21be 9431 8f3c 87da fabd c243 d2bd
00000370: 1820 983d 5698 25bd ec81 813d 68f6 76bd
00000380: 8adb 453d 97db 93bc ae82 32be fa19 103e
00000390: 4b2d 683d d49d 023d 1ee0 913c 42dd 35bc
000003a0: 34f8 213e 935a eb3b daf3 10be 9d94 a43d
000003b0: 79d4 b43a 84c4 67bd 40af 883d 3036 013d
000003c0: 9e72 f4bd b993 f73a 34dc a13c 891b e1bc
000003d0: d6f6 6c3d 74df 8dbc ab6b fa3b 31a5 7f3b
000003e0: ca02 16bd 05f5 67bc d539 de3d b1f1 ef3d
000003f0: b250 583d 1b91 e2bd 5516 14be e513 de3c
0.03706698 0.10658982 -0.10361652 -0.07397991 -0.19511397 0.11810487 0.07020277 -0.06791671
-0.22012189 -0.035910737 -0.02629099 -0.08363527 0.12895264 0.017273538 -0.0036419358 0.02629854
-0.13243295 -0.0073745307 0.12898053 0.08210565 0.04541783 0.04635834 -0.008339156 0.011386759
-0.11077805 0.028988013 -0.10262476 -0.10629627 0.025610458 -0.036868006 -0.086443156 -0.01512138
-0.087072276 -0.032758724 -0.081578426 0.04100124 -0.07991544 0.026723992 0.06755169 0.0042254473
-0.09048433 0.044881795 -0.093042344 -0.17444733 0.002203141 -0.06215231 -0.10332731 0.022865403
-0.014907156 -0.10135092 -0.020551065 -0.026634848 -0.043508153 -0.08430548 0.0972959 -0.131488
0.17694144 0.028788887 0.10849069 -0.076482855 -0.039209474 -0.014194635 0.0053458097 0.12928626
0.123331465 -0.030430485 0.041232124 0.080117986 0.0013295669 0.18096444 0.05671399 -0.04845763
-0.037208006 -0.07690319 -0.13945676 -0.13118558 0.023276448 0.119754866 -0.02170756 0.117673054
-0.023183681 0.06863174 0.14003892 0.029065616 -0.044088412 0.11855048 0.026585542 -0.11799714
-0.05763935 -0.060403656 0.040603828 -0.04313693 -0.08914117 -0.06366419 0.11019789 -0.08524967
-0.046868846 0.05654458 -0.0037304948 -0.09208972 0.02721248 0.10586765 -0.016245477 0.065796174
0.10251112 0.029264063 -0.0020442316 -0.011994804 0.113549136 0.11548641 -0.035242863 0.15467206
0.12672268 0.178535 -0.10685966 -0.20092379 -0.20149988 0.015931433 -0.045264397 0.0498335
0.029173633 0.040726192 -0.21352714 -0.044098403 -0.055941503 0.04512927 0.0005351175 0.15244816
-0.010955272 -0.01386767 -0.048658423 0.09173479 -0.028344158 0.020478748 0.14553659 0.004645523
0.08723677 -0.060641855 0.0054515693 0.018364457 -0.021096192 0.013890655 -0.029839762 -0.08280108
-0.095463276 0.049697213 0.04626917 0.00018377874 -0.02611773 0.15977661 -0.049932543 -0.0076128924
-0.0995997 -0.1555159 -0.10239186 0.12187605 0.13494514 0.04229 0.045795776 0.041513633
0.12268878 -0.15372519 -0.14199504 0.045582563 0.029742787 -0.100991726 0.11838093 0.008180691
0.09979456 -0.048360933 0.037681248 -0.020993901 -0.0578205 -0.023413252 0.1627828 -0.06739732
-0.11129154 -0.018385388 0.07328115 -0.018875508 0.121581376 -0.08894283 0.025710413 -0.083701804
-0.06630603 0.0812794 -0.0029365341 0.0018462248 0.03190855 0.031892497 0.056229983 -0.2303753
-0.12505193 0.086275406 0.1657346 0.05336591 0.056851357 -0.098622635 0.15200585 0.19857457
0.106265426 0.007151614 -0.068080045 -0.20452952 -0.051602565 0.11947796 0.0894954 -0.033046998
-0.032290388 0.05320059 -0.065842696 0.057076007 0.03236991 -0.023730233 0.09116784 -0.08911418
-0.15763362 0.017479695 -0.12248712 -0.1026683 0.074279964 -0.040428482 0.06323609 -0.060293585
0.048305072 -0.018049045 -0.17432663 0.1407241 0.05668382 0.031888798 0.017807063 -0.011100115
0.15817338 0.007182428 -0.14155522 0.08036158 0.0013796232 -0.056583896 0.06674051 0.031545818
-0.11935924 0.0018888629 0.019758321 -0.02747895 0.05785259 -0.017318465 0.0076422296 0.0039008374
-0.036623754 -0.014157538 0.10850874 0.11716021 0.052811332 -0.11062833 -0.14461644 0.027109096

net.net.0.bias f4 [128]
00000000: 07fb e6ba 1dc5 ad3c fc7a 8cbc 80b4 bdbb
00000010: d49a 2a3e 48c4 1f3a b426 b23d 8c84 bd3a
00000020: 1806 6e3c 0479 673c 4f9a 143c e888 153e
00000030: 0c64 933c 0d3b 26bd a6dc a73c bb48 b83d
00000040: 8c6b 51bd 2629 5fbb 0b82 653d 10b8 febd
00000050: 72bb 96bd e308 273c 1f70 943c 2194 a2bc
00000060: 3a1c 23bc 97e2 0f3d 209e 09bd d8c8 053c
00000070: 5134 683d 26f4 5d37 2af2 a83c c7d7 cd3d
00000080: e01a 01be 77f1 9c3c fe61 da3d f280 37bc
00000090: d501 943b 6b28 d0bb 5688 1d3d 31e9 07be
000000a0: be57 123d 9696 463d f17d d73c b08f bbbb
000000b0: c410 91bd 8199 223c 69db f2bb 6db7 1c3c
000000c0: 73cb 9c3c 4b6f 993a bcf7 be3d 4274 4a3d
000000d0: 1bee b23c 3766 b3bb bcbb 293b fecc a2bc
000000e0: 1d6d b1bc 1dfa 7abd 6f5b 863c fa8f 64bd
000000f0: aa43 613d 3d14 3b3c b93b 2ebd e1fe c23b
00000100: 9022 bd3c fd14 26bd 1668 75bb 35c4 fb3c
00000110: 9aea 123d 29f0 f6bb 3458 663c 4bb4 703c
00000120: c999 033c 1780 563c 5751 9b3d 4fe7 153d
00000130: a09a 853a 3085 7e38 49a5 7bbd 9c11 8abb
00000140: d41b 883d 99ba 48bd a7bc b0bd a569 34bc
00000150: f49c 9d3c 9ba7 8c3c bcfc 75bc 6ff5 9ebd
00000160: acfc 86bc e016 7a3c 3f67 d63c 2aa1 e0bb
00000170: 17bb 4e3c 3f26 86bc 2596 6abb 500a 9e3d
00000180: c67b 43ba 1d2b 043b 85ee 40bd 1ff7 083b
00000190: cfc9 b23c d49a 573d cef6 41bd 0209 58bc
000001a0: 0f4d 883d 1204 f2bb d061 813d 9541 183d
000001b0: db1e 023c 7fe7 013b 4d6d 8b3c 7479 da3d
000001c0: be6a 003d 0d74 173e 4792 39be 11ee cabb
000001d0: 91dc 933d 4274 913c 1fb6 873b 68e7 efbd
000001e0: 873d 78bd 1527 3ebd 29c9 bbbc d5f3 ab3c
000001f0: 0d92 f03c 1f1b dd3c f5ed 05bd 2eb6 b13a
-0.0017622419 0.021212155 -0.017148487 -0.0057893395 0.16660625 0.0006094617 0.08698788 0.0014459058
0.01452782 0.0141279735 0.009069993 0.14603007 0.017992042 -0.04058366 0.020490956 0.08998247
-0.051127955 -0.0034051626 0.05603222 -0.12437451 -0.07359971 0.01019499 0.01811987 -0.019846024
-0.00995546 0.035128202 -0.033598065 0.008165561 0.056690518 1.3229472e-05 0.020623285 0.10050922
-0.12607908 0.019158108 0.10663222 -0.011200177 0.00451682 -0.0063524744 0.0384601 -0.13272549
0.03572821 0.048483454 0.02630517 -0.005723916 -0.07083276 0.0099242935 -0.0074114096 0.0095652165
0.01913998 0.0011706142 0.09324595 0.04942728 0.021842053 -0.0054748314 0.0025899252 -0.019873139
-0.021658475 -0.061273683 0.01640102 -0.05580137 0.05499617 0.011418399 -0.042537425 0.005950794
0.02308777 -0.04054736 -0.0037446073 0.030733207 0.035868265 -0.0075359535 0.014059115 0.014691423
0.008032271 0.013092062 0.07583874 0.036597546 0.0010193177 6.068236e-05 -0.061436925 -0.004213525
0.06645933 -0.04900608 -0.086297326 -0.011011516 0.01923988 0.017169764 -0.01501387 -0.077616565
-0.016477905 0.015264243 0.026172278 -0.0068551498 0.012617848 -0.016375659 -0.003579506 0.07716811
-0.00074571033 0.00201673 -0.04710247 0.0020899249 0.021824745 0.05263789 -0.047354512 -0.013185741
0.06655323 -0.007385739 0.063174844 0.03717192 0.007941927 0.001982182 0.017019892 0.106676966
0.031351797 0.14790364 -0.18122207 -0.0061929305 0.07219804 0.017755631 0.0041415836 -0.11714059
-0.060605552 -0.04642399 -0.02292307 0.020990292 0.029366517 0.026990471 -0.032697637 0.0013558322

net.net.2.weight f4 [128, 128]
00000000: 3bc7 d33c a43e 923d 526e d73c d5ce caba
00000010: 13ca e7bc 4aa9 45bd 02e5 2cbd fa27 9dbb
00000020: 6042 88bc bc04 01bc 6a25 ef3b 5e34 2ebd
00000030: 3045 3c3d fd6e 07bc 1d65 8abd f356 fd3a
00000040: cd05 9c3c c3ee 81bd 3a4e b7bc 7bf3 793c
00000050: fc0a 713b 6a55 e43c 176f ee3b e452 e3bb
00000060: 647f 9b3c 2a58 b03c c5dd 68bc b8fe 33bc
00000070: 7f4b 3d3b 4f0a 403d 3cb6 f1bc 1f41 a53b
00000080: 7846 b2bb 9837 dc3c 9e97 0e3c 61b1 1d3b
00000090: 2cda 98bd ee01 00bc d0d3 37bd 5c84 71bd
000000a0: fd21 153d 6144 a53b d876 cfbc 684e 6dbb
000000b0: 6346 dbbd c18a 82bc 0686 e73c 5991 0f3c
000000c0: 43e5 7a3c 85d7 f43c 0519 333c a720 613c
000000d0: baa1 48bd c2b7 743c 76e5 ca3c 9b11 d8bc
000000e0: 74e8 d0bc 0799 d3bc e3a5 743d 0013 db3c
000000f0: e877 8fbd efc1 b73c 6ef0 4abc 16a7 e7bc
00000100: c2b3 3ebc b25c f33c ab7f bd3c 9284 943c
00000110: 2118 d9bc 4d9b 7bbd 0863 103b f7fd ab3d
00000120: 6d8e 24bd ed2d 943c 7aa1 4c3c 96ad 063c
00000130: fbc3 babc cdf8 4d3d 708a 6d3c 43b8 13bd
00000140: 1dd6 383b d6f1 873c b4e9 6d3c b0f2 ba3c
00000150: b25f 33bd 06c4 83bc 3b5c 363a bf1a 65bd
00000160: 5fed 22bd d930 943c 0c34 47bb 84af 4e3c
00000170: 3845 0e3c 9ff5 193d 709f 6ebd f02a a4bc
00000180: a7d6 043d b6b8 7f3c 533b 6c3b 3cc2 70bc
00000190: a63f b73c 92c5 a6bd 2ed5 aabd 5920 ed3c
000001a0: 4d77 0c3d 26b4 0cbb 43ee 25bb 1661 35bc
000001b0: 5ab8 9abd 9ca8 b9bc 6b78 42bd 2fcd fd3c
000001c0: 83f6 543b 4c06 913c e065 dfbc 913d 373d
000001d0: aa0c 3a3d cbfb 47bd 18d7 843d b0d2 f03c
000001e0: 8e2b 81bd 4d17 b2bc f431 89bd 47ee 3abd
000001f0: ac7e 80bd e36f 83bb b808 a53b 66d5 bdbb
00000200: 1c81 26bd 4745 fcbb 0760 a63d 3138 61b7
00000210: 8c60 06bc 4b29 dcbc 860d 6d3d e08a 413d
00000220: 6ac8 993c fb08 213d 816f 243d 851c 523d
00000230: bd5b 6ebb f7c1 9b3c f08e 94ba 53f6 0fbd
00000240: 0c25 afbc 32bf 4abd cc78 e53c fc65 083d
00000250: 0bf3 073b c8b9 6a3d 8cbc c13d d151 9e3c
00000260: 0b36 eabc 7cbc ca3b ce83 7e3d 0706 01bd
00000270: dbfa c1bb bfa1 ab3d be7a 85bc 8692 82bd
00000280: d8f9 fe3b 6fff 8dbc 1f27 c73c 1c21 8b3d
00000290: 5b94 233d 9565 a03d d09d 02bd 3a3a 24bc
000002a0: d362 213c 5bcf 05bb 45f8 803d 21f5 f33c
000002b0: 3b48 3bbc 9c1a 50bd c923 4c3c 5016 603d
000002c0: 902c cc3b 11f6 85bd f89c 763c 4f9f df3c
000002d0: d700 0c3c 7a7b 003e 0204 aa3c 504b 2bbd
000002e0: 282b 383b 2928 89bc 352c 1cbc 4152 de3c
000002f0: 54c2 1a3d 0f0e 123d 2551 c3bb 03d9 273c
00000300: d310 d4bc a6ea ca3c a3b6 e1bb ff56 4ebc
00000310: 0f7c 0dba 8fe3 04bd ecf6 f13c 775f 49bc
00000320: e1d3 a93d c788 843d fb81 be3c 521f 423d
00000330: 2fdd df3c 9b8d cbbb 0e7a ac3d 4862 ecbb
00000340: b03a f83c 41fd 6cbc 0d09 a3bc a735 b53c
00000350: effa f2bb aed3 333d fee8 d93c 926d bfba
00000360: 3f76 063d 64e5 d43c 11aa 133d dfc2 8fbc
00000370: 2677 e63c 4003 1b3d 3313 31bd 2c7e 603b
00000380: c0e5 063d 826a 0bbb 8c18 afbb 5543 92bc
00000390: 0fdd f13c ce05 dd3c 7f20 ae3d 3c5c a3bc
000003a0: f556 14bc 51a1 023c 542d 21bd 91d2 ddbb
000003b0: 2676 a53d 9613 483c b966 d7bc eb91 4f3d
000003c0: 0ea1 81bd 3c8e 323d feb8 7e3c a87d 103c
000003d0: d4a7 453c 9a6b 30bc f572 ea3c 222b a93b
000003e0: 0b02 c4b9 0587 e93c 9e27 11bd 9cdd 1abc
000003f0: 16c7 f7bc 320e 7bba 9ef6 d23b 8d1d 8ebc
0.025851836 0.07140854 0.026297722 -0.0015473018 -0.028294599 -0.04825715 -0.042210586 -0.0047960253
-0.016633213 -0.007874664 0.0072981613 -0.04253041 0.04596442 -0.008266208 -0.06757567 0.0019328281
0.019045735 -0.06344368 -0.022376169 0.015255804 0.003678023 0.02787276 0.0072764265 -0.0069373716
0.018981643 0.021526415 -0.01421303 -0.010986023 0.002888411 0.04688483 -0.029505841 0.0050431634
-0.0054405294 0.026881978 0.008703141 0.0024062025 -0.07463488 -0.00781296 -0.044879735 -0.05896412
0.036409367 0.005043552 -0.025325224 -0.0036210064 -0.107067846 -0.015935304 0.02826215 0.008762681
0.015313449 0.029887924 0.010931258 0.013740695 -0.04898236 0.014936389 0.024767619 -0.026375582
-0.025501467 -0.025829805 0.059728514 0.026742458 -0.07005292 0.022431342 -0.0123864245 -0.028277915
-0.011639537 0.029707287 0.023132166 0.01812962 -0.026500763 -0.061427403 0.0022031683 0.08398049
-0.04017489 0.018088305 0.012489671 0.008220097 -0.022798529 0.050286103 0.014498338 -0.036064398
0.0028203793 0.016594809 0.014521051 0.0228208 -0.043792434 -0.016084682 0.00069564924 -0.05593371
-0.039777156 0.018089699 -0.0030396013 0.012615088 0.008683495 0.03758776 -0.05825752 -0.020040005
0.03243127 0.015608003 0.0036046102 -0.014694747 0.022369217 -0.08143152 -0.08341442 0.028946089
0.03429346 -0.0021469682 -0.0025319017 -0.01107051 -0.075546935 -0.022663407 -0.04747812 0.030981628
0.0032495565 0.017703198 -0.027270257 0.04473645 0.045422234 -0.048824113 0.064863384 0.029397339
-0.063071355 -0.021739626 -0.06698981 -0.045637395 -0.06274161 -0.0040111407 0.0050364397 -0.0057932613
-0.040650472 -0.007698688 0.081237845 -1.3424128e-05 -0.0082017295 -0.026875159 0.057874225 0.047251582
0.018772323 0.039315205 0.0401454 0.05129673 -0.0036370598 0.019013388 -0.0011334103 -0.035147022
-0.02137997 -0.049498744 0.028011702 0.033300385 0.002074423 0.05730608 0.094597906 0.019326122
-0.028590223 0.00618702 0.062137417 -0.03149989 -0.005919797 0.0838046 -0.01629388 -0.063756034
0.0077812485 -0.017333714 0.024310647 0.067934245 0.039936405 0.07831875 -0.031888783 -0.010023648
0.009850222 -0.0020417783 0.06297354 0.029779973 -0.011430795 -0.050806627 0.012459704 0.05470878
0.006230898 -0.06541074 0.015052073 0.027297644 0.008545122 0.12547103 0.020753864 -0.04181987
0.0028101895 -0.016742783 -0.009532024 0.027138831 0.037782982 0.03565794 -0.005960601 0.010244611
-0.025886929 0.024770092 -0.006888227 -0.012593984 -0.00053972093 -0.03244358 0.029536687 -0.012290827
0.08292366 0.06471401 0.023255339 0.04739315 0.027327148 -0.006211949 0.084217176 -0.0072138645
0.030301422 -0.014464677 -0.019901777 0.02212031 -0.0074151675 0.043903045 0.026600357 -0.0014604798
0.032827612 0.025988288 0.03605086 -0.017548976 0.028132986 0.037844896 -0.0432312 0.0034254892
0.03293395 -0.00212732 -0.0053435024 -0.017854372 0.029524354 0.026980307 0.08502292 -0.019941442
-0.009053935 0.007973031 -0.03934987 -0.0067694862 0.08079176 0.012211701 -0.0262941 0.050676268
-0.06329547 0.043592677 0.015547035 0.008819021 0.012063939 -0.010767842 0.028619269 0.0051626125
-0.00037385555 0.028506765 -0.035438173 -0.00945225 -0.030246299 -0.00095770054 0.0064380905 -0.017348075

net.net.2.bias f4 [128]
00000000: 0a7c b03b c84e 5bbc 0aca 8bbc b4c4 823d
00000010: cb7f 4bbd 0cec 9fbb bc7d f73c aeab a43c
00000020: 7b87 813d 0f91 263a 47f5 edbc d166 343d
00000030: 3701 01bc d358 743c de01 413c a60d 47bc
00000040: 8ebe eab9 0eca c6bc 9556 e43b 8bcf 303d
00000050: 18a1 0bbd 4fe1 c23b bcc6 96bc 95c1 283c
00000060: 81c7 9fbb 0865 7b3c 7114 a0bd db6f 9cbc
00000070: 9671 27bb 6d81 12bd 11d6 9f3d 422c 82bd
00000080: 81b9 a53c 5516 8a3c 5aca b23c d410 493d
00000090: 7cba a03c 5559 113d 69b7 b0bb 4467 a13d
000000a0: ed46 f93c f4a0 0abd 18ee 6b3a 1966 12bd
000000b0: dcbf b93c f3b1 ed3b d7a5 3dbc a085 56ba
000000c0: 0004 323c f0f7 bbbc a674 fb3c 2ecc 3dbb
000000d0: f5d0 4abd 2809 56bb 86b1 fdba 4f02 1b3c
000000e0: b6da cc3c 1b5f 17ba 6383 b73d e22e 5abc
000000f0: 988b b63c 3a67 ae3d bbd6 cebb 4212 a5bb
00000100: 4d0c e23c 65df 97bc b049 233c 24b4 5f3b
00000110: bc04 063d 5e05 e73c e079 f8bc 67cb a7bb
00000120: f95a 693c e4a1 cdbc c7da aabb 9c60 d7bc
00000130: 00a1 d7bc bfc9 3cbb 2882 13bd 5481 7abb
00000140: e6bd f0bb 6872 dfbc d011 a7bc d76c 113c
00000150: e424 823b e15d 903c 70a6 f03c d436 bb3c
00000160: a3f7 20bd 505c 08bd 9d3a 6d3c 1493 cf3d
00000170: f5cb 93bd 468c f13c a7d7 db3b bb00 47bb
00000180: 1e28 25bc f54d d1bc 4be7 8abc 0c6b 3dbb
00000190: 0eaa 48bb eb3b 9a3d e9b9 b73c 0ce2 fcba
000001a0: 4987 5f3d 41b0 093d e0e5 6abd 0fa7 7e3c
000001b0: d865 ff3b b635 7f3c 5f83 c1bb 55a7 6ebd
000001c0: 2b3b 953c 5ba7 aabc 0576 a63d 42cc bebd
000001d0: d530 733d c86f d1bb c13d a7bc 203b 0c3d
000001e0: d2cf 2b3c 45d9 7e3d 49b0 e63b cd6a 8b3b
000001f0: 6852 8abc c26c c5ba 6af8 2cbc fddc 4e3b
0.0053858804 -0.013385482 -0.017064113 0.063851744 -0.04968242 -0.004880434 0.030211322 0.020101395
0.06324669 0.0006354013 -0.029047621 0.044043366 -0.007873825 0.0149137555 0.01178023 -0.01214925
-0.00044773932 -0.024266269 0.006968329 0.04316668 -0.034089178 0.005947269 -0.01840531 0.01030006
-0.0048760776 0.015343912 -0.07816399 -0.019096306 -0.002554988 -0.03576796 0.07804502 -0.06356098
0.020230057 0.016856352 0.021825004 0.049088314 0.019620173 0.035485584 -0.005392958 0.078810245
0.030429328 -0.033844903 0.00090000173 -0.0357419 0.022674493 0.007253879 -0.011575184 -0.0008183364
0.0108652115 -0.022945374 0.03069527 -0.0028960812 -0.049515683 -0.0032659266 -0.0019355274 0.009461
0.025006633 -0.00057743647 0.08960607 -0.013316842 0.02228336 0.08515783 -0.006312219 -0.005037577
0.027593756 -0.01853914 0.009966299 0.0034134472 0.03271936 0.028200801 -0.030331552 -0.005120683
0.014242881 -0.02510161 -0.0052140686 -0.026291184 -0.026321888 -0.0028806773 -0.0360128 -0.0038224058
-0.0073468564 -0.027276233 -0.020394236 0.008876047 0.003971683 0.01762289 0.029376239 0.022853293
-0.039298665 -0.03329116 0.0144793065 0.10135475 -0.07216636 0.029485833 0.0067090574 -0.0030365426
-0.010080365 -0.025549868 -0.016955992 -0.0028902916 -0.0030618939 0.0753096 0.022427516 -0.0019293441
0.054572377 0.033615354 -0.057348132 0.01554276 0.007794123 0.0155767705 -0.0059055532 -0.05826505
0.01821669 -0.020831754 0.08127979 -0.09316303 0.05937274 -0.006391499 -0.020415189 0.034236073
0.01048656 0.062218923 0.007040058 0.004254675 -0.016884997 -0.001506232 -0.010557273 0.0031564825

net.net.4.weight f4 [20, 128]
00000000: 8d4d a83c 0cc3 09bd f891 57bd 6238 083d
00000010: 5956 773c f21f 2abd 3e7f aa3d e291 333c
00000020: b584 ce3b 51c1 f5bb fca5 b33c 8756 143b
00000030: d51e 973b ba3c c4bd 732a 9d3c 4922 57bc
00000040: 8c76 173d 309b 483c dbc4 68bd c21b feb9
00000050: 812a a238 fc0c 1dbd ad3a b73c 5209 373d
00000060: c622 55bd acb3 04bd 66d0 aabc bb30 aeba
00000070: cc88 7e3c 95eb 70bc 4eef 8f3d f8ee 653c
00000080: 9d6b 87bc 66b8 0d3d b7c3 9cbb 8236 663c
00000090: 6078 05bd 659d 2abc 82cc 843c 86de b83c
000000a0: 2a30 89bc eaa5 a33a ed3f ca3d d90d 3ebd
000000b0: c0ba 9d3c 8c24 1b3b 6f60 88bc 33f2 1b3d
000000c0: ab7d 06bb 80e3 88bc c371 31bd 561e 4a3d
000000d0: f95a 99bc 6416 b1bd f06b 993c 9a77 c53c
000000e0: 752e 81bd 9403 fd3c 98b5 59bc c79c b6bc
000000f0: 74d6 6c3c d93b 793d 6f9e d03c e137 66bd
00000100: 95bb 173d e6ba a93c 85bd 843c 2444 333c
00000110: 866a 0f3b 771b fa3c 293f 313a 71eb a33b
00000120: 1a42 49bd 9d3c 5dbc 221e 003c 3313 2dbc
00000130: c640 26bd 5684 dcbc 8f84 0b3c 40b6 edbb
00000140: 1a0f babc 7a42 02bc 45e6 02bd bcb5 6c3b
00000150: 8242 a9bc 11f6 413d 73d4 c93c 3665 aabd
00000160: 9fa3 233d 3ad2 dcbc 6582 d73c 3f5f 33bc
00000170: 3b18 fcbc 5a31 76bd c6d8 cb3d bfd1 963d
00000180: 9656 19bc 76d2 85bb 3f95 b63c 4e0f 33bc
00000190: 211e cbbc 8f17 df3b 7b3c 503c d9b3 923c
000001a0: 116e a33c f64c 03bd 55df 013d b091 593c
000001b0: 771b 24bd 09f7 5abd 1c3a 19bc d08a f0bc
000001c0: 8917 f43b c3c2 50bd acc3 80bd 4764 5abd
000001d0: 59ad b03c c6ba 843d db87 cebc ea20 1c3d
000001e0: 5e54 8dbc 6dbd b1bc 3088 07bd 9de7 893c
000001f0: 4593 c4bc 32cb 073c 0071 73bd 9bc5 c4bc
00000200: 776c 24bc 8bbd e43c 5307 41bd 86cf 533c
00000210: 7175 f43b 8d2d 9d3d cb85 46bc e197 16bd
00000220: d3ff 393d 1d9e 0cbd 93de 883b 5cdf ecbc
00000230: 0d5a a33c e0c5 07bd f287 023d b4a4 4539
00000240: e129 153c 28a5 28bb 4710 63bd 2948 cabc
00000250: 6ee1 9ebb e9a7 85bc 492f 9cbb 3e33 cb3d
00000260: bb21 ddbc 7f23 313c 3d20 5fbc d9a1 da3b
00000270: 773a 7a3d e549 adbc 9a92 813d 4a38 923b
00000280: 6fbb 433a b682 5ebd a6cd 07bd 5f35 2d3d
00000290: d714 0cbd 7c9b 603d e818 d53c 6429 853d
000002a0: 4124 0c3d f546 1c3c 1340 c63c b797 813c
000002b0: 2f56 a03c 4ea8 153c fc46 43bd f0fa 123e
000002c0: 3a1b e9bc c32c 2abc ef0c 053d 9041 92bd
000002d0: 3d4c 1c3d a13a 143d 0920 afbc 5020 2abd
000002e0: 5ec7 2e3d 080f 1639 d8b9 d53a bcf6 27bc
000002f0: e22c 2a3d a80d c03c 08d3 fdbc b502 84bd
00000300: 29a5 a93c eb67 af3c 7507 d63c 3997 f73b
00000310: 3cd0 b93b e1db 983c aadf 333d e763 27bd
00000320: 5dfa 3dbd 109c 11bd a7c3 dfbc fe86 c63c
00000330: f7ee 03bd 1345 1abd eb21 d0bb 50d5 ca3b
00000340: 3cb8 4a3c 7b45 923c 55e7 a13c 93b5 df3b
00000350: 6a67 983c 7ce4 903d a467 12bd 3022 383d
00000360: d492 7bbc e755 3e3c b583 c0ba 8910 7b3d
00000370: dda8 643c 8406 56bc f261 dd3c 6dcd 0abd
00000380: a9bc ed3c 55a9 cf3c 52dd e9bb 552e c23c
00000390: 4355 0bba f340 453c 15aa 2e3c eca8 80bc
000003a0: e10c 82bc 3d97 0c3b 3587 f1bc 532b 10bd
000003b0: f839 c83b 873e 42bd 0beb 1c3c 6360 323c
000003c0: 6098 94bc 5abe bd3d 5383 8abd 0209 f3bc
000003d0: 5609 74bc b53e 35bc 8ad0 95ba 1a59 493d
000003e0: d612 96bb 526b 0fbd 6dd9 083c 2bef 563d
000003f0: 862e 08bd 72f9 b13b e4a1 d33a 366d 70bc
0.020544792 -0.033633277 -0.05262944 0.033256896 0.0150962705 -0.04153437 0.08325051 0.010960074
0.006302441 -0.0074998518 0.021929733 0.0022634582 0.0046118298 -0.09581895 0.01918528 -0.013130733
0.03697829 0.012244031 -0.05682836 -0.00048467336 7.732679e-05 -0.03834246 0.022366846 0.044686623
-0.052035116 -0.03239791 -0.020851325 -0.0013289669 0.015535545 -0.014704605 0.070280656 0.014034025
-0.016530806 0.034599684 -0.004784073 0.014051082 -0.0325855 -0.010413502 0.016210798 0.022567045
-0.0167466 0.0012485359 0.09875474 -0.046399925 0.019254088 0.0023672907 -0.016647546 0.038072776
-0.0020521681 -0.016710043 -0.043321382 0.049345337 -0.018720137 -0.08646849 0.018728226 0.024104882
-0.06307689 0.030885495 -0.013287924 -0.022291554 0.0144554265 0.06084809 0.025466172 -0.056205634
0.037044127 0.020719003 0.016203651 0.010941539 0.0021883561 0.030530674 0.0006761426 0.005002432
-0.049135305 -0.013503221 0.007819684 -0.0105636595 -0.040589117 -0.026918571 0.008515491 -0.007254392
-0.02271228 -0.00795042 -0.031957883 0.0036119064 -0.020661596 0.047353808 0.024637436 -0.08320086
0.039950963 -0.026955713 0.026307294 -0.010948001 -0.030773273 -0.06010566 0.099534556 0.07364225
-0.009359023 -0.004083927 0.022287963 -0.010928942 -0.02479464 0.0068082283 0.012709732 0.017908024
0.019949945 -0.032055818 0.031707127 0.0132793635 -0.040065255 -0.053458247 -0.009352233 -0.029363066
0.0074490947 -0.05096699 -0.062873214 -0.05331829 0.021567034 0.06480937 -0.025211265 0.038117327
-0.017252143 -0.02169677 -0.033088863 0.016834075 -0.023996005 0.008288192 -0.059433937 -0.024020007
-0.010035626 0.027922412 -0.047126126 0.012927895 0.007460289 0.07674704 -0.01211686 -0.036765937
0.04540999 -0.034330476 0.0041769235 -0.0289151 0.0199404 -0.033147693 0.03186793 0.00018848741
0.009104223 -0.0025733206 -0.055435445 -0.024692612 -0.0048486507 -0.016315417 -0.004766379 0.09921883
-0.026993623 0.010811686 -0.013618526 0.006672126 0.061090913 -0.0211534 0.0632679 0.0044622766
0.00074665894 -0.054323874 -0.033155106 0.042287227 -0.034199562 0.05483578 0.026012853 0.06502035
0.034214262 0.009538402 0.024200475 0.015819414 0.019572346 0.009134365 -0.047675118 0.14353538
-0.028455365 -0.010386649 0.032483038 -0.07141411 0.038158644 0.036188725 -0.02137758 -0.04153472
0.0426706 0.00014310714 0.0016305996 -0.010251697 0.04154671 0.023444012 -0.030984417 -0.06445829
0.020708637 0.021411857 0.026126603 0.007555869 0.0056705754 0.018659534 0.043914475 -0.04086676
-0.046381343 -0.035549223 -0.027314974 0.024234291 -0.032210317 -0.03766353 -0.0063516996 0.0061899796
0.012373026 0.017855396 0.019763628 0.0068270653 0.018604 0.0707483 -0.03574337 0.04495448
-0.015354831 0.01161716 -0.0014687689 0.061295066 0.013956276 -0.013063077 0.027024243 -0.033887316
0.029020624 0.025349298 -0.007136979 0.023703733 -0.0005315134 0.012039411 0.010660668 -0.015705548
-0.015875282 0.002145245 -0.029483417 -0.035197567 0.006110426 -0.047422912 0.009577523 0.010887238
-0.018139064 0.09264822 -0.06763329 -0.029667381 -0.014894804 -0.011062314 -0.0011429947 0.04915724
-0.004579882 -0.035014458 0.00835262 0.052474182 -0.033247493 0.0054313475 0.001614627 -0.014674475

net.net.4.bias f4 [20]
00000000: de61 c93c 6bb9 9c3d da91 48bc 0620 b53c
00000010: 902e fb3d 1941 90bc 067a 333c db94 a4bc
00000020: 2821 373c 490e 2abd 14e4 513d a417 1a3d
00000030: ddcb 38bd 9ea8 8bbd 4702 05bd b772 91bd
00000040: af19 95bd a14f a13d 71c6 8bbc 3d7e f4bc
0.0245828 0.07652553 -0.012241805 0.022109997 0.122647405 -0.017609166 0.010954386 -0.020090511
0.011177339 -0.04151753 0.051242903 0.0376202 -0.045116294 -0.068192706 -0.032472875 -0.07101958
-0.072802894 0.07876516 -0.017062398 -0.029845351
