ablation/z_b_ablation.pth (torch, 90897 bytes, 6 tensors)

net.net.0.weight f4 [128, 21]
00000000: b66a 3f3d 9096 bb3c f15a 1e3d e1c4 0f3d
00000010: a63e e43d 9c43 57bd ae1b c73d 8435 a03d
00000020: 6e2f a9bd 96d2 f83d 9d00 70bd dc96 b1bd
00000030: 6720 41bd 3b2a 4b3d 6fa1 c63d aed2 06be
00000040: eb4f 3bbd e378 e23d 3895 c439 24af 033d
00000050: 6ae6 1fbe 35a8 fabb 0793 9ebd 9e2d 193d
00000060: ab7b 2b3d 67db b9bc 86ef a93c c0e1 47bd
00000070: 3f5c 12be 87df 1bbc f9ae 72bb 39a2 50bc
00000080: 0b10 c13d f9d9 67ba 25ac 6abd 8291 9fbd
00000090: d5d9 043e d766 053a d369 59bd 5489 19bd
000000a0: a459 7bbd a150 a93d b59e 84bd 26a1 473d
000000b0: 749b aa3d c803 c63c 3083 eabb 1ff4 cfbd
000000c0: 9d93 8abc 9d31 19be ca89 d4ba 5982 9dbd
000000d0: e0da 27bd 53b3 86bd 333a f6bd 1822 ffbc
000000e0: 2704 e03d 0651 1a3e c7fa 0f3d d70c 4e3d
000000f0: cc5c 14bd 1965 b73d 9f87 a13d f9d6 813d
00000100: b82f 4f3e 755f c5bd 43a0 5f3c 0d2e 1ebe
00000110: bd1c a43d d028 38bd 72ed adbd 31c1 2b3c
00000120: f23d c43c 4431 e0bd 4844 ae3d 7b47 9e3d
00000130: 010b 693e 8184 863d 985b 93bd 2b20 223e
00000140: 38bd babd d20f 3bbd 262c 473d 7c85 783d
00000150: c218 513d 80ab 5d3c c858 61bd c559 803c
00000160: fa97 ccbc f398 89bd 8ad4 9dbd 58b1 5f3d
00000170: 9f1c adbc 4b3d ce3d 5f41 ecbb 8cf2 dc3c
00000180: 092a 843c 3abf 3cbe 6a63 06bc 5546 a33c
00000190: b2a8 a9bd 9acb 203b 35d5 8a3c 5395 ef3b
000001a0: 2e19 6dbd 93d3 443d 3085 2e3b b427 903d
000001b0: 3d3e f93c b6c0 043d 780b bcbd b032 9f3d
000001c0: 98e3 79bd 41af b9bd c4d7 c93d bc26 52bd
000001d0: 6799 013d 2abe 23be 6065 db3c 20b4 a73d
000001e0: b1cb 2d3e 31d3 523e b96f fd3c 7ad3 cebd
000001f0: 62e5 813d 4cab 62bd 6233 18bd b93d 37bd
00000200: 7e08 de3d e81d 163d e1bc 003b 6e15 1b3e
00000210: e8d7 deba c877 17be a6d7 fcbd 82b6 1bbd
00000220: 24b2 c53c aa0c ca3d 5201 203d 1fb0 e53d
00000230: f9a6 b03c c297 733c 3db0 6f3d fec9 113e
00000240: 8725 4f3c 5bd1 f73c 2fef 3c3d ba08 96bd
00000250: 0be0 b2bc 0142 673d b519 cebd 63d3 853d
00000260: 9fe2 c3bd 9832 b0bd f6a5 c93d 3f19 ef3d
00000270: ee23 eabc 7f3c 763d 3926 2abe c7c3 7b3d
00000280: 9b0c 9fbd dc84 103e ae29 46bd 530e 66bc
00000290: 7c51 e43d 0e60 e33d 69e5 4d3d 4724 68bd
000002a0: 3967 4e3c 06dd ad3d 25f0 ee3c 004d 12be
000002b0: 00f9 0d3e 4065 47bd ab69 39bc 7b78 123d
000002c0: 5b9a 73bd 1169 03bd a86d 04bd de18 013d
000002d0: 3ed8 213e efa6 72bd 9fea 83bd 73f0 9bbd
000002e0: 6ff2 b03b 13e6 91bd 065b aabd 3fc4 383c
000002f0: 3080 fabd bbfd 033d 8ba2 8bbd 0578 b63c
00000300: 0991 033d 3bda afbd e598 eebc 7a1c 4e3d
00000310: cf31 cd3c 16a3 5a3d a811 4fbd ad9c a9bc
00000320: c198 813c 0feb 2bbd dfe7 5d3b 9bec 663d
00000330: ec06 9c3d f706 bd3c 9b76 83bd 1c7a cebd
00000340: cf62 4fbd 5956 593d eb08 6cbd f213 2bbd
00000350: 5390 733d d0aa c8bd 4acc a9bd e411 5e3d
00000360: b9ec 9ebd 3fa6 e5bc 7249 83bd 265b 353d
00000370: d288 09bc 8792 0dbe a4dc d6bd 5e96 633d
00000380: 3111 4cbd f03d 0f3e b237 f3bc a966 11bd
00000390: 2b3b 163a 3426 83bd f4e4 4bbc 1b76 aa3d
000003a0: 1f93 11be 9edd 043d cbd4 17bd 2458 563d
000003b0: bbef d53d 993d 2b3d 984b e43d b967 23bd
000003c0: 6959 68bd 5693 c9bd 7f72 5d3d 4200 01bd
000003d0: b5c2 b23d cf60 1fbd 44a1 223e 7cf3 093e
000003e0: 839a 333b d553 bfbc e0d4 18be ec99 b7bd
000003f0: 607b e03c af2c 2b3b ce8f 85bc 5c73 833c
0.046732627 0.022898942 0.038660947 0.035099868 0.11144762 -0.05255471 0.09722076 0.07822707
-0.082609996 0.12149541 -0.058594335 -0.08671352 -0.047150042 0.04960082 0.0969876 -0.13166305
-0.045730513 0.110582136 0.0003749521 0.03214945 -0.1561524 -0.0076494464 -0.07742887 0.03739702
0.041865986 -0.022687627 0.020744096 -0.048799276 -0.14293002 -0.009513742 -0.0037030561 -0.012733989
0.09426888 -0.0008844431 -0.057293076 -0.07791425 0.12973721 0.00050888717 -0.053079437 -0.037484482
-0.061364785 0.08267332 -0.064755835 0.048737668 0.083304316 0.024171725 -0.007156752 -0.10153984
-0.01691609 -0.14960332 -0.0016215381 -0.076908775 -0.04098022 -0.06577172 -0.12022819 -0.031144187
0.10938292 0.1506997 0.03515127 0.050305214 -0.03622131 0.0895483 0.07887196 0.06339831
0.20233047 -0.096373476 0.013649049 -0.15447254 0.08013294 -0.044960797 -0.08492555 0.010483072
0.02395532 -0.10946897 0.08509117 0.077284776 0.22758104 0.06568242 -0.071952045 0.15832584
-0.09118122 -0.045669384 0.048626088 0.060674176 0.051049 0.013529658 -0.05501631 0.015667805
-0.024974812 -0.06718626 -0.07706554 0.054612488 -0.021131812 0.100702845 -0.0072099413 0.026971124
0.016133325 -0.18432322 -0.008202413 0.019930998 -0.08284129 0.0024535418 0.016947368 0.007311502
-0.05788534 0.048053335 0.002662968 0.07038823 0.030425185 0.032410346 -0.09181875 0.0777334
-0.061008066 -0.0906663 0.09855607 -0.05130647 0.031640437 -0.1599051 0.026781738 0.08188653
0.16972233 0.20588376 0.030937063 -0.1009893 0.063425794 -0.055339143 -0.037158377 -0.044736598
0.108414635 0.036649615 0.001964383 0.15144894 -0.0017001601 -0.14791787 -0.12345819 -0.03801585
0.024132796 0.09865697 0.03906376 0.11215233 0.021563994 0.014867725 0.058517683 0.1423721
0.012643225 0.030251196 0.04612654 -0.07325883 -0.021835348 0.05645943 -0.10063497 0.065344594
-0.09564709 -0.086034 0.09846108 0.11674737 -0.028581586 0.060116287 -0.16616143 0.061466005
-0.07766076 0.14113182 -0.048379593 -0.014041501 0.111483544 0.11102305 0.05026761 -0.05667522
0.012597852 0.084894225 0.029167244 -0.14287186 0.13864517 -0.048680544 -0.011316697 0.03575943
-0.059473377 -0.03208262 -0.03233114 0.031517856 0.15805146 -0.05924123 -0.06441235 -0.076142214
0.005399994 -0.07123961 -0.083181426 0.011277257 -0.12231481 0.032224398 -0.06818112 0.022274027
0.03212074 -0.08586546 -0.02912564 0.050320126 0.025048165 0.053378187 -0.050553948 -0.020704592
0.015819909 -0.041972216 0.003386013 0.05637799 0.07618508 0.02307461 -0.064191066 -0.10081884
-0.05063134 0.053060863 -0.057625692 -0.04176707 0.05946381 -0.09798205 -0.08290918 0.05421628
-0.07759995 -0.028033374 -0.06410493 0.04427638 -0.008394437 -0.13825427 -0.104913026 0.055563323
-0.049821083 0.13988471 -0.029689644 -0.035498295 0.00057308626 -0.06403771 -0.012444723 0.08323308
-0.14216278 0.032437913 -0.03706817 0.05233015 0.104461156 0.04180679 0.11147231 -0.03989384
-0.056725893 -0.09842555 0.05406427 -0.031494386 0.08728544 -0.038910683 0.1588183 0.13471788
0.0027405329 -0.023355404 -0.14924955 -0.08964905 0.02740258 0.0026119163 -0.016303923 0.016046219

net.net.0.bias f4 [128]
00000000: f2b1 64bd afcc c83d ebdf 2dbb 8ee8 8abc
00000010: 31a2 abbd e864 86bc df20 183d a39a 7abc
00000020: 0e14 3abe b9f1 b43c 18d1 933c ca64 193c
00000030: 4ae2 8a3e b323 1c3d 82e9 d73d 030d 0dbd
00000040: e7cb ef3d e928 ee3c 782b 4a3d 3d8c 8e3c
00000050: 9ce3 333c 17fe b3bd 8b3e 57bc a980 02bd
00000060: 4cde 863e e63d 01b9 61d8 c7bd 25e8 2dbc
00000070: 79a7 ad3c 6077 e2bc 3c18 1ebd 4e13 603c
00000080: 938c 883c 65ea ac3c 67e0 cabc d8e1 2d3c
00000090: b836 013c f4c7 24be 6181 27bd d64b f23d
000000a0: 7ff3 343b 71e4 7f3c 1a2c 09bc 7ae3 1b3c
000000b0: ad90 243d bc9b a4bc d6eb 043d c718 873c
000000c0: bd77 ecbb 2be2 713c 3f81 6d3d 27bd 66bd
000000d0: 47cf 043c 8b4f c9bc 9887 593c 1dd8 643c
000000e0: 4980 cebc ad6d a4bc 61fd 2b3c 4b55 b5bd
000000f0: d395 673c 915c c5bc 686d d6bc 91d2 f2bc
00000100: 498c 9bbd 8943 933c 5903 a9bd a78c 883c
00000110: ea9a 90bc 872f 8a3c b4b6 943c c864 d8bc
00000120: 8218 fbbc 5e03 d13c b57d a13d f4eb a0bd
00000130: 5ca1 233d 1440 143d d863 8c3d 1bec d2bd
00000140: 927f b93b 61f7 1fbd 3cb0 b03d 50bc 8b3d
00000150: fbbc c5bd 5afa 1bbd 2222 ce3a 8ba1 e0bc
00000160: 9e6d 3c3b 3b46 19bd 3ef9 babc 0c25 8abc
00000170: 69ec c4bb d7dd ed3d 593e f53d 67a6 973c
00000180: 45b4 07bd fc0e 533e d123 14be eb37 213e
00000190: 91ac 413d 22a6 af3c aa8b 34bc e487 323e
000001a0: 7a21 493e 79bf 10bb f38f b03c bcc0 8e3d
000001b0: 1217 0a3d f353 6c3a 2c67 a33b dab8 f1bb
000001c0: 52a4 4dbd 69d8 df3c 7076 2bbd 3252 2f3d
000001d0: 787d 55bc 60cc 2cbd 1859 613b 301c 6dbd
000001e0: 51ac debb eee2 d7bb af56 4abd b1c1 09bd
000001f0: 6676 683c afcb 19bc 154a 44bd 9588 0a3e
-0.055833764 0.09804665 -0.002653117 -0.016956594 -0.08380545 -0.016405538 0.037140723 -0.015295657
-0.18171713 0.022087919 0.01804404 0.009362409 0.2712577 0.038119983 0.10542585 -0.034436237
0.11708813 0.029072242 0.04935786 0.017400855 0.010979559 -0.08788698 -0.01313747 -0.03186098
0.26341474 -0.00012325458 -0.09758068 -0.01061443 0.021198021 -0.027644813 -0.03859733 0.013676478
0.016668594 0.021107862 -0.024765207 0.010612927 0.007886581 -0.16091901 -0.04089487 0.11830871
0.0027610955 0.0156184295 -0.008372331 0.009514684 0.040177036 -0.020093791 0.032451473 0.016491307
-0.0072164224 0.014763395 0.057984587 -0.056332733 0.008106059 -0.024574062 0.013276957 0.013967541
-0.025207656 -0.020071829 0.010497422 -0.08854159 0.014134842 -0.02409199 -0.026175216 -0.029641422
-0.07595117 0.01797654 -0.08252592 0.01666863 -0.017651994 0.016868366 0.018153526 -0.026415244
-0.030651335 0.0255143 0.07885305 -0.078575045 0.039948806 0.036193922 0.06854981 -0.1029894
0.0056609595 -0.03905428 0.08627364 0.06823027 -0.09655186 -0.03808055 0.0015726725 -0.02742078
0.002875186 -0.037420493 -0.022823926 -0.016863368 -0.0060096276 0.11614578 0.119747825 0.018511964
-0.033130903 0.20611185 -0.14466788 0.15743987 0.047283713 0.021441523 -0.011019627 0.1743465
0.19641677 -0.0022086783 0.021553015 0.06970355 0.033713408 0.0009015195 0.0049866643 -0.0073767724
-0.050205536 0.027324872 -0.041860998 0.042802997 -0.013030402 -0.042187095 0.003438538 -0.05788821
-0.006795444 -0.0065883314 -0.049399074 -0.033631984 0.014188385 -0.009386941 -0.047922213 0.13528664

net.net.2.weight f4 [128, 128]
00000000: ca95 cc3b 596a bdbb 356e 7bbd 0cf4 bdbb
00000010: 28b3 543a 1dcb 87bc c4eb ecbc ff59 233d
00000020: 631f 06bd 9e6a c5bc 0a62 273d 7f91 763c
00000030: c4ed 983b c5b2 f3bc 95dc f63a edde 5c3d
00000040: 0a1a ca3b db58 c83c 2751 2abd 7fe2 4cbc
00000050: ac7e 9dbd 1c3f 32bd ce62 3ebc 3437 dc3c
00000060: 9a8c 413c 3d5d 8fbb a9ab 03bd 86ed 483c
00000070: ddae 1dbb cddb 88bc 1dac 52bd c722 cebc
00000080: 39e4 8fbc b75f 323c 1fe0 54bc 9b12 233d
00000090: da53 0a3d b7cf 1f3d 5bf0 1ebc 3a0d fcbc
000000a0: a51c a6bc b3f7 6b3b 5c13 d73b 70c0 38bd
000000b0: fe21 2abc 7f80 263b 0155 1b3c 8028 9abc
000000c0: dade 373c ff95 ee3b 087f 253d 942b c4bd
000000d0: a3c4 88bc f554 11bc d1b3 753c 7761 1abd
000000e0: 431f 9f3c 8a66 f33b ebab c2bc 4475 993d
000000f0: 4d26 80bd a3a1 ad3c ab02 12bd 64dc 513c
00000100: 3696 503c 845d 813b 0086 793b 1004 f0bc
00000110: 709e 5abc 8094 1f3c 6aae d7bc d969 b7ba
00000120: 567e 9a3a 501f 203c 25f1 bc3c df03 3e3c
00000130: 1368 df3c c330 37bd 570a c63c 2801 58bc
00000140: 7cf0 e73b a829 603d 4fdf 8fbd 12b9 663c
00000150: a8a0 efbc d818 3f3c 611a 7a3c 3a99 853c
00000160: 5751 c53c 5e61 1fba b9a0 5ebc 53a3 333d
00000170: 495c 5c3c b543 89bd 4873 8cbb a3bf 923c
00000180: d24d 013c a5c1 563d e000 a63c af35 6abb
00000190: 42ff d73c 0a8a 20bd e637 72bb 035d 033d
000001a0: 6831 f8bc 6d75 36bc f2f0 013b b223 42bd
000001b0: 2fa9 6abc 73d7 acbd 58bc 553b 6495 47bc
000001c0: 7019 50ba 7503 943c 87f6 bd3c e1ed 633b
000001d0: c617 073c 9996 11bd ab66 6b3b b6e7 daba
000001e0: adc9 dabc 20f6 7a3d 8c6f 9cbd 5242 1ebd
000001f0: 69c9 063c 0dca 373c 3c62 513d 8753 18bc
00000200: 4cf3 5c3d 5197 6e3d 622c 813c f166 a63d
00000210: 570d 013d b91d 7d3a 7cde 873c 5a47 25bd
00000220: c3a6 59bc 7374 53bb bd32 8f3d 914e aebd
00000230: d52d 093d 7725 3d3d 9d82 39bc 92e4 82bd
00000240: c66c 21bd d758 2d3d 95fd 503d bd95 9d3d
00000250: 1d97 1d3c 8ddf 17bd 3dc4 893b cd72 013c
00000260: ca54 3d3c 54c4 8f3d 3e6c 063d 7b01 8e3d
00000270: 109d f2bb 1519 203d 72c9 cfbc 5cf8 ec3b
00000280: 157b b63c a21f febb 88d2 f1bc 62a2 d2b9
00000290: a73b 20bd 3743 613c 8d25 753d 3561 d1bc
000002a0: 31c6 e4bc 1e06 7e3d 3be8 733c 30f4 79bc
000002b0: 551a c3bc 0ae7 383d 13df 833d 7f01 5cbd
000002c0: 6243 80bb 3af3 0f3d 188c 86bd 3a73 73bd
000002d0: 9a70 2e3d 62de 10bb 9742 ee3d 8569 403b
000002e0: d7e3 923c d0b2 943d e58b 003b 6d96 31bc
000002f0: 8c99 463d b7fd 47bd 0fe8 bbbc 5e4b 443d
00000300: 94d3 743d 57fc 33bc 107e 14bd 6e21 313d
00000310: 77c5 c83c 1a75 b0bb 0c5a ca3d bfb3 aa3b
00000320: 3379 7a3a 16a1 363d 897f 83bc ccb4 a03c
00000330: e426 e4bc c194 bf3b e669 f63c ac26 263d
00000340: 93c7 143d 8df7 08bc b8e4 4fbd b941 81bd
00000350: 3f1c febc 8610 a93a 38b5 043c 00d7 903d
00000360: 9d24 513c ddb5 0e3d 6b99 683c 9cbe bfbc
00000370: c144 91bb a95f e43c 1fb5 29bd 67ea ad3c
00000380: 585e a73d 4d5f a1b9 a5ab 5bbc d17a 49bd
00000390: cd36 adbc 40b9 8c3c 2e6f 8fba 43fc 0f3d
000003a0: 59d6 923c 9911 b33c 5e8c b23c 235f 34bb
000003b0: 7f7b 5d3d e208 ca3d 4ae6 87bc 4f11 5cbc
000003c0: b144 c33b cab5 edbb 4604 213c 170a 0abd
000003d0: 6515 3b3c a5e4 263b 4af4 29bc 121a 96bc
000003e0: ed01 44bc 9dd2 45bd 2a24 563c 4a79 90bc
000003f0: 3606 923c ad83 943d 0863 783c cf52 e1bc
0.006243442 -0.0057805 -0.0613844 -0.005796915 0.00081138546 -0.016576344 -0.028921016 0.03988075
-0.032744776 -0.02409869 0.04086498 0.015049337 0.0046670157 -0.02974833 0.0018834049 0.053923536
0.006167655 0.024456432 -0.0415813 -0.012505173 -0.07690176 -0.043517217 -0.011620237 0.026881792
0.011813307 -0.0043751285 -0.03214613 0.012263661 -0.0024060525 -0.016706372 -0.05143367 -0.025163068
-0.01756488 0.010887078 -0.012992888 0.039812665 0.033771373 0.03901645 -0.00970086 -0.030768026
-0.02027733 0.0036005795 0.006563587 -0.045105398 -0.010384081 0.002540618 0.009480716 -0.01881814
0.011222566 0.0072810645 0.04040435 -0.09578624 -0.016695326 -0.008870353 0.014996485 -0.037690606
0.019424086 0.007427995 -0.023763618 0.0749307 -0.06257305 0.021195238 -0.035647076 0.012808893
0.012731126 0.0039479155 0.0038074255 -0.029298812 -0.0133434385 0.009739995 -0.026328284 -0.0013993337
0.0011786919 0.0097730905 0.023064205 0.011597603 0.027271306 -0.044724237 0.024174852 -0.013183869
0.0070782285 0.054727226 -0.070250146 0.01408221 -0.029251412 0.011663638 0.015265078 0.016308416
0.024086637 -0.00060798775 -0.013588124 0.04385693 0.013449737 -0.06702367 -0.0042862035 0.017913645
0.007892089 0.052430768 0.02026409 -0.0035737564 0.026366834 -0.039194144 -0.0036959588 0.032071125
-0.030296996 -0.011136395 0.0019827452 -0.047397323 -0.014322563 -0.08439531 0.0032613482 -0.012181614
-0.0007938361 0.018068055 0.023188842 0.0034779238 0.008245414 -0.03554401 0.003591935 -0.0016701135
-0.026707495 0.06126988 -0.076384634 -0.038637467 0.008226731 0.011217606 0.051119074 -0.009297258
0.053942963 0.058249775 0.015768234 0.08125103 0.031506862 0.0009655613 0.016585581 -0.04035125
-0.013284388 -0.0032265454 0.069920994 -0.08511079 0.033490974 0.046178307 -0.011322645 -0.063912526
-0.039410375 0.042321052 0.051023085 0.07694576 0.009618548 -0.03707843 0.0042043016 0.007900906
0.01155586 0.070198685 0.03281807 0.06933876 -0.007403977 0.03908642 -0.025364611 0.007231755
0.022275487 -0.007755236 -0.029519334 -0.00040175306 -0.03911939 0.013748935 0.059850264 -0.025559047
-0.027926536 0.062017553 0.014886911 -0.015255973 -0.023816267 0.04514221 0.064390324 -0.053712364
-0.0039142827 0.03514407 -0.065696895 -0.05943606 0.042587854 -0.0022105207 0.11633795 0.002935977
0.017930908 0.07260668 0.0019614634 -0.010839087 0.048486277 -0.048825946 -0.022937803 0.04792344
0.05977209 -0.0109854555 -0.036253035 0.04324477 0.024508221 -0.0053850533 0.09880456 0.0052094157
0.0009554803 0.044587217 -0.016052024 0.01961746 -0.027850576 0.0058465903 0.030079793 0.040564224
0.03632314 -0.008359802 -0.050755233 -0.06311364 -0.031019328 0.0012898601 0.008099847 0.07072258
0.012765077 0.034841407 0.014196734 -0.02340632 -0.004433245 0.027877646 -0.041432496 0.021229936
0.081722915 -0.00030779318 -0.013407622 -0.049189392 -0.021144295 0.017178178 -0.0010943168 0.035152685
0.017924475 0.021858977 0.021795448 -0.0027522526 0.054072853 0.098649755 -0.016589303 -0.013431861
0.0059591164 -0.007254337 0.009827679 -0.03370103 0.011418675 0.0025465873 -0.010373184 -0.018322978
-0.01196335 -0.04829656 0.013070146 -0.01763596 0.017825227 0.07251678 0.01516033 -0.027505307

net.net.2.bias f4 [128]
00000000: de8a aebc 898f 923c f77f 9c3c 3e9a 21bd
00000010: 606d 453d 00f0 25bb 3029 8a3d 9ce1 153d
00000020: 2d83 87bb 4019 233b d7d1 7f3c f351 9ebb
00000030: 01a6 9bbc a27e 363b 8705 973c 5499 e93c
00000040: 32cb 9dbb 93a3 a13d 3727 f03d 9caf 89bd
00000050: a012 0b3d 1304 c8bc 6538 a53b 2ba6 efba
00000060: 2d46 f63c c108 593c b05b a43c bc56 cabc
00000070: 73de 9f3b fb37 27bd 6d58 5e3d 8591 e33b
00000080: 539d 99bd c873 f0bb 7ac1 1c3c a554 a03d
00000090: 3ccc b8bb a8f7 23bc 6c8f 0fbc f533 953c
000000a0: ccfe 213c e4e4 dbbc 4cae 4ebb 46f4 a9bd
000000b0: 09a9 9f3d 9bdd 2e3d fe7f f9bb 4a74 0dba
000000c0: 288b 50bb 262b 813c d3cf e93c 6f4e a8b9
000000d0: 592f 533d e8a6 1dbb 5b47 d2bc 65d3 4c3d
000000e0: 17db 42bb 46d6 923d 43b8 e8bc e450 743b
000000f0: a0ac 673b 3989 f8bb eff2 243d c172 9d3c
00000100: 3cd3 ecbb 156e 213d 3246 d73b f9c0 e0bb
00000110: b67d 793c d028 48bb f7d4 27bc 5537 473d
00000120: 5a51 573b 2d82 43bb da93 7fbc 1c0b a5bc
00000130: fcc8 d73b ecc0 a93d 4195 803c a01a 863a
00000140: 50d0 17bc cf33 993b a9f0 d6bb 440d 4a3d
00000150: e7e6 dc3a 8eac 80bb 2800 bd3c 3f3d d33c
00000160: a759 24bd 75ef 9a3c 264b 8cbb c1f4 98bc
00000170: cece f13c c584 afbc fbe0 c53c 453e 3f3d
00000180: d62f ce3d 4814 c73c 9e5f 85bd 622d 8a3b
00000190: 98a1 1d3d 1e4f a53c 2f33 883c 26ef dab9
000001a0: 7e4a bc3c ee49 55bd 5898 de3d 0e0b 123d
000001b0: e7fe 33bc 2e82 bb3d ddcc fc3c 92cf d93c
000001c0: ff01 1d3b b4a9 7a3a 085f 22ba 72ef 96bc
000001d0: 86ac a4bc ba37 5dbb dea5 db3c 28dc 30bd
000001e0: 3c9e d93c 5002 a5ba acdc 4b3d 4017 7fbd
000001f0: 7158 acbc defd 35bc 911f 9dbc bf65 6cbc
-0.021306451 0.017890709 0.019103987 -0.039453737 0.04820001 -0.0025320053 0.06746137 0.03659211
-0.0041355104 0.0024886876 0.015613995 -0.0048315465 -0.019000055 0.0027846475 0.018435253 0.028515495
-0.0048154825 0.078925274 0.1172623 -0.06722948 0.03395331 -0.024416005 0.005042123 -0.0018283775
0.03006276 0.013246716 0.020063251 -0.024699561 0.004878813 -0.04082487 0.05428355 0.0069448375
-0.0750071 -0.007338021 0.009567613 0.07828645 -0.005639581 -0.010007776 -0.008762222 0.018213252
0.009887408 -0.026842542 -0.0031536995 -0.082985446 0.07795913 0.04269181 -0.007614135 -0.00053960516
-0.0031821225 0.015767645 0.028541481 -0.00032101895 0.051558826 -0.0024055783 -0.02566879 0.05000629
-0.0029732639 0.07169776 -0.028408175 0.003727966 0.0035350695 -0.0075847176 0.040270742 0.019219758
-0.0072273295 0.039411623 0.006569647 -0.0068589416 0.015227726 -0.0030541904 -0.010243646 0.048636753
0.0032854886 -0.002983223 -0.015599215 -0.020146899 0.0065852385 0.0828875 0.01569617 0.0010231324
-0.009265974 0.0046753655 -0.0065594506 0.049329057 0.0016853482 -0.00392682 0.023071364 0.02578604
-0.04012456 0.01891301 -0.0042814193 -0.018671395 0.029517557 -0.021425614 0.02415513 0.046690244
0.10067718 0.024301663 -0.06512378 0.004216836 0.038484186 0.020179328 0.016625969 -0.0004175838
0.02298474 -0.052072458 0.10868901 0.035655074 -0.010986066 0.09155689 0.030859405 0.026588235
0.0023957489 0.0009562031 -0.00061939703 -0.018424723 -0.020101797 -0.003375514 0.02681249 -0.043178707
0.02656471 -0.001258919 0.049770996 -0.062278032 -0.021038266 -0.01110789 -0.019180091 -0.014428555

net.net.4.weight f4 [20, 128]
00000000: 29d0 00bc d97f 58bc 0527 143c a0e5 683c
00000010: 106f d6bc aec2 24bb c925 843c c77f 8f3d
00000020: b461 c53a 6397 a3bc 1392 cbbb daae b4bc
00000030: 484d 403d 0557 4a3d f77c c7bc e87c 8dbc
00000040: c9ed 433d 3c68 f33d ac92 c53d 92f0 ca3c
00000050: 334d 093c cd89 043c 85b5 d2bb a38f 5b3c
00000060: 23cf 953b a140 aab9 a77c 623c 9bb4 abbc
00000070: 9cfc af3c da4c 56bd 8f4e c8bb 25a7 0a3c
00000080: 93df 5c3d 0203 383c b6d3 99bc 7298 cabc
00000090: e7f1 173c c975 723c acea 3ebb 8606 2fbc
000000a0: c500 b4bb 5417 223c 8aa3 953c 760f 583d
000000b0: dc93 acbd e8be 16bd 61b9 ba3b 1a36 02bc
000000c0: c5d4 813c 0f9d ac3c 126b 973b c37e aa3c
000000d0: 95f8 9e3c fd27 6dbc a6ca 5e3b 07da 35bd
000000e0: cc51 1abc cd43 7bbd e847 adbd c74a b9bb
000000f0: bc17 0cbd 626e 99bc 48bf f0bc 7119 31bc
00000100: 1cae 553b 85ad 163d b86d 83bc 5e8a 8d3c
00000110: 4066 233c d3e8 afbc 9253 68bc aa58 603c
00000120: 6183 513d 9183 3bbb 0de0 403c f413 3b3d
00000130: 5e32 6d3c 9431 3e3d 9bbb df3c 9ee3 0a3d
00000140: 8cee 353b 91fd cbbb 59d2 24bd 0556 2d3d
00000150: 6216 c4bc c914 15bc 60d2 383c b305 203c
00000160: 2c13 203c bffb 523a f7a0 a53c 3355 273d
00000170: e0a5 993c e8aa 2f3d 65a5 2aba a428 a9bc
00000180: 2b5c fb3c 5c84 d43c 0b40 a93c 1a6c 493d
00000190: 6bc4 4bbc 13db adbd c6b3 9a3c 9f00 a43b
000001a0: be36 463a a2c0 04bc bf73 b13c 5cc8 943b
000001b0: d577 0c3d 2f31 1a3d c21c e1bc 1340 433d
000001c0: 896d 1f3c 67c4 9cbc 2f17 c9bc 3c02 e9bc
000001d0: 168e 0a3d 9553 28bc 2992 6ebb 37b0 8c3c
000001e0: 76f0 70bb 3d38 903c 8c63 233c 2bb0 4cbd
000001f0: 1ff3 3cbd e932 d73d 69ab a8ba facd acbc
00000200: ffd1 39bd 3278 243b 27d8 dabc c055 d6bd
00000210: 7c1e 60bc aba1 803c 4a50 4dbd 0ad8 3f3d
00000220: 15fe 83bc e200 c3bc 0c9f 2d3d 0570 08bc
00000230: 3b19 d83c a5c7 18bd b730 c63c 184b c53c
00000240: baea c03c c128 11bd 2a70 63bd f566 7abd
00000250: 73a5 8fbd ad78 b63c 579e b2bc 9775 f0bc
00000260: da75 95bc 6c55 3cbd 3199 10bd 6139 403c
00000270: ecbb 88bc 2873 893d 416e 70bd 6621 69bd
00000280: b995 c03c 9ae0 073b bcc4 e03a 49ef 763d
00000290: 430e aa3c 1312 0c3b b274 a3bb 5cad 98bc
000002a0: 716b a43c 23ad 433d 0096 05bc 8af2 6abd
000002b0: 6325 5d3d 30eb cc3c 4c30 5abc ca03 653d
000002c0: 598d 833c 53ac 3bbd 2a2e e6ba e182 24bd
000002d0: 1024 03bd dff8 4c3c edf8 0ebd a79c debc
000002e0: dfc0 e13c f978 04bd 8e60 e5bc b5a1 35bb
000002f0: 37e5 aabd c902 0fbd 71b0 60bd 8f6a 05bd
00000300: 75d4 1f3c 304c 6b3d 475a 68bb 8e75 8cbc
00000310: 45f3 a83d 8076 31bc cbc8 3bbc 2b60 f53c
00000320: b4ef 833d ed86 24bd 796f 0bbd 66e4 f13c
00000330: 30fa b03d 464f f43c 039a 2abc 1b03 433d
00000340: 8dad 723c 39bd 3bbc 3656 8d3d c187 26bc
00000350: 8611 e13b 73c4 78bc bec5 27bd b819 103c
00000360: a0bd a13c 1596 0d3c 7697 93bc d026 ddbc
00000370: 8623 2e3c 8e73 183d 7cbb fbbc 8e9b 70bd
00000380: 4523 4d3c 532a d93a e293 25bc 1a92 933c
00000390: 9c59 9dbc 283c 42bd 962d 413c d193 2a3d
000003a0: 1334 ca39 10ab 0e3d 436d 143d cc7f 353d
000003b0: 9336 073d 0fa8 813c 69dc 3f3a a22c b6bc
000003c0: 357a 1e3c 5039 86bc f0df 7b3d 3ebf 1abd
000003d0: 6c65 193d 69ac 21bd 4dc0 03bd ab34 b93d
000003e0: 348b 09bd c519 843b e814 38bd 625a 2c3c
000003f0: 0694 3fbd f696 2bbe 8b20 1abd 4b5c 623d
-0.007862129 -0.013214075 0.009042506 0.014214903 -0.026176006 -0.0025140452 0.016131299 0.070067935
0.0015059025 -0.019969648 -0.0062124818 -0.022056032 0.0469487 0.049399395 -0.02435158 -0.017271474
0.04783419 0.118851155 0.09647116 0.024772916 0.008380222 0.008089495 -0.00643033 0.013400945
0.0045718118 -0.0003247308 0.013823665 -0.020960143 0.021482758 -0.052319385 -0.0061128805 0.008462702
0.053924154 0.011231186 -0.01877771 -0.024730895 0.009273983 0.01479859 -0.0029131575 -0.010682708
-0.005493256 0.009893257 0.018266458 0.05274912 -0.084266394 -0.036803156 0.0056983684 -0.007947469
0.015848527 0.021070985 0.004620918 0.020812398 0.019405643 -0.014474866 0.00339953 -0.04439738
-0.009418916 -0.061343957 -0.08460981 -0.005654666 -0.034202322 -0.018729392 -0.029388085 -0.010809288
0.0032604998 0.036786575 -0.016043529 0.017277893 0.009973109 -0.021473324 -0.014180081 0.013693014
0.051150683 -0.0028612355 0.011772168 0.045673326 0.0144773405 0.046434 0.027311137 0.03390848
0.0027760593 -0.006225296 -0.040239666 0.042318363 -0.023936454 -0.009099194 0.011280626 0.009766984
0.009770196 0.00080483773 0.020218356 0.040852737 0.018755853 0.0428876 -0.0006509631 -0.020649262
0.030683598 0.02594202 0.02066042 0.04917536 -0.012436966 -0.08489051 0.01888455 0.005004957
0.0007561258 -0.008102568 0.021661637 0.0045404863 0.03429397 0.03764456 -0.027479533 0.047668528
0.009730705 -0.01913662 -0.024547188 -0.028443448 0.03382691 -0.010273834 -0.0036403036 0.01717387
-0.003676442 0.017604942 0.009972464 -0.049972694 -0.046130296 0.10507757 -0.0012868467 -0.021094311
-0.045366284 0.0025096056 -0.026714398 -0.10465574 -0.013679143 0.01570209 -0.050125398 0.04683689
-0.016112367 -0.023804132 0.042388007 -0.008327489 0.026379218 -0.03729977 0.02419315 0.024083659
0.023549426 -0.035439257 -0.05552689 -0.061133344 -0.07013979 0.02227434 -0.021804018 -0.029352946
-0.018244673 -0.045979902 -0.035302345 0.01173243 -0.01669117 0.067114174 -0.058698896 -0.056916617
0.023508893 0.0020733238 0.0017148475 0.060286794 0.020758754 0.0021373078 -0.0049882764 -0.018637352
0.020070763 0.047772538 -0.008153439 -0.05736021 0.053990733 0.02501449 -0.013317179 0.055911817
0.01605861 -0.045818638 -0.0017561365 -0.04016388 -0.032016814 0.012510507 -0.034905363 -0.027174307
0.027557788 -0.03234193 -0.028000142 -0.0027714793 -0.083445005 -0.034914766 -0.054855768 -0.032572325
0.009755244 0.057445705 -0.00354542 -0.017145898 0.08249525 -0.010831475 -0.011461447 0.029953083
0.06442204 -0.040167738 -0.034041855 0.029527854 0.086414695 0.029822957 -0.010412696 0.047610383
0.014811886 -0.011458688 0.06901209 -0.010164202 0.006868544 -0.015183556 -0.040960066 0.008795194
0.01974374 0.008641739 -0.018016558 -0.026996046 0.010628587 0.037219577 -0.030729048 -0.0587421
0.012520616 0.00165684 -0.010106059 0.018014003 -0.019207768 -0.04742065 0.011790654 0.041644875
0.0003856724 0.034831107 0.036237013 0.04431133 0.03301103 0.015827207 0.00073189155 -0.02223808
0.009672691 -0.01638475 0.06149286 -0.03778004 0.03745024 -0.039471064 -0.032165814 0.09043249
-0.03358002 0.0040313923 -0.044941813 0.010519596 -0.046772026 -0.16756806 -0.03762869 0.0552638

net.net.4.bias f4 [20]
00000000: 20e4 bb3d e7da f5bc 4aa5 d7bc 2730 7d3d
00000010: 3cfe fd3c b7c7 f43b 5b34 593b c984 a8bd
00000020: fc7e 293d d033 64bd 2ae7 60bd 58ba 7fbc
00000030: ada6 43bd 1eed 7f3d f501 ef3c cd18 7b3c
00000040: 7a11 1a3d ab61 203d 1b22 7ebd 62d6 2fbd
0.09174371 -0.030011607 -0.026323933 0.0618135 0.031005017 0.007470097 0.0033142779 -0.08228452
0.041380867 -0.055713475 -0.054907955 -0.015608393 -0.047766376 0.062481992 0.029175738 0.015325737
0.037614323 0.039155643 -0.062044244 -0.04292906
