ablation/z_f_ablation.pth (torch, 90897 bytes, 6 tensors)

net.net.0.weight f4 [128, 21]
0	0xbd95cf84	-0.07314971
1	0x3cce6272	0.025193427
2	0xbc820789	-0.015872734
3	0xbd978b5a	-0.07399626
4	0xbd4683ce	-0.048465542
5	0x3cae219c	0.02125626
6	0x3d12b2ee	0.035815172
7	0xbdba7075	-0.09103481
8	0xbd2ea3f2	-0.04263682
9	0xbc83575a	-0.016032863
10	0x3d930a1a	0.07179661
11	0xbd895d58	-0.06707257
12	0xbc452af2	-0.012034165
13	0x3dcaa544	0.09894803
14	0xbd156f43	-0.03648306
15	0xbcdaa553	-0.02669016
16	0x3df29bf7	0.11846154
17	0xbd2f454d	-0.0427907
18	0xbc826ca5	-0.015920946
19	0x3c8c3795	0.017116347
20	0x3b9a8506	0.0047155647
21	0xbd9494d8	-0.07254952
22	0xbdc3ac1d	-0.095543124
23	0x3aa68e42	0.0012707191
24	0xbd47c0b7	-0.04876777
25	0xbd87af05	-0.06625179
26	0x3d638da2	0.055554993
27	0x3dc78f8e	0.09744178
28	0xbc64b845	-0.013959949
29	0xbe18e58d	-0.14931317
30	0x3dcf17c7	0.10111957
31	0x3c4329db	0.011911835
32	0xbc2f7ffb	-0.010711665
33	0xbdb9ebd8	-0.09078187
34	0x3da3bee3	0.07995393
35	0xbde1ff1d	-0.11034987
36	0xbd050cbb	-0.032482844
37	0xbd0140e6	-0.031556033
38	0xbc8ed226	-0.017434191
39	0xbd72fd2f	-0.059323486
40	0xbdbf3f84	-0.093382865
41	0x3ba1661f	0.004925504
42	0xbd9a1d99	-0.075251766
43	0x3dc4b311	0.09604467
44	0xbe3b1a92	-0.18271855
45	0x3d909436	0.07059519
46	0xbdcdc369	-0.10047037
47	0x3df4fe95	0.1196262
48	0x3d1cead5	0.03830989
49	0xbda2c621	-0.07947946
50	0x3d09347f	0.03349733
51	0xba2f5656	-0.0006688585
52	0xbd84ab0c	-0.06477937
53	0x3d80719b	0.062716685
54	0x3d6b5818	0.05745706
55	0x3d2b7e2a	0.041868366
56	0x3e0c7347	0.1371585
57	0x3dc26377	0.09491628
58	0xbe123cec	-0.14281052
59	0x3d5d6d41	0.05405927
60	0xbdc9c9df	-0.09852957
61	0xbcde8efd	-0.027167792
62	0xbc07936f	-0.008274897
63	0x3d41f272	0.047350354
64	0x3a4d8ce7	0.00078411255
65	0xbcee9894	-0.02912549
66	0xbc7fe5cd	-0.015618754
67	0x3ccaa52e	0.024736967
68	0xbcca85e4	-0.024722047
69	0x3e17ea7e	0.14835545
70	0x3e6f71d2	0.23383263
71	0xbd065214	-0.03279312
72	0x3bcfdd06	0.0063434867
73	0xbdaffbcd	-0.08592949
74	0xbd455950	-0.04818088
75	0xbde0a5c8	-0.1096912
76	0x3d91a0d4	0.07110754
77	0xbd4c11c4	-0.04982163
78	0x3dd684c1	0.104745395
79	0x3dda63be	0.106635556
80	0xbe014b5f	-0.12626408
81	0xbda27fc7	-0.07934528
82	0xbde004c4	-0.10938409
83	0xba6dc80e	-0.0009070643
84	0x3dac516c	0.084139675
85	0xbd2abbe9	-0.04168311
86	0xbd7f7ed4	-0.062376812
87	0x3d998660	0.07496333
88	0x3c2c6787	0.01052273
89	0xbd5d35ea	-0.054006495
90	0x3b61d580	0.0034459531
91	0xbb8df3b5	-0.0043320307
92	0x3d947e9c	0.07250711
93	0xbd2cd2d2	-0.04219324
94	0x3d510ce7	0.051037695
95	0xbd4686db	-0.048468452
96	0xbdcf164f	-0.10111677
97	0xbdb03311	-0.0860349
98	0xbdede1e7	-0.11615353
99	0xbdca4fe3	-0.098785184
100	0x3d531d7d	0.051541794
101	0x3ba0c0cd	0.004905796
102	0xbd8d51ec	-0.06900391
103	0xbd2190fd	-0.039444912
104	0x3aee8ed5	0.0018200526
105	0x3d4faeee	0.050703935
106	0x3a1fe571	0.0006099558
107	0x3c8b2b03	0.016988283
108	0xbdbfc187	-0.09363084
109	0x3ce47327	0.02788694
110	0xbcdfbf05	-0.027312765
111	0xbd314b80	-0.043284893
112	0x3b51a117	0.0031986886
113	0xbd4c7d3f	-0.04992413
114	0x3df2647c	0.11835572
115	0x3c95e3a9	0.018297033
116	0xbe05ee95	-0.13079293
117	0xbd9af19a	-0.07565613
118	0xba8a6c1f	-0.0010560787
119	0xbbfefc74	-0.0077815596
120	0x3dc77866	0.09739761
121	0xbdc1c051	-0.094605096
122	0xbd4c0d9f	-0.049817678
123	0x3d730be8	0.059337527
124	0x3cd431c0	0.025902629
125	0x3b86d4e2	0.004114733
126	0x3df6894e	0.120379075
127	0x3c925c3d	0.017866248
128	0x3d099418	0.0335885
129	0xbae8c052	-0.0017757511
130	0x3dd83bf8	0.10558313
131	0x3d9bf074	0.07614222
132	0x3e0d5294	0.13801032
133	0x3d9881c0	0.07446623
134	0xbd96bfcf	-0.07360803
135	0x3d3a1067	0.0454258
136	0x3e208c5a	0.1567854
137	0x3ce1ddb3	0.027571535
138	0xbdb97809	-0.09056098
139	0xbc01c946	-0.0079215225
140	0xbde97b94	-0.11400524
141	0xbe0b7d46	-0.13622007
142	0xbdafdd56	-0.08587138
143	0xbcb94703	-0.022616869
144	0xbc9cf5ca	-0.01916017
145	0xbdf272b3	-0.118382834
146	0x3ba4737b	0.005018649
147	0xbdecee43	-0.11568882
148	0xbd833397	-0.06406324
149	0x3d775f7f	0.060393807
150	0xbcf85803	-0.030315405
151	0x3da6e5c4	0.08149293
152	0xbce4f57f	-0.027949093
153	0x3e006559	0.12538661
154	0x3dfc4a6f	0.123188846
155	0xbb3cf43e	-0.0028832103
156	0x3ad74797	0.0016424534
157	0x3cdb2833	0.026752567
158	0x3da07fbf	0.07836866
159	0xbcbb4cf0	-0.022863835
160	0x3de28031	0.11059607
161	0xbcf2e36a	-0.029649455
162	0x3d9d8da6	0.07693033
163	0xbc203c60	-0.0097800195
164	0x3e47d6c3	0.19515519
165	0x3de42129	0.11139137
166	0x3e042eaa	0.12908426
167	0x3b4f989c	0.0031676656
168	0xbc5bc70b	-0.013414155
169	0x3c894a74	0.016759135
170	0x3dbdd7b0	0.09269655
171	0xbd938bde	-0.07204412
172	0x3cf89dc9	0.030348675
173	0xbcc1e74e	-0.023669865
174	0xbdb27679	-0.08714003
175	0xbd52a371	-0.0514254
176	0x3d895548	0.06705719
177	0xbcf5de44	-0.030013211
178	0x3cd6ee60	0.026236713
179	0x3cadbef2	0.021209214
180	0xbdc75674	-0.097332865
181	0xbc210251	-0.009827212
182	0x3d4b2619	0.04959688
183	0xbd73b694	-0.059500292
184	0xbcf94d1f	-0.030432282
185	0x3d95e51f	0.07319092
186	0x3d9db406	0.07700352
187	0x3d16e5e8	0.03684035
188	0x3b1e9a19	0.0024200736
189	0xbdcd1498	-0.100136936
190	0xbcc4110b	-0.023933908
191	0x3dc0c8d0	0.09413302
192	0x39fa624d	0.00047756956
193	0xbd823bce	-0.06359063
194	0xbd679e74	-0.056547597
195	0xbd7ceb0d	-0.0617476
196	0x3aec541f	0.0018030441
197	0x3c2f1972	0.010687219
198	0x3d5643b5	0.052310664
199	0x3d6125ac	0.054967567
200	0xbd438363	-0.047732722
201	0xbb730576	-0.0037082112
202	0x3e3e0a2f	0.18558572
203	0xbc442bc3	-0.011973324
204	0xbd384268	-0.044985205
205	0xbdf03854	-0.11729494
206	0x3dcff9b3	0.10155048
207	0x3dec95fa	0.11552043
208	0x3d0ec0cf	0.034851845
209	0xbbc9db45	-0.006160172
210	0xbdd8c10b	-0.10583695
211	0xbd49822b	-0.049196403
212	0xbc4038d5	-0.0117323
213	0x3d8b262f	0.06794392
214	0xbd949610	-0.07255185
215	0x3e193e03	0.14965062
216	0x3db3808d	0.087647535
217	0xbd00c95a	-0.031442024
218	0x3a9c92c5	0.0011945596
219	0xbd5c0b4e	-0.05372172
220	0x3c8747b1	0.016513677
221	0xbcd7d487	-0.026346458
222	0x3d8ecb37	0.06972354
223	0xbd2274cd	-0.03966217
224	0x3c0efa14	0.008726615
225	0x3cf3dc23	0.029768055
226	0x3d86c2b2	0.06580104
227	0x3ddc9b1b	0.107717715
228	0xbd9cee7a	-0.07662673
229	0x3b49eb2e	0.0030810344
230	0x3bcdb2b1	0.006277405
231	0x3da99a7d	0.082814194
232	0xbd19de17	-0.037565317
233	0xbdb0d6f3	-0.08634748
234	0x3d661493	0.056171965
235	0x3d8dbb05	0.06920437
236	0x3ce2b1bf	0.027672647
237	0x3c658b59	0.014010274
238	0xbd9b39d7	-0.075793914
239	0x3cf7081a	0.03015523
240	0xbe46ffe7	-0.19433556
241	0x3c8ae68c	0.016955636
242	0xbc0b728e	-0.008511199
243	0x3d6233eb	0.055225294
244	0xbbfd5edd	-0.007732256
245	0x3d1358cb	0.03597335
246	0x3db74c32	0.0895008
247	0x3ce41557	0.027842207
248	0xbdf07c1a	-0.117424205
249	0xbd6cb838	-0.057792872
250	0xbc37fb00	-0.011229277
251	0x3be81819	0.007082951
252	0x3cf0648d	0.029344821
253	0xbd69fd39	-0.057126258
254	0x3c2cbed2	0.010543542
255	0x3ddf7416	0.109108135

net.net.0.bias f4 [128]
0	0x3babace2	0.005239115
1	0x3be488c8	0.0069743134
2	0xbb37fbad	-0.0028073594
3	0x39a1f536	0.0003089101
4	0x3909fcbc	0.00013159489
5	0x3b79c46f	0.0038111468
6	0x3b9fba36	0.004874493
7	0xbc1fbbbd	-0.00974935
8	0x3abcfe05	0.0014418965
9	0xbb970b3e	-0.0046094945
10	0x3bf629b1	0.007512294
11	0x3c4a0255	0.012329658
12	0x3b0e9a4d	0.002175945
13	0x3c426217	0.011864207
14	0x3c02fba0	0.007994562
15	0x3c0e46a3	0.008683833
16	0x3b54ac38	0.0032451283
17	0x3ad84bfb	0.0016502136
18	0x3c1ccb5e	0.009569971
19	0x3bce923d	0.006304054
20	0xbb82ecde	-0.003995522
21	0xba17edf0	-0.00057956483
22	0x3b213164	0.002459609
23	0x3b8f2f87	0.0043696794
24	0x3b82daea	0.0039933817
25	0x3a29a77f	0.0006471797
26	0x3b8d2e77	0.0043085176
27	0x3aa21edc	0.0012368816
28	0x3b0b3d3d	0.0021246218
29	0xbb1bd02b	-0.00237752
30	0xba9cae99	-0.001195389
31	0x3b5569da	0.0032564313
32	0x3b32db69	0.0027291423
33	0x3c7fe245	0.015617912
34	0xbbb153f3	-0.005411619
35	0x3adddefe	0.0016927419
36	0x3b3fe2d6	0.0029279492
37	0x3c0e3cbb	0.008681471
38	0x3ae51a54	0.001747916
39	0x3b05340f	0.0020325219
40	0xbb1bcb0b	-0.0023772146
41	0x3c105883	0.008810165
42	0xbb050411	-0.0020296613
43	0xbbd399b0	-0.00645753
44	0x3c3be06a	0.011467079
45	0x3ac61303	0.0015111867
46	0xbb070eb5	-0.0020608131
47	0x3b23df77	0.0025005022
48	0xbb0db331	-0.00216217
49	0x3c2ae64e	0.0104308855
50	0x3b947462	0.0045304755
51	0xbb646144	-0.0034848014
52	0xbbf06c21	-0.0073371087
53	0x3b0e693c	0.0021730205
54	0x3c2ebcbb	0.010665114
55	0x3b86c81a	0.0041132094
56	0x3b8f1c7a	0.0043674083
57	0x3ac683ac	0.0015145442
58	0xbb230aab	-0.0024878185
59	0x3b00c631	0.0019649381
60	0x3b4d6ca1	0.0031345265
61	0x3be9e5b4	0.0071379784
62	0xba33687c	-0.00068438775
63	0x3b8ae656	0.004238884
64	0x3c18facd	0.009337139
65	0x39674f51	0.00022059424
66	0x3c2bc1f1	0.010483251
67	0x3acfc4b1	0.0015851465
68	0x3be143c5	0.006874534
69	0x3c38f246	0.011288231
70	0x3b2d3633	0.002643001
71	0x3bb1c851	0.005425491
72	0xb9b329b0	-0.000341726
73	0xbc379df3	-0.011207092
74	0x39b17a8b	0.00033851372
75	0x3b40a4d2	0.0029395116
76	0x3b545ee0	0.0032405183
77	0x3b40cb71	0.0029418136
78	0x3c097a4f	0.008390977
79	0x3c65e8e5	0.014032577
80	0x3b2f966e	0.0026792544
81	0x3b42d488	0.002972873
82	0x3bfa83c5	0.0076451027
83	0x3bcb0215	0.0061953166
84	0x3c05115e	0.008121816
85	0x3bbe865c	0.0058143567
86	0x3bf1e228	0.0073816963
87	0xbb8cff97	-0.0043029296
88	0x3c64b78a	0.013959775
89	0x3b2d28fd	0.0026422136
90	0xba77d617	-0.0009454204
91	0x3bc53f42	0.006019504
92	0x3bc52907	0.0060168537
93	0x3bbf3b07	0.005835894
94	0x3b3471f5	0.0027533744
95	0x3b8931f2	0.004186862
96	0x3af9bc82	0.0019053372
97	0x3bb88846	0.0056314794
98	0xbc000fab	-0.007816236
99	0x3a87456c	0.0010320372
100	0xbbdb2bb1	-0.006688558
101	0x3c6aa45a	0.014321411
102	0x3ae1a5e4	0.0017215577
103	0x3b1ce722	0.0023941477
104	0x3b3bd7db	0.0028662595
105	0x3b4590d8	0.0030146148
106	0x3b850965	0.004059958
107	0x3be00ed2	0.006837704
108	0x3a0795a5	0.000517214
109	0x3b88274d	0.0041550756
110	0x3ba4e392	0.0050320113
111	0xba164d81	-0.0005733595
112	0x3b0f7095	0.0021887172
113	0x3b8b70a4	0.004255371
114	0x3b944090	0.004524298
115	0x3b06b65d	0.0020555474
116	0x3b81ad62	0.0039574364
117	0x3bd4edba	0.006498066
118	0x3b6850d6	0.0035448573
119	0x3b94b524	0.004538195
120	0x3aee71e5	0.0018191902
121	0x3b94c3cd	0.004539943
122	0x3bcc00ed	0.0062256963
123	0xbb6fdcbe	-0.0036600078
124	0x3b2f450d	0.0026744038
125	0x3bcb52aa	0.0062049227
126	0xbb596f2a	-0.0033177831
127	0x3bd5e688	0.0065277256

net.net.2.weight f4 [128, 128]
0	0x3b4fc6f0	0.003170427
1	0x3cad2f32	0.021140669
2	0xbc22c082	-0.009933593
3	0x3c830740	0.015994668
4	0x3cfdf6de	0.031001505
5	0x3cd02955	0.025410334
6	0x3c8047df	0.01565927
7	0xbcb971df	-0.022637306
8	0xbcb81e10	-0.022475272
9	0xbc11a114	-0.008888502
10	0x3da04199	0.07825012
11	0xbc8b8b1d	-0.017034108
12	0x3c2c8ffc	0.010532375
13	0xbbfd319d	-0.0077268616
14	0xbcc49113	-0.023994958
15	0xbc1c539d	-0.009541419
16	0xbc4ba50c	-0.012429487
17	0x3d6f2be3	0.058391463
18	0x3c94c0bf	0.018158315
19	0x3d63a4e0	0.05557716
20	0x3d1a9ada	0.037745334
21	0xbc203371	-0.00977789
22	0x3cb317cf	0.021861939
23	0x3d4ee414	0.05051048
24	0x3c50c19d	0.0127414735
25	0x3cfdd21a	0.030983973
26	0x3c6aadbe	0.01432365
27	0x3bebcaf4	0.0071958248
28	0xbbd0457b	-0.006355939
29	0x3d805a07	0.06267171
30	0xbd3f7b92	-0.046748705
31	0x3cfdb798	0.030971333
32	0xbcfe6eca	-0.031058688
33	0x3c452524	0.012032781
34	0x3bea51b1	0.0071508517
35	0xbdb96ec6	-0.090543315
36	0x3c80a332	0.015702818
37	0xbd8b863d	-0.06812713
38	0x3d2d644f	0.04233199
39	0x3d17c1a8	0.03704992
40	0xbd4252e2	-0.047442324
41	0x3b7dd190	0.0038729645
42	0xbda3ea58	-0.08003682
43	0xbd83e925	-0.06440953
44	0xbd89388d	-0.06700239
45	0x3c97bfe1	0.018524112
46	0xbd4cd0f2	-0.050003953
47	0x3cb48eb8	0.02204071
48	0xbd3f11c2	-0.046647795
49	0x3c2b0e6d	0.010440451
50	0xbc8992ed	-0.016793692
51	0xbcb3e327	-0.0219589
52	0x3d09849e	0.03357374
53	0xbc06554f	-0.00819905
54	0xba5f79de	-0.00085249345
55	0x3d8bf20e	0.06833278
56	0x3cb37a92	0.021909032
57	0xbbfe2959	-0.007756394
58	0x3d794b92	0.060863085
59	0xbce7b635	-0.028285125
60	0xbc964ece	-0.018348124
61	0xbd865fdf	-0.06561255
62	0x3d883058	0.06649846
63	0x3c8b1a0a	0.01698019
64	0x3b94e94e	0.0045444136
65	0x3c157b59	0.009123647
66	0x3d53eb65	0.05173816
67	0xbb23441f	-0.002491243
68	0x3b977654	0.00462226
69	0xbd24ece5	-0.040264983
70	0xbc9038f6	-0.017605286
71	0x3ce26234	0.027634718
72	0x3c07295a	0.008249605
73	0xbcb77d3b	-0.022398582
74	0x3da95fc0	0.08270216
75	0x3d2ae00a	0.041717567
76	0x3da1134d	0.078650095
77	0xbccc40a3	-0.024933165
78	0x3d7ccc9d	0.061718572
79	0x3ba89b56	0.0051454706
80	0x3d2a3ca7	0.04156175
81	0x3bc46b1f	0.005994215
82	0x3c572bbc	0.013132986
83	0x3d6e9efe	0.058257096
84	0xbd751a05	-0.059839267
85	0xbd12523b	-0.035722952
86	0x3d6b4258	0.057436317
87	0x3d3046dc	0.043036327
88	0x3d9e9df6	0.077449724
89	0xbb319189	-0.0027094802
90	0xbc4f8591	-0.012666122
91	0xbbc85e05	-0.0061147236
92	0x3bb0f52f	0.005400322
93	0x3cb82a61	0.022481145
94	0xbd400905	-0.0468836
95	0xbd3ee9e7	-0.046609785
96	0xbc2bbdcd	-0.010482264
97	0x3d39a2f6	0.045321427
98	0xbbedc335	-0.0072559365
99	0x3d1e3982	0.038629062
100	0xbd4329b0	-0.04764718
101	0x3c538293	0.012909549
102	0xbd22c12d	-0.039735008
103	0x3d06313e	0.032761805
104	0x3d839dc3	0.06426575
105	0x3ca3d865	0.020000646
106	0x3ab3d477	0.0013719936
107	0x3ce86918	0.028370425
108	0x3d8d9f40	0.0691514
109	0x3d10fd71	0.03539795
110	0x3cd53dd9	0.026030468
111	0x3dbad86e	0.09123312
112	0xbc2ba1d1	-0.010475592
113	0xbbe484e5	-0.00697385
114	0xbd2c2601	-0.04202843
115	0xbc979bf2	-0.018506978
116	0xbc052a59	-0.008127772
117	0x3d6823b5	0.056674678
118	0xbaeb5145	-0.0017953297
119	0x3da95f7c	0.08270165
120	0x3bf5659f	0.007488921
121	0xbc17b9e1	-0.009260626
122	0x3c41442b	0.011796038
123	0xbc7e0603	-0.015504363
124	0xbc8b1a0f	-0.0169802
125	0x3cf2ac27	0.029623104
126	0xbaa82204	-0.001282752
127	0x3d7e2b46	0.062052988
128	0x3d43f09c	0.047836885
129	0x3ccd1ba7	0.0250376
130	0xbd8dcfb1	-0.069243796
131	0x3d35ff0a	0.044432677
132	0xbd07cc8e	-0.033154063
133	0xbaed23a6	-0.0018092289
134	0xbaac53ff	-0.0013147591
135	0xba19d4d5	-0.0005868201
136	0x3be46f21	0.0069712554
137	0xbd3af245	-0.045641202
138	0xbbef888f	-0.00730998
139	0x3d53cfa4	0.051711693
140	0xbcc4f5e4	-0.024043031
141	0x3c0b88a7	0.008516467
142	0x3c71c6e3	0.014756891
143	0x3cd44430	0.02591142
144	0x3d046eb6	0.032332145
145	0x3d8d7953	0.069079064
146	0x3ceee384	0.029161222
147	0x3c123b05	0.008925204
148	0xbcc91fbf	-0.02455127
149	0x3d0fcc68	0.035107046
150	0x3d2de22f	0.042452034
151	0x3cc023d2	0.02345458
152	0x3cee554e	0.02909341
153	0xbca0dff6	-0.019638043
154	0xbd3de7bc	-0.046363577
155	0x3c94ead7	0.018178387
156	0x3d71e57d	0.059056748
157	0x3cc51e0f	0.024062185
158	0x3b1f6ad9	0.002432516
159	0x3c32675f	0.010888903
160	0x3ce29c1f	0.027662335
161	0x3d079154	0.03309758
162	0x3d3a5806	0.045494102
163	0x3d88113e	0.06643914
164	0xbb7294de	-0.0037015001
165	0xbd320968	-0.043466
166	0x3be4243e	0.006962328
167	0x3b67859f	0.0035327447
168	0x3c3271df	0.010891407
169	0x3be7b0b6	0.007070626
170	0xbc0b0195	-0.008484264
171	0xbd23faf1	-0.04003424
172	0x3d0c6449	0.034275327
173	0xbccb3781	-0.02480674
174	0x3da412e9	0.08011419
175	0xbbab2c3f	-0.0052237804
176	0xbced1613	-0.02894119
177	0x3c90a795	0.017658034
178	0x3d2cdf35	0.042205054
179	0xbc31ca57	-0.010851464
180	0x3d09a2e4	0.03360261
181	0x3d706e7c	0.058699116
182	0x3c8fdb54	0.017560638
183	0x3d1e9af7	0.038722005
184	0x3d6c8668	0.057745367
185	0x3cf4e8ce	0.029896166
186	0x3c7f2565	0.01557288
187	0x3c50bb9f	0.012740045
188	0xbcca08c7	-0.024662388
189	0x3d634e15	0.055494387
190	0x3b8fc571	0.0043875505
191	0x3d9b9a76	0.075978205
192	0x3a9f9be6	0.0012177199
193	0xbc1a181b	-0.009405161
194	0xbc418c36	-0.011813214
195	0xbcacfa6b	-0.021115502
196	0x3c15a36e	0.009133203
197	0xbce3be05	-0.02780057
198	0x3cff99a3	0.03120119
199	0xbd423268	-0.047411352
200	0xbd6f26db	-0.058386665
201	0xbc9fd989	-0.019512909
202	0x3cec688d	0.028858447
203	0x3cb31b81	0.0218637
204	0xbb808a19	-0.0039227125
205	0x3cc63d1e	0.024199065
206	0xbc8d5da1	-0.01725656
207	0x3c7d83d7	0.015473328
208	0xbc64e90d	-0.013971579
209	0x3b38b959	0.0028186648
210	0x3d7c41fc	0.061586365
211	0xbd6bed84	-0.05759956
212	0xbd88a0c6	-0.0667129
213	0xbd02634e	-0.031832986
214	0xbd2cb830	-0.042167842
215	0x3b91b7dc	0.0044469666
216	0x3cfe2612	0.031024013
217	0x3d137c97	0.03600749
218	0x3b4ae743	0.0030960597
219	0x3da46e4e	0.080288514
220	0xbc396f5d	-0.011318055
221	0x3d5357b7	0.051597323
222	0xbd4c6a70	-0.049906194
223	0x3d61d2c9	0.05513266
224	0x3d447c4a	0.047970094
225	0xbd2b868a	-0.041876353
226	0x3cb1cd50	0.021704346
227	0x3d388f5e	0.0450586
228	0xbbcc951d	-0.0062433616
229	0xbc24d58b	-0.010060678
230	0x3cdf4056	0.027252357
231	0xbd2ffb48	-0.04296425
232	0xbc2ac9d2	-0.010424094
233	0xbcd3fa3e	-0.02587616
234	0x3be995b1	0.0071284403
235	0x3d239988	0.03994134
236	0x3d353117	0.04423627
237	0x3cb314a7	0.021860434
238	0x3c0e017d	0.008667347
239	0x3d585113	0.052811693
240	0xbd35f584	-0.044423595
241	0x3d029e99	0.03188953
242	0x3c0f6a6d	0.008753401
243	0xbbdcc89a	-0.0067377808
244	0xbd3fe824	-0.046852246
245	0xbcc07ad4	-0.023496069
246	0xbc4d8014	-0.012542743
247	0xbd35c993	-0.04438169
248	0x3ce70bbc	0.028203838
249	0xbc99a099	-0.018753337
250	0xbcff921d	-0.031197602
251	0x3c3cc05e	0.011520473
252	0x3ca641e0	0.020295084
253	0x3db24ec1	0.08706427
254	0xbd28f88d	-0.04125266
255	0x3b86ba1f	0.004111543

net.net.2.bias f4 [128]
0	0x3cf059d9	0.029339718
1	0x3b0fc848	0.0021939445
2	0xbc0a6113	-0.008445996
3	0xbbdc7ef5	-0.0067290016
4	0x3c9621d0	0.01832667
5	0xbb0cb03f	-0.0021467356
6	0xbc2243c5	-0.009903853
7	0xb9c6b805	-0.00037902608
8	0x3a00bab4	0.00049106334
9	0xbc4b2450	-0.012398794
10	0x3bbd679e	0.0057801744
11	0x3a14ebfc	0.00056809164
12	0x3c420fd1	0.011844591
13	0x3c064153	0.008194285
14	0xbbce8b8a	-0.0063032554
15	0x3bede243	0.0072596385
16	0x3be9dbb1	0.007136785
17	0x3cbd2949	0.023090975
18	0x3ad1dd7f	0.0016011446
19	0x3cf78413	0.030214345
20	0x3c7cf39e	0.015438942
21	0xba10ca92	-0.00055233494
22	0xbac761ee	-0.001521168
23	0x3b05f368	0.002043927
24	0x3c764e65	0.015033339
25	0xbbf2f194	-0.0074140523
26	0xbb55defe	-0.0032634134
27	0x3c20defa	0.009818787
28	0x3d00f030	0.03147906
29	0x3b6f3e19	0.003650552
30	0x3be6b656	0.007040779
31	0xb91b3ce9	-0.00014804643
32	0x3bc61413	0.0060448735
33	0x3be85711	0.0070904572
34	0xbc7ed840	-0.015554488
35	0x3c0d1670	0.008611307
36	0x3ca9d94b	0.020733496
37	0xbb69c80a	-0.003567221
38	0xbbd8d3c9	-0.0066170436
39	0x3bef4f74	0.0073031727
40	0xbabf6172	-0.0014601185
41	0xb904f1ef	-0.00012678628
42	0xb9ea7dc7	-0.0004472567
43	0x3b3fecf2	0.0029285518
44	0x3bdac30e	0.0066760844
45	0x3beeb601	0.00728488
46	0x3ce7ba61	0.028287115
47	0x3cbad25a	0.022805382
48	0xbb65db3a	-0.0035073296
49	0xbc34dfa0	-0.0110396445
50	0x3c2bd23b	0.010487135
51	0x3cde0794	0.027103223
52	0xbc22ee2e	-0.009944482
53	0xbb006ad6	-0.001959493
54	0xbbbe22f7	-0.005802508
55	0x3bd9676f	0.0066346447
56	0xbbc1399e	-0.005896761
57	0x3cb75e46	0.02238382
58	0x3c443a67	0.011976815
59	0x3cc39842	0.023876313
60	0x3b0f050c	0.0021823077
61	0x3bf82f2f	0.007573984
62	0xbb9484a4	-0.0045324136
63	0x3ba09c8e	0.0049014753
64	0x3b01402e	0.0019722092
65	0xbb231e91	-0.0024890045
66	0x3b852cc8	0.004064176
67	0xbbc96f44	-0.006147297
68	0xbbfb6a52	-0.0076725865
69	0xbb713021	-0.0036802369
70	0x39851d80	0.00025389716
71	0x3bf58264	0.0074923504
72	0x3be9df65	0.0071372264
73	0x3b833790	0.0040044263
74	0xb7b6996e	-2.1767537e-05
75	0x3b2fa558	0.0026801433
76	0xbc2ef8d7	-0.010679445
77	0x3c4208a7	0.011842883
78	0x3bbd7e87	0.0057829055
79	0xba32c3a0	-0.00068193115
80	0xbc867bd7	-0.016416473
81	0xbb7805c3	-0.003784523
82	0x3bd32435	0.006443525
83	0x3be4eb6d	0.0069860728
84	0x3cdfb201	0.027306559
85	0xbb42da2f	-0.0029732098
86	0xbb70e0f0	-0.0036755167
87	0x3b40fae3	0.0029446415
88	0x3c8ce150	0.017197281
89	0x3ce1096d	0.027470315
90	0x3beec77f	0.0072869654
91	0xbc1c9978	-0.009558074
92	0xbb547edb	-0.0032424245
93	0xbac17862	-0.0014760608
94	0xbc26d378	-0.010182254
95	0xba1112e0	-0.00055341236
96	0x3c906808	0.017627731
97	0xbb4e8ce1	-0.0031517076
98	0x3d1679d9	0.036737297
99	0x3c3da6c0	0.011575401
100	0x3c1b5f29	0.009483137
101	0x3a6f7d5d	0.0009135807
102	0x3c1a39b1	0.009413169
103	0xbb34a2a7	-0.0027562769
104	0x3bd1b169	0.0063993228
105	0x3c3a5a37	0.011374048
106	0x3c993073	0.01869986
107	0xbabbb203	-0.0014320019
108	0x3b0dfa06	0.0021663918
109	0x3c61ab99	0.013773822
110	0x3c862b68	0.01637812
111	0xbc06ae79	-0.008220308
112	0xbbaa61c2	-0.005199642
113	0x3a5321cf	0.0008054049
114	0x3c1b17fd	0.0094661685
115	0x3ba10dec	0.0049149897
116	0xbc331f1c	-0.01093271
117	0xbb6e1dda	-0.003633371
118	0xbc378374	-0.011200774
119	0x3b95e37c	0.0045742374
120	0xbae15347	-0.0017190956
121	0x3c76fda3	0.01507512
122	0x3b3c0705	0.0028690707
123	0x39bb2e46	0.00035701896
124	0xbab7f622	-0.0014035145
125	0xbac043a6	-0.0014668598
126	0x3aac9ef8	0.0013169935
127	0x3b22b185	0.0024825048

net.net.4.weight f4 [20, 128]
0	0x3d198373	0.037478875
1	0x3c758a13	0.014986533
2	0xbd86ae96	-0.065762684
3	0x3d236aad	0.039896656
4	0x3c82b9e7	0.015957786
5	0x3c65acad	0.01401822
6	0xbc8f5253	-0.01749531
7	0x3ce3811b	0.027771523
8	0x3c8986d3	0.016787922
9	0x3c09b670	0.008405313
10	0x3b988f4d	0.0046557547
11	0xbb61c35a	-0.0034448714
12	0x3d522547	0.05130508
13	0xbcf718cb	-0.03016319
14	0xbd1a7d86	-0.037717365
15	0xbc45349b	-0.012036468
16	0x3d06d777	0.032920327
17	0xbd1b7a61	-0.037958506
18	0xbc4394bf	-0.011937319
19	0x3d64cdcd	0.05586033
20	0x3d720cc5	0.05909421
21	0x3d58aada	0.05289731
22	0xbc06f2b8	-0.00823658
23	0x3d183c1a	0.037166692
24	0xbcf4b62e	-0.029872026
25	0xbd4a5fea	-0.049407877
26	0xbd13156d	-0.035909105
27	0x3d710265	0.058840174
28	0xbcf9ad8e	-0.030478265
29	0x3cc730b0	0.024315208
30	0x3c2341a5	0.009964381
31	0x3bfff301	0.0078109507
32	0x3c3b492b	0.011431019
33	0x3b90dcc2	0.0044208476
34	0xbd33dcf3	-0.043911885
35	0xbcd75630	-0.026286215
36	0xbd1996fd	-0.03749751
37	0x3ba4215f	0.005008861
38	0xbd799feb	-0.060943525
39	0xbbf54779	-0.007485327
40	0x396c3924	0.00022528
41	0xbd9190a1	-0.07107664
42	0xbc6739e7	-0.014112926
43	0xbbffd5ad	-0.0078074546
44	0xbcb4e694	-0.022082604
45	0x3b909e37	0.004413392
46	0x3cfe97b6	0.0310782
47	0xbc9e704b	-0.019340655
48	0xbd1f445b	-0.03888355
49	0x3d101780	0.03517866
50	0x3c079a08	0.00827647
51	0x3d4e83d2	0.050418682
52	0x3c27cd54	0.010241825
53	0xbce285a8	-0.027651623
54	0x3c92414c	0.017853402
55	0x3c2a8b1e	0.010409145
56	0xbb0aca6d	-0.0021177784
57	0x3cbda419	0.023149537
58	0x3d455581	0.048177246
59	0x3c0b219c	0.0084919
60	0xbc4ae422	-0.012383493
61	0xbc408663	-0.01175079
62	0xbcd7ad83	-0.026327854
63	0xbb39feac	-0.0028380556
64	0x3be1284b	0.0068712584
65	0xbd1ee7bc	-0.038795218
66	0x3c5b8ca0	0.013400227
67	0xbc7e673f	-0.0155275455
68	0xbcd6c9c5	-0.026219258
69	0x3ca397c9	0.019969838
70	0x3c2a692a	0.01040105
71	0xbcf1c75b	-0.029514005
72	0xbcef4468	-0.029207423
73	0x3c3a0155	0.011352857
74	0x3cbf7e91	0.023375781
75	0xbbe05fc5	-0.006847354
76	0xbcf8e3bf	-0.030382035
77	0xbbf14217	-0.007362615
78	0xbcf46954	-0.02983538
79	0xbc8ced5d	-0.017203027
80	0xbd60a565	-0.054845233
81	0x3c727c70	0.014800176
82	0xbd5f579b	-0.054526906
83	0x3d0f67bf	0.03501105
84	0x3d3c4ede	0.04597365
85	0xbd43e126	-0.04782214
86	0x39db416a	0.00041819672
87	0x3cd31551	0.025767
88	0x3bd60963	0.0065318807
89	0x3c8cade3	0.01717276
90	0xbccd7c1d	-0.025083596
91	0xbce86bec	-0.028371774
92	0x3d29875d	0.041388858
93	0x3d1d64b1	0.038426105
94	0xbb5aa9ac	-0.0033365292
95	0x3c812334	0.015763856
96	0x3da334cf	0.07969057
97	0x3ca14dd9	0.019690441
98	0x3d8f7db6	0.07006399
99	0x3c080fc6	0.008304542
100	0x3d4d4fd7	0.05012497
101	0x3c1346ec	0.008989077
102	0xbd379581	-0.044820312
103	0x3cde84c6	0.02716292
104	0xbce8e089	-0.02842738
105	0x3d31a4fe	0.04337024
106	0x3c4c5a40	0.012472689
107	0x3bfffa1c	0.007811798
108	0x3ca8d580	0.020609617
109	0x3c91397a	0.017727602
110	0x3d7876f8	0.060660332
111	0xbcc35d90	-0.023848325
112	0x3d69a981	0.057046417
113	0x3b84059c	0.004028989
114	0xbc5c8a04	-0.01346064
115	0xbd54e80b	-0.051979106
116	0x3beea910	0.0072833374
117	0x3b9b7c0c	0.004745012
118	0xbd4ce886	-0.05002644
119	0x3cb7d7a4	0.022441693
120	0xbbf47738	-0.007460501
121	0x3d42442d	0.0474283
122	0xbb0655ed	-0.0020497993
123	0xba5d7d2d	-0.00084491336
124	0x3d117bdc	0.035518512
125	0x3d11bf99	0.035583112
126	0xbd017f4b	-0.031615537
127	0x3cee305e	0.029075798
128	0x3db3537b	0.08756157
129	0x3c224c0f	0.009905829
130	0x3c0e8a07	0.0086999005
131	0xbd538b32	-0.05164642
132	0x3b66bda9	0.003520826
133	0x3dc51bf9	0.09624476
134	0xbc9b2e84	-0.018943079
135	0xbd7c4993	-0.061593603
136	0x3caa5c63	0.020796007
137	0x3d2d2716	0.042273603
138	0xbc7a21b3	-0.015266824
139	0xbd0a52f4	-0.033770517
140	0x3d97ecda	0.07418223
141	0xb99536e8	-0.00028460403
142	0x3caefa45	0.021359572
143	0xbd0c7c33	-0.034298133
144	0xbca8cabc	-0.020604484
145	0x3d256924	0.040383473
146	0xbcc67836	-0.024227243
147	0xbd79325b	-0.06083904
148	0xbd5b8df6	-0.05360218
149	0x3cd9695d	0.026539499
150	0xbc7a96bd	-0.015294728
151	0xbcdea092	-0.027176175
152	0xbc03939e	-0.0080308
153	0x3dc96322	0.09833361
154	0x3d195dee	0.037443094
155	0xbdbbb77a	-0.09165855
156	0xbd403011	-0.04692084
157	0x3c7fdd6d	0.015616757
158	0x3b20a4a5	0.0024512198
159	0xbd80548e	-0.062661275
160	0x3d44b68a	0.048025645
161	0x3c0370e1	0.008022518
162	0xbd3cf592	-0.04613263
163	0x3d775493	0.06038339
164	0x3d7e8af1	0.062144224
165	0xbd98aad1	-0.07454456
166	0x3d4ef7d2	0.05052931
167	0xbd2feba5	-0.042949338
168	0x3d5d3826	0.054008625
169	0x3c8455fd	0.016154284
170	0xbca73639	-0.020411598
171	0xbbf683ab	-0.0075230203
172	0xbba4c641	-0.0050285165
173	0xbb22a20b	-0.0024815823
174	0xbd425570	-0.04744476
175	0x3d67e0c9	0.056610856
176	0xbd19a21f	-0.037508126
177	0xbca50df1	-0.02014825
178	0x3c92a3bd	0.017900342
179	0x3d649cfd	0.05581378
180	0xbce57080	-0.028007746
181	0xbd7fb49b	-0.0624281
182	0xbc01bc43	-0.00791842
183	0x3ca749ca	0.020420928
184	0xbd58936f	-0.05287498
185	0x3d3ffb61	0.046870593
186	0x3c873814	0.016506232
187	0xbd9a1f8e	-0.0752555
188	0xbc90d96a	-0.017681796
189	0xbdb00e4d	-0.08596478
190	0x3bdab4c6	0.006674382
191	0x3cdab207	0.026696218
192	0x3d0e8846	0.03479793
193	0x3cdb3547	0.026758803
194	0xbd192c98	-0.037396044
195	0x3ae4c038	0.0017452305
196	0x3cbf5189	0.023354309
197	0xbc2b85ed	-0.010468942
198	0x3cfc9615	0.030833283
199	0x3d49d8d1	0.049279038
200	0x3ce2106b	0.02759572
201	0x3d21f33d	0.03953861
202	0xbd2cd399	-0.042193983
203	0x3caaf8f8	0.02087067
204	0xbce3baad	-0.027798975
205	0xbd26a2df	-0.04068267
206	0xbc6d6692	-0.014489787
207	0xbd22bc2f	-0.039730247
208	0x3c07b842	0.008283677
209	0xbd31c86e	-0.043404035
210	0x3d1cf911	0.038323466
211	0x3c8d5c1f	0.01725584
212	0x3cb5aa8f	0.022176055
213	0xbd8c7fa9	-0.06860287
214	0x39d01f0f	0.00039695992
215	0x3d862b13	0.065511845
216	0x3b2fb16c	0.0026808633
217	0x3d017473	0.031605195
218	0x3cb0fc74	0.021604754
219	0xbb8a4f5a	-0.004220885
220	0xbd5b3c77	-0.05352446
221	0xbcc92b3e	-0.024556752
222	0xbcf7b99f	-0.030239878
223	0x3c045fcc	0.00807948
224	0xbcfdb52e	-0.030970182
225	0xbd19eee2	-0.037581332
226	0xbcbe98d0	-0.023266226
227	0x3c9c2655	0.019061247
228	0xbc869683	-0.016429191
229	0xbbe1757f	-0.0068804617
230	0xbcb646a4	-0.022250481
231	0xbcb7d10d	-0.02243855
232	0x3c316bd4	0.010828931
233	0x3d6cb561	0.057790164
234	0x3d57f9c6	0.052728437
235	0x3bc7d3c1	0.006098241
236	0xbae0d91e	-0.001715455
237	0x3b14e94a	0.002272206
238	0x3bf1f30c	0.00738371
239	0x3bfffaac	0.007811865
240	0xbd2bdcab	-0.041958492
241	0xbcb99508	-0.022654071
242	0xbcdfa086	-0.027298223
243	0xbd4c7231	-0.04991359
244	0xbcbcffc2	-0.023071174
245	0x3cada3ad	0.02119621
246	0xbcbaa398	-0.022783086
247	0xbd2c20d7	-0.042023506
248	0xbd04a933	-0.032387923
249	0x3d27865c	0.04089962
250	0xbc8b5316	-0.017007392
251	0xbbf4ad75	-0.0074669668
252	0x3d38fc7a	0.045162655
253	0xbd2447fc	-0.040107712
254	0xbd52eae5	-0.051493544
255	0xbc893ff4	-0.016754128

net.net.4.bias f4 [20]
0	0x3dd3d436	0.103432104
1	0xbd32ddda	-0.043668605
2	0xbd1720fd	-0.036896694
3	0x3d706802	0.05869294
4	0x3d000d34	0.03126259
5	0x3ceb4bd6	0.028722685
6	0x3c67d8ff	0.014150857
7	0xbdab606b	-0.08368
8	0x3cc0c78a	0.023532648
9	0xbda39f97	-0.07989424
10	0xbd3d7c35	-0.04626103
11	0xbc85344b	-0.016260287
12	0xbd5b0931	-0.053475562
13	0x3d7f882c	0.062385723
14	0x3caefcff	0.021360872
15	0x3cff094a	0.031132359
16	0x3d437a4f	0.047724064
17	0x3d887f22	0.06664874
18	0xbd6db89f	-0.058037397
19	0xbd0a7228	-0.033800274
