ablation/z_f_ablation.pth (torch, 90897 bytes, 6 tensors)

net.net.0.weight f4 [128, 21]
000000 f5 d1 74 bd 30 ce d8 bc 73 66 6c bd 3d 8e d6 bc
       -0.059770543 -0.026465505 -0.05771489 -0.026190871
000010 fa ce 17 3e 72 20 be bd 0f ad bb 3d f8 e7 2f be
       0.14825049 -0.09283532 0.09163868 -0.17178333
000020 41 f8 10 3e 28 b9 58 3d 73 4f 97 bd f4 cf 84 bd
       0.14157201 0.052910954 -0.073882006 -0.064849764
000030 5f 48 88 3d a7 25 33 3e f4 8e e0 3d 19 ea c4 bd
       0.06654429 0.17494832 0.10964766 -0.09614963
000040 67 0d e0 bd c4 cb 13 be 12 f9 2d 3e 77 92 68 bd
       -0.10940056 -0.14433199 0.16989544 -0.056780305
000050 e2 8c 20 3b 4f f7 c0 3d 73 d8 6a bd 79 b5 bc bd
       0.0024498035 0.0942217 -0.05733533 -0.09214301
000060 f1 b1 13 3d 18 8a b2 bd 43 a5 f7 3c f8 2d ad bd
       0.03605837 -0.087177455 0.03023017 -0.084560335
000070 0e 11 b8 bc 42 62 53 3c 02 fb 75 3b 42 83 08 3e
       -0.02246907 0.012901844 0.0037533646 0.13331321
000080 19 ae b4 bd 14 f2 08 bd 09 1b 02 bd b5 3f 1e bc
       -0.08822269 -0.03343399 -0.031764064 -0.009658744
000090 4e 03 9a bd 12 d1 ca 3a 37 f4 93 3d 8b 07 91 3d
       -0.075201616 0.0015473685 0.07224315 0.07081517
0000a0 19 b5 47 bd bd 43 98 3b 70 6f 0a be ef 82 d2 3b
       -0.048756693 0.004646747 -0.13519073 0.0064243
0000b0 34 76 b1 3d 2b 38 4c 3d e8 1d b3 bd 00 0a e5 3d
       0.086651236 0.049858253 -0.087459385 0.11183548
0000c0 64 d7 e4 bd ef 26 bf bd 66 ba b1 3d e5 66 0a 3d
       -0.11173895 -0.09333598 0.08678131 0.033789534
0000d0 d5 42 97 3d 09 af 00 3c c3 ba 9e bd 47 d1 3c be
       0.07385794 0.007854232 -0.07750466 -0.18439208
0000e0 89 21 de bd 87 5e b5 bc 51 bf 8b bd cf 2e a7 3d
       -0.1084624 -0.0221398 -0.068236 0.08163225
0000f0 1f 64 74 3d 1b 03 ee bd 3b a6 44 3a 86 9f d4 3c
       0.059665795 -0.11621686 0.0007501577 0.025954973
000100 d8 b0 f1 3c ab c8 b9 bd e8 98 db bd 8a 76 0f bd
       0.029503271 -0.090714775 -0.10722524 -0.035025157
000110 41 f8 09 be 3a 93 14 3e 89 2c 84 bd 01 f0 c9 3b
       -0.13473608 0.14509287 -0.06453807 0.006162644
000120 0d 73 b9 bd 01 13 1b 3d ab 33 9c bd 11 25 e4 3d
       -0.09055147 0.03785992 -0.076270424 0.11139882
000130 d4 f1 02 be 35 72 d7 3d 23 25 0e be dd 14 20 bc
       -0.12787563 0.1051983 -0.13881354 -0.009770599
000140 f6 9d d1 3d 52 3c ec bc 3e 5e 9a bd dc 4d 0a 3c
       0.10235207 -0.028837357 -0.075375065 0.008441415
000150 9e b6 7e bc cb a7 54 3d 35 66 5b bd 72 c8 0c 3e
       -0.015546469 0.051917832 -0.05356427 0.13748339
000160 a4 2e e1 3d e2 a2 71 ba 78 c9 99 3d d2 37 13 3e
       0.10995224 -0.0009217692 0.0750913 0.14376763
000170 8c 00 b6 bd 87 a4 a1 3d 7e c9 d2 bd 10 ba 51 3d
       -0.08886823 0.07892709 -0.10292338 0.051202834
000180 ca 2e ee 3c 20 34 37 3e 50 05 1a bd f9 fa 8c 3d
       0.029075045 0.17890978 -0.037602723 0.06883807
000190 55 57 5b 3d 5c 8e 7c bd ed 85 9f 3c 90 bb 1d 3d
       0.053550083 -0.061659202 0.01947304 0.03850895
0001a0 c9 66 d5 bb 72 69 23 3d 9f fc 4c bc 34 8f 2f 3d
       -0.006512497 0.039895482 -0.012511401 0.04286118
0001b0 47 e9 30 be b5 bf 6a 3d 49 c1 be 3d ac b3 27 3d
       -0.17276488 0.057311732 0.0931421 0.040942833
0001c0 56 d3 c0 3d 3d 27 ad 3d 7c 24 9a 3d a0 1c c7 3c
       0.09415309 0.0845475 0.0752649 0.024305642
0001d0 47 0d c2 bd ba 70 a6 3d fb d0 63 bd cd 0f 43 3d
       -0.09475189 0.0812697 -0.05561922 0.04762249
0001e0 fb 28 69 bd 38 66 0d 3c 19 60 e9 bd 6b f9 86 bd
       -0.056923848 0.008630328 -0.11395282 -0.065905415
0001f0 e7 4b f7 3d 3d 30 a8 3a 32 c4 84 bd c1 b6 35 3e
       0.12075024 0.0012831759 -0.06482734 0.17745496
000200 21 1e e5 3c 8c 83 e5 3d cf 14 12 be e3 3b af 3d
       0.027968468 0.11206731 -0.1426575 0.08556344
000210 b1 c2 1e 3d e1 08 4a 3e 39 7d a2 3d fb 4a 0b 3e
       0.03875989 0.1972995 0.079340406 0.13602822
000220 23 be 2d 3c 31 aa b6 bd aa 9c 00 be 22 49 c7 3d
       0.010604414 -0.0891918 -0.12559763 0.09730746
000230 ee 56 5c 3c cc 12 97 3d d7 d6 3d 3d 73 64 74 3b
       0.01344846 0.07376632 0.046347465 0.0037291318
000240 93 db 07 bd 2f 65 d1 3b ab ac b1 3a b0 8f 96 3d
       -0.033168387 0.006390236 0.0013555487 0.07351625
000250 33 6b 17 3e de de eb bb 7e 89 10 bd 4c 0f d5 bd
       0.14786987 -0.0071981987 -0.035287373 -0.10403308
000260 0d 41 18 3d 56 43 b3 bd 5b 33 89 bb 36 de 07 be
       0.037171412 -0.08753078 -0.0041870303 -0.1326836
000270 9a 68 c5 3d d8 8c 4f bd e2 98 97 bd 9f a6 8b bd
       0.09639092 -0.05067143 -0.07402207 -0.0681889
000280 5d 5b 22 3d 63 47 23 3d 53 d7 1a 3d 58 01 2c 3e
       0.039637912 0.039863 0.037803005 0.16797388
000290 68 0e 08 3d 75 11 14 3c 71 f1 94 bd 56 01 28 3c
       0.033216864 0.009037365 -0.07272614 0.010254225
0002a0 72 58 c2 bc 42 51 3f bc dc dd 79 3d 68 ad 02 3e
       -0.023723815 -0.011677088 0.061002597 0.12761462
0002b0 be fb 13 3e 66 a1 e9 bc b2 18 6f 3d 23 69 5f bc
       0.14451501 -0.028519344 0.05837316 -0.013635906
0002c0 52 27 8e 3d b7 66 c3 3b 3c 8d 27 3d ba 8e e6 bc
       0.069410935 0.0059631723 0.040906176 -0.02814423
0002d0 e8 2e 68 bd fb ba d9 3d 2e 33 21 be 3d 5e 96 3d
       -0.05668536 0.10631367 -0.1574218 0.07342193
0002e0 c8 c6 6f 3d fd 4e 65 3e aa 6d c1 3b 9b 40 f1 3c
       0.058539182 0.22393413 0.0059029656 0.029449752
0002f0 6d 30 8d 39 bc 0a 84 bd 33 09 c9 bd 0e 21 92 3d
       0.00026929696 -0.0644736 -0.09816208 0.07135211
000300 e1 49 32 bc 5e 30 d9 3d 55 93 f6 3d c3 1f f3 3d
       -0.010881872 0.106049284 0.1203982 0.118712924
000310 70 e2 ab bc 08 73 dd bd 6c 09 c9 bc cd 3b 86 3d
       -0.020981997 -0.10812956 -0.024540626 0.06554375
000320 2b f5 08 3d d1 9b 65 3d 81 7b 3e be 92 82 5c bd
       0.033436935 0.0560568 -0.186018 -0.05383546
000330 d7 cd 95 bc 79 7b 22 3e 81 c7 03 3c 67 96 95 bd
       -0.018286629 0.15867414 0.008043171 -0.073040776
000340 26 fa 16 3e b3 23 91 3b 2b 25 d4 3c 38 72 c7 3b
       0.14743862 0.0044293045 0.02589663 0.006086614
000350 8f fc 16 3d ea 72 a6 3d d7 18 ca bc 28 b7 b6 3c
       0.036861952 0.08127387 -0.024670048 0.022304133
000360 45 47 e7 3c 34 ae c1 bc 58 a7 07 be f8 c0 19 3d
       0.028232226 -0.023642637 -0.1324743 0.037537545
000370 c3 f3 e3 3d a8 07 52 3d a8 87 98 3b e0 b3 8e 3d
       0.11130478 0.051276833 0.0046548434 0.06967902
000380 19 c9 8a bc 03 c2 12 bc 56 48 e6 bd eb f9 1f 3d
       -0.016941594 -0.008957389 -0.11244266 0.0390567
000390 9c 4e 34 bd b4 09 e7 bd eb 31 b0 ba d7 5e 93 3c
       -0.04402028 -0.112811476 -0.0013442611 0.01798956
0003a0 94 2d 29 be 85 0c 00 bd 07 eb 93 3c 02 9e de 3d
       -0.16521293 -0.03126194 0.018056406 0.10869981
0003b0 e8 a4 05 bd 9e 58 27 3d 32 a3 da bc 85 2a 78 bd
       -0.03262797 0.040855996 -0.026689146 -0.060587425
0003c0 51 26 f2 bd 77 e5 fc 3d 92 fa 44 bd e6 df 32 3d
       -0.118237145 0.123484544 -0.048090525 0.043670557
0003d0 02 dd 46 bd a0 e4 c2 3b ca 78 ee 3c cb f9 00 bd
       -0.048550613 0.0059476644 0.029110331 -0.03148822
0003e0 88 98 16 3d d0 3d 0f 3d 96 89 e2 bc 0b 5a 1f bb
       0.03676656 0.03497106 -0.027653497 -0.0024315144
0003f0 64 a3 2c 3e 82 8d 2d bd a9 21 24 3d 73 1b e4 3a
       0.16859204 -0.04237128 0.040071163 0.00174032

net.net.0.bias f4 [128]
000000 bb 0e c6 3b 68 1d 8c 3b be 71 de 3b e6 0c 31 3c
       0.0060442365 0.0042759664 0.0067884615 0.010806298
000010 44 8d d8 bb 09 fa bb 39 ba b7 89 b9 2b f8 0c 3c
       -0.006608637 0.0003585371 -0.00026267563 0.00860409
000020 5c ba 4d 3b d4 8a e2 3b 4c 79 c4 ba f7 d5 ac ba
       0.0031391596 0.0069135223 -0.0014989763 -0.0013186325
000030 57 77 31 bb 27 8c 73 bc 56 04 02 3c 65 71 5f 3c
       -0.0027079189 -0.014864958 0.007935604 0.013637875
000040 79 b3 7f 3b a9 bc 02 3c 8e 66 15 3c 14 4c 0c bc
       0.0039016886 0.00797955 0.009118689 -0.00856306
000050 f4 a5 05 3c bb 75 c4 3a a4 8e 1c 3c 55 9e 3d 3b
       0.008157242 0.00149887 0.009555493 0.0028933485
000060 4f ff 03 3c 7a 1f 2e 3b 72 c8 75 3a 24 06 19 bb
       0.008056476 0.0026569054 0.0009375877 -0.0023349607
000070 69 37 64 3c 8e e7 01 3b 77 51 11 bb 7b 97 25 3b
       0.013929226 0.0019821855 -0.00221738 0.0025267291
000080 19 3b b1 3b 21 10 82 3b e4 d4 19 3b 4f 0b 8c 3b
       0.0054086563 0.003969208 0.002347284 0.004273809
000090 53 1a b8 bb 97 69 87 ba 3f 70 83 ba b1 dc db 3b
       -0.0056183725 -0.0010331151 -0.0010027959 0.006709658
0000a0 ba a9 50 3b 6d ef 6b 3b a1 5a 2d 3b 41 85 83 ba
       0.0031839446 0.0036000863 0.0026451724 -0.001003422
0000b0 63 2e aa 39 e5 bd f1 3b 3f 1f 3d 3a 92 6f bb ba
       0.00032459488 0.0073773735 0.0007214434 -0.0014300218
0000c0 ee 88 f5 3b 75 e6 d2 3b ff dd 82 bb 56 e1 6f bb
       0.00749313 0.006436164 -0.003993749 -0.0036602817
0000d0 29 eb 19 3c 7f e8 ff 3b 68 f4 78 3b c0 d4 bf 3b
       0.009394445 0.007809698 0.0037987474 0.005854219
0000e0 a9 3a 76 b9 18 75 31 3b b1 8d 37 3c 87 4a 1b ba
       -0.00023482241 0.002707785 0.011203215 -0.0005923886
0000f0 42 39 89 3b 37 bd fc 3b 2c ac 20 3b a6 bb b2 3b
       0.004187734 0.007712986 0.0024516685 0.0054544983
000100 e4 73 5f 3b 56 c4 a5 3b 45 25 e6 bb 08 f2 c9 3b
       0.0034096176 0.0050588055 -0.007023486 0.0061628856
000110 5d a1 06 3c 93 66 95 3b 06 47 02 3c a3 b2 9f 3b
       0.008217183 0.004559347 0.007951504 0.00487359
000120 b6 a7 16 3c 18 14 26 3b 4a f8 ad 3a 17 b5 df 3b
       0.009195259 0.0025341567 0.0013272848 0.0068270075
000130 49 bd a2 3a c5 ad bd 3b f5 f0 cf 3b ac 83 77 3b
       0.001241603 0.005788537 0.006345863 0.0037767692
000140 fe 9b 3b bb f0 6c 0c 3c 67 78 f3 3b c0 32 5b bb
       -0.0028626914 0.008570895 0.0074301246 -0.0033446997
000150 df 50 07 bc 6b e6 98 3a 7b e3 a8 3a cf fc 51 3a
       -0.008259027 0.001166535 0.0012885177 0.00080103887
000160 4b 9d fa 3b fd 6f 2c 3c ca 60 25 ba bc 7a fd 3b
       0.0076481453 0.010524747 -0.0006308673 0.0077355783
000170 a7 5d a9 37 a5 24 35 bb 5c 8a 5a 3b ca 4a 98 bb
       2.018998e-05 -0.002764025 0.0033346629 -0.0046475874
000180 2a 10 c8 b9 a3 5b d5 3b 17 c3 a2 3a b6 6a c0 3b
       -0.00038159016 0.006511168 0.001241776 0.005872096
000190 cb d9 11 ba 14 77 5f 3b b0 7a a3 3b 64 a3 8b 3b
       -0.0005563765 0.0034098076 0.0049889907 0.004261421
0001a0 ac 5b 31 3c c4 09 dc 3b 9a 5f f2 39 d0 00 50 3b
       0.010825079 0.0067150313 0.00046229066 0.0031738766
0001b0 bf b3 2a 3b f0 0f 2d 3c 26 d4 d6 38 90 50 3d bb
       0.0026047078 0.010562882 0.00010243831 -0.002888713
0001c0 91 2f ee 3b 62 7c a2 3b a6 ae e6 bb 3c 65 8f ba
       0.007268854 0.0049586752 -0.0070398627 -0.0010940204
0001d0 b2 b4 a5 3b d5 5b 5c b9 7e 77 a7 3b 2f c3 17 3c
       0.005056941 -0.00021015045 0.00511068 0.009262844
0001e0 f5 3f b6 3b 46 2e 80 bb 9f 9a 8b 3b 5d 0a 40 3b
       0.0055618235 -0.003911766 0.0042603756 0.0029303052
0001f0 53 76 70 3a 6a f0 7a 3b c7 ee b4 bb f8 71 6c 3c
       0.0009172905 0.003829027 -0.0055216285 0.014431469

net.net.2.weight f4 [128, 128]
000000 96 67 e6 bb b1 f6 20 bd 9b 13 1d 3b e0 f2 1f 3d
       -0.0070313914 -0.039297763 0.0023967985 0.039049983
000010 b4 65 03 bd 8a 7a c7 3c 57 90 95 3d 8a aa 7d bd
       -0.032079414 0.024350423 0.07302921 -0.061930217
000020 db b0 2c 3b e5 e1 b1 bb 81 c8 77 39 9c 5b 5e 3d
       0.0026350531 -0.00542854 0.00023630449 0.054286584
000030 ae 55 67 3d 03 64 e6 bc 0f a8 a2 bc fb 29 8c 3c
       0.056478195 -0.028123861 -0.019855527 0.017109862
000040 6b 75 6a 3c ac d7 6d bc 94 66 96 bd 06 24 b3 3c
       0.014310221 -0.014516752 -0.07343784 0.021867763
000050 fe 13 f3 bc ae 96 27 bb 90 b6 2e 3c 17 50 97 3c
       -0.029672619 -0.002557199 0.0106636435 0.018470807
000060 f0 ea 3b 3c fc 39 0f bd 87 c5 1c bc e0 d5 81 bb
       0.011469588 -0.034967408 -0.009568579 -0.0039622635
000070 42 b9 5c 3d 39 21 01 bc be 57 0d 3d 56 4c ee 3c
       0.053887613 -0.007881456 0.034507506 0.029089134
000080 28 8a 25 3b bd b5 53 3c a6 b2 d6 bc aa 0d 8a bc
       0.002525935 0.012921748 -0.026208233 -0.016852219
000090 c5 dc 75 3d 74 a8 dd 3c 93 d8 b4 3c cd 24 a4 3a
       0.060024995 0.027057864 0.022075927 0.0012523175
0000a0 7a ff 61 3d 84 18 79 3a 32 d1 7c bd 7c 15 16 3d
       0.055175282 0.00095022493 -0.06172294 0.036641583
0000b0 6e 03 bf bb 74 8f 93 3d 10 b6 33 3b 6c 17 1c bc
       -0.0058292663 0.07205096 0.002742175 -0.009527069
0000c0 7c e4 cc bb 2e 92 66 3d 74 71 10 bd ad ab 70 3d
       -0.0062528234 0.05629175 -0.035264447 0.058757473
0000d0 f7 9e 81 3d 79 ad df 3c 91 8c 52 3d 94 22 3f bd
       0.06329148 0.027304398 0.051403586 -0.046663836
0000e0 81 67 9b bb 73 96 59 3c c1 39 2e 3b 64 63 34 bb
       -0.0047425632 0.013280499 0.0026584717 -0.0027525062
0000f0 34 40 4b bd ab b4 ab 3b 8e 3d d5 bb c2 fa f7 3c
       -0.049621776 0.005240043 -0.006507582 0.030270938
000100 0b 32 f5 3c 25 4b a1 3c cc e5 8e 3d 55 5d 7e bc
       0.029931089 0.019689152 0.06977424 -0.015525182
000110 e0 16 9f 3c c2 b0 1a bd 43 f2 e1 3b b7 af 2a 3c
       0.019420087 -0.037766226 0.006895335 0.01041787
000120 24 fb 31 3c 7d 84 0c 3d ad bd 2c 3d 29 89 e0 bb
       0.010863099 0.03430604 0.042173076 -0.0068522883
000130 92 84 2f bb 57 1f c1 3b e5 d8 94 3d e2 1d bb 3b
       -0.00267819 0.0058936286 0.07267932 0.0057103494
000140 44 c1 43 3c 41 4d 44 bd ef e0 e4 bc 58 fb 06 3b
       0.011947934 -0.047925238 -0.027939288 0.002059659
000150 ad 09 db 3d 30 7e 75 bb f6 74 01 bd 48 76 81 3d
       0.10695205 -0.0037459247 -0.031605683 0.063213885
000160 33 89 a5 3a 7e 0b 34 bb cb 23 26 3c c9 94 dc 3b
       0.001262939 -0.002747267 0.01014037 0.0067316038
000170 45 6d 6f 3d 88 da 04 3e d2 32 d8 3b 90 31 1f bd
       0.058453817 0.12973988 0.006597855 -0.038865626
000180 dc dd 3c bd d2 ae 9d bc eb c1 14 bc 6b 5b 06 3d
       -0.04611002 -0.0192484 -0.009079437 0.032802027
000190 35 8d 45 3d 05 14 c7 3d 59 a9 aa 3d 79 46 49 3d
       0.04823037 0.09720615 0.08333082 0.049139474
0001a0 ec 3c 95 3d ea 51 6f 3d 51 7d ac 3c 59 6f 18 3d
       0.072870106 0.05842773 0.02105585 0.037215564
0001b0 c4 fd a9 bc 52 e4 8c 3c 40 41 93 3c 3c 1e 8c 3d
       -0.020750888 0.017198715 0.01797545 0.06841704
0001c0 5a 0c 1c 3d 62 61 6e bd 5c 4a 8f bd b8 3b 41 bd
       0.038097717 -0.05819834 -0.06996605 -0.047176093
0001d0 98 07 33 3d 24 32 3a bd 39 99 8a bc 30 6f 8d 3c
       0.043708414 -0.045457974 -0.016918765 0.017264932
0001e0 db 11 23 3b f3 81 96 bd 19 b8 a3 3c 48 4c 0c bd
       0.002488247 -0.073490046 0.019985246 -0.034252435
0001f0 e1 e9 1f bd 19 81 cc 3c 57 01 92 3b 13 a9 1c bd
       -0.039041404 0.024963902 0.004455726 -0.03824718
000200 c2 4f 1f bd dc 2d f7 3b 50 ef af 3b 24 98 91 3d
       -0.038894422 0.0075433087 0.0053691044 0.07109097
000210 fd 54 b1 3c c5 46 09 3d 00 37 21 3d 77 c2 d9 ba
       0.02164697 0.033514757 0.039359093 -0.0016613741
000220 93 ff 15 bd 93 59 56 bc 5f 48 06 bc b2 0b 6b bc
       -0.036620688 -0.01308288 -0.008195966 -0.01434605
000230 a3 85 1c bd 4b 09 81 bc d8 d2 2a 3d ba 8e 01 3d
       -0.038213383 -0.015751502 0.041704983 0.031630255
000240 81 d4 bc ba be 0c 9f 3c 0b 6a 57 3d ee 76 2d bd
       -0.0014406593 0.019415256 0.052591365 -0.04234975
000250 9c bf 5d bc 82 a8 e5 3c da da 9f bc 7b dc ec 3c
       -0.013534453 0.028034452 -0.019513536 0.028913727
000260 ab 57 17 3d 3e c5 6f ba 71 b1 82 bb a1 ed 3b bd
       0.03694884 -0.0009146518 -0.003988438 -0.045880917
000270 5d 66 33 bd b7 90 84 3c 91 7e 52 bc a3 d4 b8 bb
       -0.043798793 0.016182287 -0.012847559 -0.0056405826
000280 9b 3a db bc 45 dd eb 3c 12 cb a8 bb 95 51 6f 3d
       -0.026761344 0.028792033 -0.005151161 0.058427412
000290 5b 29 31 3c 7f 14 28 3b 7f 80 a5 3b d5 c1 37 bc
       0.010813083 0.0025646982 0.0050507183 -0.011215647
0002a0 8d 7c 29 3d 78 e8 33 3d fb 91 37 3c e5 01 b2 3b
       0.041378547 0.04392287 0.011204238 0.0054323548
0002b0 43 4b 2a 3b ec 6f 56 3d 68 d7 8d bc fd 29 e9 bb
       0.00259848 0.05235283 -0.017314628 -0.007115601
0002c0 0e fa 39 bb bf fb 14 3b 7c 08 04 bd a9 dc 23 bd
       -0.0028377804 0.002273306 -0.032234654 -0.04000536
0002d0 62 62 3a 3c 47 7d e2 bb db 49 1f 3d f7 88 74 3c
       0.011375995 -0.006911907 0.038888793 0.014925233
0002e0 cb bb 65 bc b2 4d 05 3a 91 f2 b3 3c c7 3f 75 3b
       -0.014021824 0.0005085125 0.02196625 0.0037422047
0002f0 b6 1b 0c 3d 66 19 0f 3d e7 34 eb bc 98 39 5c bd
       0.034206115 0.03493633 -0.02871175 -0.053765863
000300 b2 0f 7d 3b a6 df e3 bb ba e3 cc bc b7 3b b3 bc
       0.0038614091 -0.006954151 -0.025010932 -0.02187906
000310 74 b9 5b 3c 98 31 f9 3c 34 b2 a3 bc af fc e9 bc
       0.013410915 0.030419156 -0.019982435 -0.028562872
000320 94 2c c1 bc 43 12 54 bb 35 2d c6 3c 83 d7 01 bd
       -0.023580827 -0.0032359518 0.024191478 -0.03169967
000330 e7 74 2d 3d 99 a8 a8 39 c5 0e 2d bd cb f1 61 3d
       0.042347815 0.00032169072 -0.042250413 0.055162232
000340 0b 1c 8e 3c ef 6e fe 3c 2f ef 01 3d 07 f3 19 bc
       0.017347356 0.031058757 0.031722244 -0.009396321
000350 2c e5 9c 3c 2b 99 dd bc dc 2f 0f bd 43 09 00 3b
       0.019152246 -0.027050575 -0.03495775 0.001953677
000360 f9 8d e6 3a ef f0 28 3d 51 72 c0 bc 14 b4 33 bd
       0.0017589919 0.041245397 -0.02349201 -0.043872908
000370 0d ec d6 3c 2e 7b 30 3d a0 84 29 3c df f8 6e bc
       0.026235605 0.043086223 0.010346562 -0.014585703
000380 25 3a 23 bd 6a 81 8c bc a1 68 6c 3c db dc 07 3c
       -0.039850373 -0.017151553 0.014429242 0.008292402
000390 1c 21 02 3c bc 2f 04 3c de 90 e7 bc 99 35 15 3d
       0.007942464 0.008068021 -0.02826732 0.036428068
0003a0 ec a3 71 39 d5 d1 a8 bc bf c8 11 bd eb ae 98 bc
       0.00023044617 -0.020607868 -0.035591837 -0.018638095
0003b0 e3 03 b2 3c 88 3f 15 bd 23 0d 4d bb 61 0a 0b bc
       0.021730369 -0.03643754 -0.0031288348 -0.008486361
0003c0 41 42 9a 3c 8d c4 fc bb 28 76 dd 39 1a 90 1e 3c
       0.01883042 -0.0077138604 0.00042240438 0.009677911
0003d0 0e 9a ab 3c 07 83 67 bb 26 73 85 3b a0 e5 02 bd
       0.020947482 -0.00353259 0.0040725647 -0.03195727
0003e0 e5 cd 81 3c 8f e4 59 bd 98 b4 06 bd f1 54 de bc
       0.015845248 -0.053196486 -0.03288707 -0.027140113
0003f0 83 17 b2 bc 29 aa a5 3c 7d 20 3a bd 7b c1 ca 3b
       -0.021739727 0.02022274 -0.04544114 0.0061876155

net.net.2.bias f4 [128]
000000 40 d6 4d bc 50 62 da ba d8 0b 59 3b 50 31 18 3c
       -0.012563288 -0.001666138 0.0033118632 0.009289101
000010 f5 14 b7 3b da 9d d4 3b b7 bc 5d bb b9 53 a2 3b
       0.005587215 0.006488544 -0.0033834407 0.004953828
000020 f9 12 98 bb e1 84 0d bb c6 74 95 3b d7 91 00 bb
       -0.0046409336 -0.0021594095 0.0045610396 -0.0019618177
000030 8b db 39 bc 65 f6 e5 b9 29 8a 50 3c 00 3a bb 3c
       -0.011343847 -0.00043861862 0.012728252 0.022854805
000040 30 b7 0b 3c 39 c4 91 3b 43 0b 8e 3c 0c db 61 bb
       0.008527562 0.0044484404 0.017339354 -0.0034462838
000050 84 72 30 3c 87 d7 a1 bb 50 06 06 3c 93 24 01 3c
       0.01076949 -0.004939023 0.008180216 0.007882255
000060 77 49 95 bb e0 12 94 3c 2d b8 34 3c 14 03 93 3b
       -0.004555877 0.018075407 0.011030239 0.004486451
000070 9b 59 7f bb f7 60 42 3c 2c ed 36 3c 5b c9 f6 3b
       -0.003896332 0.0118639385 0.011164945 0.0075313277
000080 0f 63 67 3c 52 81 5e bb 3e f5 24 3a 98 f0 28 bb
       0.0141227385 -0.0033951593 0.00062926474 -0.002577817
000090 e0 b8 6a 3c 8f fc 70 37 b8 85 0a 3c 6d 4b 12 bc
       0.014326304 1.4363918e-05 0.008454733 -0.008929116
0000a0 19 3b 39 3c 68 f7 06 3b d9 e9 19 bc 3f 5e f2 3b
       0.011305594 0.0020594243 -0.0093941325 0.007396489
0000b0 4e 4d 1b bb 48 1a d5 bb cd a3 11 3c 13 b2 6a 3c
       -0.00236972 -0.006503377 0.008889151 0.014324683
0000c0 52 a4 4e bc 54 37 7a 3c 61 84 3f 3c ff 01 0e bc
       -0.012612419 0.01527198 0.011689276 -0.008667468
0000d0 8e c5 1a 3c 22 2f a1 ba 4a 3e af bb 40 dd f4 3b
       0.009446515 -0.0012297372 -0.0053480016 0.007472664
0000e0 fb e4 4a b9 f1 d6 9d 3b 3a 81 8e ba 63 73 8d bb
       -0.00019349523 0.004816883 -0.0010872253 -0.0043167337
0000f0 dd 99 e3 3b 14 ac 04 3c 60 15 43 3c e7 3b 42 bb
       0.006945832 0.008097667 0.011906952 -0.0029637755
000100 c2 c4 04 3c 3e 9d 8e 3c bf 59 06 3b 20 9b 09 3b
       0.008103551 0.017408963 0.002050027 0.0020997003
000110 19 30 12 3b 26 7c 84 3b fa 3a ef 3b 75 41 e9 bb
       0.00223065 0.00404312 0.0073007317 -0.007118399
000120 07 5e 2d 3a c3 25 fe 3b 91 75 3f 3c 68 ed f7 3a
       0.00066134374 0.0077559664 0.011685745 0.0018915357
000130 d4 ab a6 3c a5 c4 35 3c b8 4b 57 bc 71 1f 14 bc
       0.020345606 0.011094247 -0.013140611 -0.009040699
000140 16 f1 5e bb ef f9 36 3b bb 60 4e b8 6f 36 8b bb
       -0.003401821 0.0027919968 -4.9204315e-05 -0.0042484323
000150 bc 6e 9d 3c 0e 43 b2 3b 2e e9 3a bb 5d 0d 3b 3c
       0.019217841 0.0054401224 -0.0028520334 0.01141676
000160 47 18 77 bb f0 35 7d bc e9 64 3e 3c ad 5a 8a 3c
       -0.003770368 -0.015454754 0.011620739 0.01688894
000170 ce 57 80 3b 47 3f c0 3c 20 30 e9 3b 08 a7 2b bc
       0.003916717 0.023467673 0.0071163327 -0.010476835
000180 63 5e 14 3b dd b5 bc ba 9f 1e 3a 3b 30 8e 89 bb
       0.0022639267 -0.0014397461 0.00283996 -0.0041978583
000190 c4 dc 5d 3c 57 1b 14 3b 59 2a 32 ba 8b 0b 6e 3b
       0.013541404 0.0022599304 -0.00067964714 0.0036322798
0001a0 7e 90 13 3c d3 8f f3 ba ac a1 ac 3c 3f e3 06 3a
       0.009006618 -0.0018582292 0.021073185 0.00051455566
0001b0 45 c1 25 3c 7b ef 14 bc 9b 1c 75 3b bf fe c7 38
       0.01011688 -0.0090903 0.0037401083 9.5365096e-05
0001c0 6f 68 5b bc 8b fa 97 3c c2 56 fc ba 66 50 89 bb
       -0.013391598 0.018552085 -0.001925193 -0.0041904924
0001d0 db ba 0b 3d c5 2e 2a bb f0 7e ac 3c 06 fc a5 3b
       0.034113746 -0.0025967818 0.021056622 0.005065444
0001e0 07 3a d1 3b 5c bc 34 3c 9f f3 c0 38 2c 1e d4 3b
       0.006385091 0.0110312365 9.2006514e-05 0.0064733233
0001f0 35 35 5f 3c 2a 46 5c bb 2c 8f e0 bb 89 82 ad bb
       0.013623525 -0.0033611157 -0.006853005 -0.005295102

net.net.4.weight f4 [20, 128]
000000 41 af 08 3c 38 5f 1d bd ca 72 56 3c c7 cd 59 3d
       0.008342565 -0.038420886 0.013088891 0.05317476
000010 b8 4d eb 3b bb 93 be 3c 3c 2d cc bb 07 3e 7c bd
       0.0071808957 0.023263803 -0.0062309783 -0.06158259
000020 27 d3 aa 3c a7 b6 19 bd 2c 64 28 3d 27 a6 61 3c
       0.020852638 -0.037527706 0.041111156 0.013772524
000030 ab 35 3c 3d 7d d0 63 bd e4 2c 2f bd c2 05 48 3d
       0.04594962 -0.05561875 -0.04276742 0.048833616
000040 05 3c bc 3c 61 19 95 bc 8c fa 24 3d 6e 6f a4 bc
       0.022977838 -0.018200578 0.040278003 -0.020072665
000050 e1 1f c6 bc 35 f4 76 bd d6 e6 6e 3c f1 0c 9e 3d
       -0.024185123 -0.060291488 0.014581403 0.07717312
000060 f1 75 85 bd 84 9b 51 bd 70 4f 8e 3d 68 43 ae bc
       -0.06516636 -0.051173702 0.06948745 -0.021272376
000070 42 50 c1 bc a5 a5 82 bd 90 f9 d4 3b 8f 13 af 3b
       -0.02359784 -0.063792504 0.0064994767 0.0053429077
000080 be 62 87 3a b4 84 de 3c 9f 1a 25 3b 38 09 65 bd
       0.001032911 0.027162887 0.002519287 -0.055916995
000090 e3 e7 7a bd b0 dd 8e bc cd 52 c4 3c 9b 91 55 bc
       -0.0612563 -0.017439693 0.023965264 -0.013035203
0000a0 96 51 c7 bb dd 2e 83 3d f1 bb 8c bc 12 f7 d0 bc
       -0.006082724 0.06405423 -0.017179461 -0.025508437
0000b0 2e 00 43 3c 63 41 47 bd 81 cf 6a 3d 07 e6 2c bb
       0.011901898 -0.048646342 0.057326797 -0.0026382224
0000c0 a6 d1 2b 3c dc 1d c8 3b c2 a3 2c bd cb de 80 bd
       0.010486996 0.006107075 -0.04214836 -0.062924944
0000d0 63 2a 80 bd 39 40 5f bc 07 0a 1b bc 82 59 88 bb
       -0.062580846 -0.013626152 -0.00946284 -0.004161061
0000e0 5a 7e 9d bc 73 31 39 ba dc 58 cc 3c 5d 7c 89 bc
       -0.019225288 -0.00070645584 0.024944715 -0.016782934
0000f0 b8 e8 06 bd f7 c0 d9 3b 6b 42 16 3d 55 fa bd 3c
       -0.03293678 0.0066453177 0.036684435 0.023190657
000100 24 4f 85 3d f3 65 3e bd 4b 17 1e 3d 64 b8 d4 bb
       0.065092355 -0.046483945 0.038596433 -0.0064917076
000110 96 f6 12 3c 2e c3 ce bc 72 17 59 bb 0a c8 61 3c
       0.0089699235 -0.025239553 -0.0033125547 0.013780603
000120 a1 be f2 3c 44 0b 56 3d 79 47 89 3d 02 f3 5e 3c
       0.029631915 0.052256837 0.067030855 0.013607742
000130 ef b2 9b bc b9 6d 96 3b b2 4f 90 bd 64 51 0c bb
       -0.01900622 0.0045907167 -0.07046451 -0.0021410817
000140 b7 65 cc 3c 68 84 e7 bb b7 94 a6 3c bc 8c 04 bc
       0.024950845 -0.0070653446 0.020334585 -0.008090194
000150 2c 9f 04 3c 9d 56 62 bd 3f b0 c4 bb a9 b5 1d bc
       0.00809459 -0.055258382 -0.0060024555 -0.009625831
000160 3e f8 0e bd 46 2c 90 bd f3 c8 26 3c f2 68 22 3d
       -0.03490471 -0.070396945 0.010179746 0.039650865
000170 ff c4 d3 bc 2a fa 99 bd eb 46 ab 3c d3 5d a4 bc
       -0.025850771 -0.07518418 0.02090784 -0.02006427
000180 c0 dd 3b bd 50 dc 19 bd 3d 84 2a 3c f1 81 1a bc
       -0.045865774 -0.037563622 0.010407505 -0.0094303945
000190 da 5b 82 3d 03 45 1c 3c a4 b2 89 3c 7e fb 29 3c
       0.063651755 0.009537938 0.016808815 0.010374902
0001a0 90 c7 a3 3d b1 5c 0a 3d 58 9b 16 3d b3 8d 86 bb
       0.07997048 0.033779804 0.03676924 -0.0041062473
0001b0 ed bc 05 3c 66 a2 ef 3d 68 f5 b3 3b 6a 14 06 bd
       0.008162719 0.11700897 0.005491901 -0.032734312
0001c0 e8 c5 4e 3d 18 43 04 3d 66 63 cb 3b 94 a3 ab 3c
       0.050481707 0.032290548 0.0062069176 0.020952024
0001d0 41 d3 23 3d 0a b0 b2 3b bb a7 ea bc 6f 97 a7 3b
       0.03999639 0.0054531144 -0.028644433 0.005114488
0001e0 66 5e 68 bc 82 fe 2e 3d 97 d7 ef 3c a3 4b 67 bd
       -0.014182663 0.042723186 0.029277606 -0.056468617
0001f0 f0 56 01 bd bc a6 1d 3d ea 5e 2c 3d 22 19 cc bb
       -0.03157705 0.03848909 0.042082705 -0.006228582
000200 58 ae 14 bd 8c ec f7 3b 56 68 af bc 26 b3 bd 3c
       -0.03629908 0.0075660404 -0.021412056 0.023156714
000210 e8 c0 16 bc 1f 0a 06 3d 86 27 fc bb 66 dc 10 3d
       -0.009201266 0.032724496 -0.0076951412 0.03536644
000220 63 3e fa bc 7a 5a ad 3d ba 16 80 3b bb f8 c0 3b
       -0.030547326 0.08464523 0.003908959 0.005889026
000230 ee d1 9e bc 51 d7 2b bd c7 da 72 bc a6 32 d9 3d
       -0.019387212 -0.04195339 -0.014822668 0.106053635
000240 07 a1 46 bd ed 59 9a bc 33 23 9d 3c 44 c3 0f bc
       -0.04849341 -0.018841708 0.019181823 -0.008774582
000250 89 42 17 3d a6 84 5b bd 84 f6 01 bd f9 e8 e5 3c
       0.036928687 -0.0535933 -0.031729236 0.028065192
000260 20 9b b8 ba 48 2b 5d bc f8 4d 4a 3d be 2e 89 3c
       -0.0014084317 -0.013499089 0.049390763 0.016745921
000270 96 0a 25 3c a5 7d 57 3c c1 5d 35 bc 76 7a 1d 3d
       0.010073325 0.013152515 -0.011069716 0.038446866
000280 c7 87 04 bb ed 77 25 3d c9 1c c2 bc 5c b5 01 3d
       -0.0020222531 0.040397573 -0.023695366 0.0316671
000290 83 30 ab 3d 92 b7 df bc e3 29 1f 3d 65 64 9d bd
       0.08358862 -0.027309213 0.038858306 -0.07685164
0002a0 4d 92 c4 3c 54 10 d1 3d bc ca 3d bc aa 8c 14 3d
       0.023995543 0.102081925 -0.01158398 0.03626696
0002b0 5e b3 84 3b ef d9 8e 3b 25 2d 70 bd 8d 39 f0 3c
       0.0040497025 0.004359476 -0.058636803 0.029324317
0002c0 2b 83 f4 bc bf b4 2a bc 29 bc 61 bd 2f 09 21 bd
       -0.029847702 -0.01041907 -0.055111084 -0.0393154
0002d0 69 ab ec 3c 26 11 5f 3c 1f 11 0b 3d 1a 2c 59 bc
       0.028890328 0.013614928 0.033951875 -0.013255144
0002e0 96 6b ae 3c 8e 11 aa bc 20 d5 da 39 86 0f cb bc
       0.021291535 -0.020760324 0.0004173899 -0.024787676
0002f0 98 e6 fc bb a0 96 4c 3d b4 9b f9 3b 9c 32 ff 3a
       -0.0077179186 0.049948335 0.007617438 0.0019470039
000300 56 62 30 3d f1 a8 e3 3c 81 33 fc 3c 0f 25 ae bc
       0.04306253 0.027790518 0.030786278 -0.021257905
000310 5b 84 3b 3c 68 24 23 bd 91 cb dd 3c 3a d9 93 bb
       0.01144513 -0.03982964 0.027074607 -0.0045119794
000320 4a a6 6b bd 7b 4a c7 3b 94 46 3d bd 9f e9 5d 3c
       -0.057531632 0.006081877 -0.046209887 0.013544469
000330 28 7e 96 3c 1b 82 a0 3c 77 83 9f bc aa 87 43 3a
       0.018370703 0.01959329 -0.019471867 0.0007458875
000340 30 12 35 bd d3 41 13 3c 17 38 24 bd 33 fa c3 ba
       -0.044206798 0.008987862 -0.040092554 -0.0014951885
000350 f3 33 30 3d 81 97 24 bd 7b fc 17 bc 57 25 21 bc
       0.043018293 -0.040183548 -0.009276505 -0.009835563
000360 61 3f 08 bd 87 e1 39 bd 18 0b 75 3c db 1c 01 bd
       -0.033263568 -0.045381095 0.014956258 -0.03152166
000370 3e 81 fa 3c bb e4 5f 3d f7 a2 28 3d a6 e8 b6 bc
       0.030579206 0.054661494 0.04117104 -0.022327732
000380 2e 3e 02 bd e7 04 c7 bd c9 c5 db 3c 41 7b 5c bb
       -0.03179758 -0.09717732 0.02682771 -0.00336428
000390 fb 46 77 3c 03 1f 92 3c a1 46 38 bc 13 70 f4 3c
       0.015092607 0.017837053 -0.011247308 0.029838597
0003a0 1e 8a 55 bc 77 e7 0e bc 0b a9 09 3d 7c ca 0a bd
       -0.013033418 -0.008722178 0.033608478 -0.03388451
0003b0 b9 de 71 3d 6a b9 f5 3c a4 f9 33 39 7e dc 1d bd
       0.059050296 0.029995639 0.00017163769 -0.038540356
0003c0 17 ff a0 bd 3b a3 39 3c 9d 8e e9 bb 87 28 43 bd
       -0.078611545 0.011330421 -0.0071275965 -0.04764607
0003d0 d9 5b aa 3d fd 4d 0a bd 67 2b 67 3d ac f1 13 bc
       0.083183 -0.03376578 0.056437876 -0.009029787
0003e0 3f c2 72 3b c8 d4 31 3e a8 fa 88 3d 32 43 c7 bb
       0.003704205 0.17366326 0.06688434 -0.0060810084
0003f0 fd 03 59 3c ad a8 40 bd 2d d1 63 bc 6b da 3f 3d
       0.01324558 -0.04703586 -0.013904852 0.04683916

net.net.4.bias f4 [20]
000000 ae 98 f6 3c 99 6a a3 3d 3f 60 b9 bc 7c a7 91 3c
       0.0301021 0.07979316 -0.022628902 0.017780058
000010 3d 48 1c 3e 90 71 95 bc a3 8d d1 3b 30 de ba 3a
       0.15261932 -0.018242627 0.0063950582 0.0014256891
000020 04 aa 19 3c 78 d9 61 bd 5a 30 44 3d 20 96 c3 3c
       0.009378914 -0.055139035 0.047897674 0.023875296
000030 3e 3b 4b bd 1f e6 7a bd 1a d6 3f bd 03 2b cc bd
       -0.049617045 -0.061254617 -0.046835043 -0.09969141
000040 35 9f 89 bd 54 f4 aa 3d 0a 76 a7 bb f2 4e d0 bc
       -0.067198195 0.08347383 -0.005110507 -0.025428269
